process/predict/models/tangyun/mlp_model.pth (torch, 12124 bytes, 5 tensors)

fc1.weight f4 [64, 3]
-0.5626861 -0.06868261 -0.22865379 -0.3942389 -0.45999134 0.09195542 0.25424993 0.4957875
-0.41764268 0.37511614 0.54569954 0.497995 0.30114415 0.11075833 0.48153222 -0.40091416
0.50920343 0.2133657 0.09233124 0.25156188 -0.061148208 -0.41231668 0.58355486 0.5553447
-0.40237436 -0.36377883 0.14866497 0.524799 0.2782411 0.5270189 -0.20576513 0.2817033
-0.10759258 -0.38689688 0.54964757 -0.25237277 0.5413437 0.11327277 0.58668435 -0.29011908
-0.4486674 -0.5325084 0.4857575 0.282473 0.11583301 0.320956 -0.3948446 0.33084008
-0.18235639 0.34424382 -0.49146548 0.1706937 -0.32196134 0.024156764 -0.19842573 0.2384784
-0.6022762 0.38723442 0.11463628 -0.46587807 -0.1853333 -0.19405918 0.55276835 0.3425452
0.33308056 0.011988561 0.06153798 -0.542127 0.026414692 -0.32850623 0.44701347 0.46471828
-0.4907885 -0.08346483 0.5191027 0.21846263 -0.1501941 -0.100078546 -0.14511728 0.5391681
-0.508015 -0.4331856 0.375273 -0.1301804 -0.4786434 -0.3760193 0.25142574 0.12316906
0.53023106 0.018667001 0.41437364 -0.36968213 0.019479454 0.3495295 -0.18983983 0.53686565
0.62609553 -0.320818 -0.40942526 0.18711796 0.5256084 0.13803557 -0.29539284 -0.374507
0.066161335 -0.43981802 -0.08709416 -0.0032559037 0.41130272 0.43965483 0.5977735 -0.42244866
-0.11274281 -0.334082 -0.06057602 -0.049904227 -0.21706584 0.11464107 -0.07042229 0.20128244
-0.19602555 -0.039367232 0.4630412 0.35369155 0.27240178 0.01224809 0.3874524 -0.19006403
0.1943469 0.2983083 -0.31827417 -0.4660301 -0.53504664 -0.13375387 -0.45829704 -0.35792366
0.44765466 -0.5483235 0.2194427 0.14438316 -0.28271163 0.08953821 0.38951442 -0.27878332
0.10052621 -0.026840486 -0.41721895 0.17813164 -0.4922509 -0.031398 -0.22252323 0.241369
0.16583458 0.01383478 0.14421833 -0.09799281 0.49085322 -0.37771812 -0.3818448 -0.4428923
-0.14673957 -0.22788176 0.060064618 0.5711905 -0.40759593 0.003440316 0.21254498 -0.014407087
-0.109380655 0.24782257 -0.20279439 0.23321675 -0.5335646 0.26079065 -0.22856107 -0.30019534
0.28240842 0.5057833 0.08296067 -0.023075607 -0.3160429 -0.038225353 0.05631256 -0.2438086
-0.45488364 0.0933547 0.07658286 0.3619218 0.5836077 0.036417823 -0.47658902 0.6238653
00000000: 320c 10bf 78a9 8cbd 3824 6abe aed9 c9be
00000010: fc83 ebbe 2053 bc3d 0c2d 823e dcd7 fd3e
00000020: 43d5 d5be 390f c03e f7b2 0b3f 33f9 fe3e
00000030: 912f 9a3e 43d5 e23d 648b f63e 9f44 cdbe
00000040: 285b 023f 8a7c 5a3e 2918 bd3d b8cc 803e
00000050: 8b76 7abd 2c1b d3be da63 153f 122b 0e3f
00000060: 0304 cebe 3841 babe a13b 183e 3a59 063f
00000070: 9e75 8e3e b6ea 063f 18b4 52be 6a3b 903e
00000080: 8059 dcbd 5917 c6be b4b5 0c3f 0137 81be
00000090: 8095 0a3f 8efb e73d f230 163f 7d8a 94be
000000a0: bcb7 e5be 7852 08bf 35b5 f83e 4da0 903e
000000b0: db39 ed3d 5854 a43e 1229 cabe df63 a93e
000000c0: a2bb 3abe ba40 b03e 5da1 fbbe 54ca 2e3e
000000d0: 1ed8 a4be 68e4 c53c 1d30 4bbe af33 743e
000000e0: c62e 1abf 9743 c63e 6dc6 ea3d 9287 eebe
000000f0: 03c8 3dbe 73b7 46be 3a82 0d3f 1662 af3e
00000100: 8989 aa3e ab6b 443c 400f 7c3d d6c8 0abf
00000110: a063 d83c f831 a8be f3de e43e 8eef ed3e
00000120: a148 fbbe 9cef aabd eae3 043f abb4 5f3e
00000130: 7bcc 19be fbf5 ccbd a099 14be ec06 0a3f
00000140: 450d 02bf 81ca ddbe c823 c03e 034e 05be
00000150: bf10 f5be 9a85 c0be e0ba 803e 0f40 fc3d
00000160: 39bd 073f 8aeb 983c c828 d43e fa46 bdbe
00000170: 6093 9f3c 88f5 b23e 5f65 42be 0770 093f
00000180: cc47 203f 4242 a4be 30a0 d1be da9b 3f3e
00000190: 468e 063f 3259 0d3e bb3d 97be 62bf bfbe
000001a0: 987f 873d d42f e1be 6c5e b2bd 0061 55bb
000001b0: 4596 d23e 701a e13e af07 193f 314b d8be
000001c0: b4e5 e6bd cc0c abbe 901e 78bd 6068 4cbd
000001d0: 8246 5ebe f0c8 ea3d 9039 90bd fc1c 4e3e
000001e0: ecba 48be 893f 21bd bc13 ed3e 0f17 b53e
000001f0: 3f78 8b3e 36ac 483c 2960 c63e 25a0 42be
00000200: e002 473e debb 983e d5f4 a2be 7f9b eebe
00000210: d1f8 08bf c6f6 08be e9a5 eabe c541 b7be
00000220: fe32 e53e ee5e 0cbf 96b5 603e 2ed9 133e
00000230: 94bf 90be cf5f b73d 6f6e c73e b0bc 8ebe
00000240: b0e0 cd3d 94e0 dbbc b99d d5be 2468 363e
00000250: 4f08 fcbe 309b 00bd 21dd 63be 6f29 773e
00000260: 8ad0 293e 46ab 623c f8ad 133e 74b0 c8bd
00000270: 1d51 fb3e 4564 c1be 2981 c3be c8c2 e2be
00000280: e642 16be d659 69be 5106 763d 8a39 123f
00000290: 6ab0 d0be ed76 613b 64a5 593e b40b 6cbc
000002a0: f702 e0bd 33c5 7d3e 55a9 4fbe 5fd0 6e3e
000002b0: b197 08bf 5a86 853e ea0b 6abe 34b3 99be
000002c0: d697 903e 047b 013f 49e7 a93d 0e09 bdbc
000002d0: 60d0 a1be 3092 1cbd 00a8 663d f6a8 79be
000002e0: 82e6 e8be c030 bf3d 79d7 9c3d d04d b93e
000002f0: 5067 153f db2a 153d 7a03 f4be a3b5 1f3f

fc1.bias f4 [64]
0.06976622 0.099335015 0.48237422 -0.0691506 -0.3404116 -0.48114324 0.04617061 0.37096196
0.5165679 -0.50569856 0.040709212 -0.12581141 -0.462138 -0.28166345 0.01675309 0.048122477
0.0056795846 0.56433535 0.047053725 0.29281577 0.18750325 -0.28355545 -0.4194659 0.5134906
-0.3948643 0.37773767 0.0870839 -0.119844384 -0.021687746 -0.51253784 -0.42798555 0.51359224
0.13685547 0.41458353 -0.41587836 -0.4202117 -0.34295756 -0.4913514 -0.36112058 -0.32126147
0.06810226 -0.1786595 0.14447911 0.04791689 -0.0075285435 0.23280504 0.035687152 -0.34603235
0.04498363 0.28235722 -0.20530918 0.5192472 0.3783119 0.14818835 -0.4498257 0.42138934
0.45085993 0.4565571 -0.04813671 0.44049466 0.004533112 -0.0015341043 -0.059870902 0.17082477
00000000: 98e1 8e3d 2870 cb3d c1f9 f63e d49e 8dbd
00000010: 6e4a aebe 6858 f6be 651d 3d3d baee bd3e
00000020: cb3d 043f 7675 01bf b4be 263d b5d4 00be
00000030: 5a9d ecbe 3136 90be c73d 893c 131c 453d
00000040: cf1b ba3b 4878 103f 68bb 403d f3eb 953e
00000050: da00 403e 2e2e 91be 3cc4 d6be 1f74 033f
00000060: a72b cabe d566 c13e 0b59 b23d f970 f5bd
00000070: 80aa b1bc ae35 03bf ec20 dbbe c87a 033f
00000080: d723 0c3e 4b44 d43e 02ee d4be fd25 d7be
00000090: 2298 afbe 6992 fbbe cce4 b8be 627c a4be
000000a0: 3379 8b3d 84f2 36be 55f2 133e 8044 443d
000000b0: 00b2 f6bb 7264 6e3e b12c 123d 272b b1be
000000c0: c140 383d 2091 903e 923c 52be 62ed 043f
000000d0: 19b2 c13e b0be 173e 8e4f e6be 58c0 d73e
000000e0: 1dd7 e63e dac1 e93e 002b 45bd 8488 e13e
000000f0: 808a 943b 0014 c9ba 313b 75bd b0ec 2e3e

fc3.weight f4 [32, 64]
-0.04410328 -0.021146968 -0.09479118 -0.014134393 0.079960965 0.30045393 -0.03321134 -0.06468958
-0.33439478 0.045360878 -0.057782825 -0.06156444 0.008119144 0.015489683 -0.05035042 0.3016978
-0.02803748 0.11314692 0.02298954 0.0056005553 -0.060839724 -0.046914365 0.12308031 0.10102555
-0.124310315 0.02531391 0.02529355 0.27258775 0.04445432 0.14052612 0.037208885 0.11529604
-0.109317064 -0.06399329 -0.093897566 0.02038005 0.1562041 -0.1182988 -0.036425665 0.10824841
-0.038093094 -0.008422069 0.021102767 -0.048492834 0.11395553 0.03346976 0.01255331 -0.012747078
-0.054768097 -0.08170886 -0.040571846 0.021438539 0.0057261265 0.07679708 -0.121443756 0.124775276
0.06381232 -0.093503 0.078889355 0.14259218 -0.030842468 0.044056952 -0.06836748 0.0063655335
-0.08228248 -0.017316729 -0.09081255 0.08436279 -0.010922343 -0.097932816 -0.01108937 0.03581758
0.021980405 -0.07243772 -0.04969518 -0.0055707097 -0.10301606 -0.07041842 -0.057962805 -0.027183548
0.007061124 0.03715031 0.019845486 -0.04293105 -0.05319117 -0.045037597 -0.052917123 -0.0080007315
-0.11048922 0.106906906 -0.10873681 -0.044773385 -0.043139666 -0.07089558 0.119005516 -0.09487493
-0.016258806 -0.01585424 0.03802672 -0.071874335 -0.05846402 0.08981806 0.089572325 0.12305167
-0.11013785 -0.037972733 0.06936878 0.07195142 0.026801959 0.10682997 0.107149646 0.043853045
0.027068272 0.017473131 -0.03717971 0.028224513 0.039543644 0.121016726 -0.05822964 0.08251305
0.018591061 0.077507034 -0.07363282 -0.08325291 -0.06721777 -0.09478253 -0.038509965 0.08619188
-0.04110402 0.073285356 -0.050631255 -0.05284331 0.06867177 -0.21343799 -0.09291977 0.11035849
0.21526006 -0.0077511617 -0.07145861 0.07592844 0.048364896 0.055183217 -0.06413858 -0.27268484
-0.06367934 -0.0023002322 -0.22333102 -0.016683996 0.11564697 -0.075869635 0.05069995 0.12363858
-0.073743016 0.09093588 0.046100408 -0.17311345 -0.069221765 -0.018930616 -0.01565279 0.13527997
-0.07835809 -0.096867815 0.019145712 0.0043609887 -0.010790832 0.0942204 -0.10244703 0.10245764
0.10344772 -0.091029145 0.11919096 -0.074686274 -0.116160974 0.05924103 -0.018935844 -0.18070608
-0.14823286 -0.06268272 0.06684175 -0.010923672 -0.18882 -0.0684721 -0.019915812 -0.07919963
-0.0048612203 0.09703429 0.005745247 -0.0010372817 0.095134795 -0.07999216 0.1399434 0.1293908
0.082432106 -0.058307722 -0.037931576 -0.07911733 -0.07937902 -0.11153507 -0.016932309 -0.12288679
-0.12075725 -0.023509964 0.013903514 0.038740754 -0.03524384 0.07281314 -0.06468196 0.12236942
-0.11762275 0.11586596 0.12079714 0.003518626 -0.073979706 -0.058939174 -0.117539614 0.07062097
-0.0059380084 0.09397273 -0.07680328 -0.0046866983 -0.117589965 -0.04311195 -0.028961688 -0.03245598
0.121868476 -0.007292226 -0.06559248 0.021345094 -0.00959979 -0.011487022 -0.041940153 0.11431925
-0.0033605099 -0.0721948 0.056288883 -0.08282831 0.12292147 0.00076444447 -0.1233774 -0.09474455
-0.006379485 -0.03024587 0.024682224 -0.11875835 -0.111022145 0.11655684 0.053382605 0.0772918
0.0025585145 0.04554291 0.10611692 0.09107436 0.117626086 0.03095141 0.102593645 -0.011073917
00000000: a4a5 34bd 683c adbc e121 c2bd f193 67bc
00000010: 93c2 a33d 19d5 993e 9d08 08bd f87b 84bd
00000020: cb35 abbe 54cc 393d afad 6cbd ff2a 7cbd
00000030: 2806 053c 70c8 7d3c 3e3c 4ebd 2278 9a3e
00000040: dbae e5bc 93b9 e73d 8f54 bc3c dd84 b73b
00000050: 1333 79bd 4729 40bd 8811 fc3d 7ce6 ce3d
00000060: 6896 febd 1e5f cf3c 6b34 cf3c 9f90 8b3e
00000070: bc15 363d 14e6 0f3e 5868 183d 5520 ec3d
00000080: a0e1 dfbd ea0e 83bd 5e4d c0bd 10f4 a63c
00000090: f8f3 1f3e a446 f2bd 1433 15bd 58b1 dd3d
000000a0: 8107 1cbd b8fc 09bc b6df ac3c 6ca0 46bd
000000b0: 8461 e93d 9617 093d 66ac 4d3c 1fd9 50bc
000000c0: 8354 60bd fa56 a7bd aa2e 26bd e09f af3c
000000d0: 3ba2 bb3b ca47 9d3d 81b7 f8bd 2e8a ff3d
000000e0: 09b0 823d 807e bfbd be90 a13d af03 123e
000000f0: 58a9 fcbc 1075 343d 4004 8cbd f795 d03b
00000100: b883 a8bd d0db 8dbc eefb b9bd 66c6 ac3d
00000110: a0f3 32bc 0091 c8bd 30b0 35bc 74b5 123d
00000120: 4010 b43c 3a5a 94bd 2c8d 4bbd 808a b6bb
00000130: 16fa d2bd 8837 90bd 686a 6dbd 08b0 debc
00000140: 0061 e73b ec2a 183d 0093 a23c 78d8 2fbd
00000150: fcde 59bd 5879 38bd a0bf 58bd 8015 03bc
00000160: 2c48 e2bd 02f2 da3d 68b1 debd 4c64 37bd
00000170: 38b3 30bd b431 91bd 2ab9 f33d ca4d c2bd
00000180: 3031 85bc c0e0 81bc e8c1 1b3d da32 93bd
00000190: f877 6fbd 88f2 b73d b271 b73d 8402 fc3d
000001a0: f48f e1bd 4c89 1bbd 3811 8e3d 445b 933d
000001b0: c88f db3c acc9 da3d 4671 db3d 409f 333d
000001c0: 48be dd3c d023 8f3c c049 18bd 1837 e73c
000001d0: 84f8 213d 9ed7 f73d 3482 6ebd 9afc a83d
000001e0: 484c 983c 02bc 9e3d cecc 96bd 8080 aabd
000001f0: 78a9 89bd 581d c2bd a0bc 1dbd 5e85 b03d
00000200: b05c 28bd a216 963d b862 4fbd 3a72 58bd
00000210: c9a3 8c3d 7d8f 5abe b84c bebd a203 e23d
00000220: 226d 5c3e 75fd fdbb e458 92bd 5f80 9b3d
00000230: 451a 463d cc07 623d 165b 83bd 599d 8bbe
00000240: 506a 82bd 7ebf 16bb e3b0 64be e0ac 88bc
00000250: 52d8 ec3d 8a61 9bbd c0aa 4f3d 3936 fd3d
00000260: 9406 97bd 973c ba3d c8d3 3c3d a744 31be
00000270: 24c4 8dbd 6114 9bbc 483a 80bc d586 0a3e
00000280: 357a a0bd a262 c6bd 78d7 9c3c a0e6 8e3b
00000290: 08cc 30bc a0f6 c03d c0cf d1bd 50d5 d13d
000002a0: 66dc d33d 7d6d babd 641a f43d 1ef5 98bd
000002b0: cee5 edbd b9a6 723d 581f 9bbc 040b 39be
000002c0: 5bca 17be cc5f 80bd 54e4 883d 33f9 32bc
000002d0: 085a 41be 1a3b 8cbd 7c26 a3bc 6a33 a2bd
000002e0: df4a 9fbb eab9 c63d a042 bc3b 66f5 87ba
000002f0: 08d6 c23d eed2 a3bd 534d 0f3e 067f 043e
00000300: 2ad2 a83d 14d4 6ebd 245e 1bbd 4408 a2bd
00000310: 7891 a2bd 806c e4bd a0b5 8abc 12ac fbbd
00000320: 944f f7bd f897 c0bc 90cb 633c a0ae 1e3d
00000330: d85b 10bd 0e1f 953d fa77 84bd d29c fa3d
00000340: 32e4 f0bd 224b ed3d 7e64 f73d c098 663b
00000350: ac82 97bd 346a 71bd 9cb8 f0bd baa1 903d
00000360: a093 c2bb c674 c03d 0a4b 9dbd e092 99bb
00000370: 02d3 f0bd 2896 30bd 1041 edbc 90f0 04bd
00000380: 2e96 f93d a0f3 eebb 5a55 86bd e8db ae3c
00000390: 7048 1dbc 1034 3cbc 70c9 2bbd 3620 ea3d
000003a0: 003c 5cbb deda 93bd 2c8f 663d e4a1 a9bd
000003b0: 40be fb3d 0065 483a 4aad fcbd 6e09 c2bd
000003c0: 000b d1bb 30c6 f7bc 6032 ca3c 9437 f3bd
000003d0: 945f e3bd 5ab5 ee3d b8a7 5a3d 2a4b 9e3d
000003e0: c0ac 273b 348b 3a3d d453 d93d 3285 ba3d
000003f0: f2e5 f03d d08d fd3c 9e1c d23d 606f 35bc

fc3.bias f4 [32]
0.07741715 -0.0871398 0.061976958 0.041190848 0.008920757 -0.07815607 0.09001787 0.113738894
-0.026555678 -0.07029131 -0.08138148 0.05521855 -0.11984192 0.12313944 -0.105569236 0.04113433
0.04718201 0.035364836 0.009591709 -0.04128284 -0.041625038 -0.08654261 0.084859416 -0.10750462
-0.056875147 -0.049107924 0.069825 -0.11447683 0.09501683 -0.037440345 0.13103685 0.09164486
00000000: e28c 9e3d 5a76 b2bd 8ddb 7d3d bcb7 283d
00000010: 5e28 123c 4a10 a0bd 4a5b b83d f0ef e83d
00000020: 4b8b d9bc e4f4 8fbd 55ab a6bd d92c 623d
00000030: ae6f f5bd 8830 fc3d af34 d8bd 797c 283d
00000040: ec41 413d b8da 103d 8b26 1d3c 3218 29bd
00000050: 047f 2abd 403d b1bd c6ca ad3d 622b dcbd
00000060: eaf5 68bd 6425 49bd 6900 8f3d d472 eabd
00000070: 2f98 c23d 0c5b 19bd 862e 063e 4db0 bb3d

fc4.weight f4 [1, 32]
0.18402252 -0.014470026 -0.27030483 -0.12136176 -0.10376851 -0.06910085 -0.218412 0.11571965
0.07234948 -0.10735877 -0.0034483366 -0.22954684 0.04668136 0.08806174 0.17918773 0.047970142
-0.07313513 0.100530304 -0.10736573 -0.15222976 0.16246302 -0.15708977 -0.051089287 -0.1775851
0.1743625 -0.05379762 0.19965461 -0.04187587 0.05338337 -0.02171591 0.0907358 0.08327222
00000000: 6670 3c3e b013 6dbc 6565 8abe 848c f8bd
00000010: 9684 d4bd bf84 8dbd 65a7 5fbe 6dfe ec3d
00000020: f72b 943d eade dbbd 7dfd 61bb 540e 6bbe
00000030: f434 3f3d b759 b43d fd7c 373e 577c 443d
00000040: dfc7 95bd d5e2 cd3d 90e2 dbbd 1ee2 1bbe
00000050: b55c 263e 24dc 20be 0043 51bd ded8 35be
00000060: 158c 323e e55a 5cbd 4272 4c3e 0886 2bbd
00000070: 85a8 5a3d 90e5 b1bc b1d3 b93d a08a aa3d
