process/predict/models/eryuan/mlp_model.pth (torch, 12258 bytes, 5 tensors)

fc1.weight f4 [64, 3]
000000 c4 eb ed 3e 08 ab ba 3e 6a d8 85 bb 46 9e 95 be
       0.46468937 0.3645861 -0.0040846365 -0.29222316
000010 43 6b a0 3d 75 cc 6d 3e 15 81 a5 3e 67 41 f4 39
       0.078329585 0.23222525 0.32325044 0.00046588035
000020 ba 1e 18 3e a3 59 36 be 27 a8 ec 3e 3b c1 10 bf
       0.14855471 -0.17807631 0.4622204 -0.56544846
000030 e8 46 8a be ea b7 74 be f4 42 b4 bd 14 ab e9 bd
       -0.27007222 -0.23898283 -0.08801833 -0.11409584
000040 3c d0 9b be b4 cf e8 be 5f da ba 3e a3 e7 15 be
       -0.30432308 -0.45470965 0.3649473 -0.14639144
000050 c1 ee f5 3e 8e 4f d3 be 57 a2 01 bf e5 76 8f 3e
       0.48033717 -0.41271633 -0.50638336 0.28020397
000060 6a 32 86 be 45 a2 a3 be ee 4c 0a bf 47 10 92 be
       -0.26210338 -0.3195974 -0.54023635 -0.28528044
000070 b0 4d 38 bd 77 e6 0a bf d2 2f d1 be f3 30 9b 3e
       -0.044995964 -0.5425791 -0.40856797 0.30310783
000080 db 87 6a be b2 ce 0a bf 9e ce f0 3d 43 31 94 3d
       -0.22903387 -0.5422164 0.11758159 0.072359584
000090 db bd fb 3e 7c 1c e0 3e 4c 90 a0 3d 82 4b be be
       0.49168286 0.43771732 0.078400224 -0.37166983
0000a0 ed db 10 bf 38 48 85 3d 85 4a 81 3e 26 00 ce 3b
       -0.5658558 0.06507915 0.25252166 0.006286639
0000b0 1a 76 3a be cf 76 1a 3f f4 7c 5b bd 8c fe da be
       -0.18209115 0.6033754 -0.05358596 -0.4277233
0000c0 62 eb 5e 3e 15 7b fb 3e b4 32 58 bd 6e eb f6 3d
       0.21769479 0.49117342 -0.05278273 0.120566234
0000d0 5c 64 09 3f 89 c6 e2 be 03 47 ec be c8 98 c2 3e
       0.5366876 -0.44292095 -0.46147928 0.38007188
0000e0 ff b6 0b 3f df d7 be be 6d d4 43 be d5 2a 9d 3e
       0.54576105 -0.37274072 -0.19124003 0.3069674
0000f0 c0 94 93 bc 34 8c 86 bd b0 a1 e5 3e cb 07 d8 be
       -0.018015265 -0.065697104 0.4484992 -0.42193446
000100 96 8c 8d 3c ce 6a b9 3d c5 78 84 3e f9 5b 99 be
       0.01727895 0.090535745 0.2587339 -0.29952982
000110 1b 25 2f 3d 80 86 0b 3f 46 43 92 be b3 f8 6e 3e
       0.042759996 0.54502106 -0.2856695 0.23337059
000120 22 ad 68 be 66 ca dc be 4a cf bd be 27 2b 86 3c
       -0.22722295 -0.43123168 -0.37072212 0.016377999
000130 71 04 75 3e 82 ca 46 bd 11 e1 09 bf d2 d7 26 3e
       0.23927476 -0.04853297 -0.5385905 0.16293266
000140 ba d6 e0 3e 94 c7 e6 39 a4 4f e0 be a1 52 38 3d
       0.43913823 0.00044017716 -0.4381076 0.045000676
000150 ec fc a9 3e 1e 11 90 be cd 30 d3 3e fe 9e e1 be
       0.33200777 -0.2813806 0.4124817 -0.44066614
000160 62 ec 82 be 45 02 00 bf 39 ed ae 3e fe 71 a2 3e
       -0.2557097 -0.50003463 0.34165362 0.31727594
000170 9f 9a 03 bf 28 19 da 3e 79 9c a7 be c8 a9 2f 3e
       -0.5140781 0.42597318 -0.32736567 0.1715461
000180 84 bf 9c 3d ff c4 03 bf 63 52 38 3d a1 b5 19 3f
       0.07653716 -0.5147247 0.045000445 0.6004277
000190 27 53 9f 3e 22 e0 e8 3d d6 df ff 3e 86 4f e8 3e
       0.31118128 0.11370875 0.4997546 0.45373172
0001a0 9c 0e 38 be b4 74 7f be b5 82 83 3d 30 3f 01 3f
       -0.17974323 -0.24946862 0.06421415 0.5048704
0001b0 0a c6 1a 3e 32 36 f3 3e 5e 60 77 be f0 eb 39 3d
       0.15114608 0.47502285 -0.24157855 0.045391023
0001c0 bd 6f 53 be eb c3 e4 be bd dc 0f 3e 5d 6c e8 3e
       -0.20648094 -0.44680724 0.14049049 0.45395175
0001d0 fc 3e 05 3f c2 35 7d bc c5 33 86 be 21 2f 99 3e
       0.5204923 -0.015454711 -0.26211372 0.2991877
0001e0 8a 17 f6 3d 5e 14 dd 3c 09 88 ad 3c da dc 22 bd
       0.120162085 0.02698725 0.02118303 -0.0397614
0001f0 d5 da e1 be 2f 25 8c 3e d6 94 c2 be 66 f1 f6 3e
       -0.44112268 0.2737212 -0.38004178 0.48231047
000200 31 40 03 bf 07 8b 56 3e f2 b1 b5 3e 52 c7 fd bb
       -0.51269823 0.20951472 0.35487324 -0.007744708
000210 0e 58 51 3e 28 28 cb be 25 8a e7 3c cf 8c 54 3e
       0.20443746 -0.39679074 0.028264115 0.20756839
000220 67 af 08 3f cc 66 db 3e a9 42 bb 3e 36 0d 05 be
       0.5339264 0.42851865 0.36574295 -0.12993321
000230 94 76 ca 3e f2 b8 62 3e 1b a4 80 be 8d 4a 37 be
       0.39543593 0.22140864 -0.25125203 -0.17899533
000240 a5 87 18 be d9 c7 5e 3e 4c c9 06 3f 20 8e 19 3f
       -0.14895494 0.21755923 0.52650905 0.5998249
000250 73 14 13 3f bb 3f b7 be 96 cb 45 be d9 59 e3 be
       0.5745308 -0.3579081 -0.19315943 -0.44404486
000260 6c a8 b6 bd 4b a4 86 be d7 fa 48 be 4f e7 6e be
       -0.08918843 -0.2629722 -0.19626938 -0.23330425
000270 23 53 94 be 33 51 07 bf 70 05 21 be e0 16 5d bd
       -0.28969678 -0.52858275 -0.1572473 -0.053976893
000280 01 fe c6 be 6c f7 fd be da ca 08 3f c9 0e 9b be
       -0.38865665 -0.4960283 0.53434527 -0.30284718
000290 49 5d 7b be 12 05 03 3f a9 fc eb 3d b4 c6 5d 3e
       -0.24547304 0.5117961 0.115228005 0.2165783
0002a0 38 68 93 be 8b 22 b3 bd 8b 95 13 3f 78 67 9a 3e
       -0.2879045 -0.08746823 0.5765006 0.30157065
0002b0 6a 36 bb 3e 58 3b 11 bc 91 fe 4e 3e 3c 88 ba 3e
       0.36564952 -0.008864246 0.20214297 0.36432064
0002c0 99 d3 6a be 1b 64 0b 3f 93 06 35 3e 52 8c 9f be
       -0.2293228 0.54449624 0.17678289 -0.31161743
0002d0 0b 2e 94 be 3b 59 be 3e 4f ae 0b bf 1e e1 05 bf
       -0.28941378 0.37177452 -0.5456285 -0.52296627
0002e0 88 a5 8b 3d ed 36 de be 04 6d ae bd a6 f8 00 bf
       0.06818682 -0.4340128 -0.08516887 -0.5037941
0002f0 ea ac 7c bd e0 0f 10 bf 34 82 fc 3e c5 e6 85 bd
       -0.06168834 -0.56274223 0.49318087 -0.065381564

fc1.bias f4 [64]
000000 5d 49 7f 3e 91 70 0c 3f c0 48 d0 3e 98 e4 13 bf
       0.2493033 0.5485926 0.40680504 -0.5777068
000010 9a 24 07 bf f8 2d ad bd 83 a7 b6 3d f3 b0 ee 3d
       -0.52790225 -0.084560335 0.08918669 0.11654844
000020 d0 9e 0c bd 7e fa c2 be 8e 72 8d 3d 2c 7f e0 3e
       -0.034331143 -0.38081735 0.06906615 0.43847024
000030 1f fd d6 3e f6 6a 23 be af 3d f3 3e 4c ce ca bc
       0.4198999 -0.15958771 0.47507998 -0.024756573
000040 19 2e 83 3e 24 dc d9 be 2b ca fd be 3b 36 0c 3e
       0.25621107 -0.42550766 -0.49568304 0.13692562
000050 a8 fe ac 3d a0 30 23 3e 03 02 c8 3d e1 f3 0c bd
       0.08447009 0.15936518 0.09766009 -0.03441227
000060 6c 00 e8 bd 8f e2 a5 bd 7f 18 b5 3d 94 ec dc 3e
       -0.113282055 -0.08099853 0.08842563 0.43149245
000070 e2 78 03 3f a0 0c 76 3d 39 a4 d8 be 48 ed fd be
       0.5135633 0.060070634 -0.42312792 -0.49595094
000080 77 a8 f2 3e 91 6a 86 be 77 e5 fa be 2c 85 ac be
       0.47394153 -0.2625318 -0.49003193 -0.33695352
000090 b3 41 c3 3e 6b 3e 22 3f 85 55 90 bb 76 61 95 3e
       0.38136062 0.6337649 -0.004404726 0.2917592
0000a0 0c e6 99 3e d2 62 b1 bd 90 07 2e 3e eb 8a d6 3e
       0.30058324 -0.086614266 0.16995072 0.4190286
0000b0 a9 7f 97 3e 8a 70 e7 3e a6 47 f3 3e 27 a9 a4 3e
       0.29589584 0.45203048 0.475156 0.32160303
0000c0 74 0b 1e be b3 78 88 bd b7 c8 09 3f 19 6f 13 3f
       -0.15434057 -0.066636465 0.5382189 0.57591397
0000d0 6b f3 9a be 9d 99 a5 be 47 19 84 bd c1 8e 9c 3e
       -0.30263838 -0.3234376 -0.06450134 0.30577663
0000e0 97 60 86 3e dd 03 92 be ef f9 98 be 90 56 90 be
       0.26245567 -0.28518572 -0.29878184 -0.28191042
0000f0 a0 86 ac bd b8 d6 a3 3d 6c af 0f 3f ed 0d 60 3e
       -0.08424115 0.07999939 0.5612705 0.21880312

fc3.weight f4 [32, 64]
000000 e0 f7 f1 3b f0 5b 0f 3c 12 0e af bd e4 2e 10 bd
       0.0073842853 0.008749947 -0.085476056 -0.03520097
000010 d4 63 1e 3d 50 8e 7c 3d 7c 7a 50 3d 54 8c ba 3d
       0.038669422 0.061659157 0.05089806 0.09108797
000020 d4 b5 c1 bd c4 98 20 3d 12 a8 d3 3d b2 f5 ad bd
       -0.09458509 0.03920819 0.10334791 -0.08494128
000030 4c cb 00 bd 58 8a 8b bc 30 0a 4b bd a4 95 fd bd
       -0.03144388 -0.01703374 -0.049570262 -0.12382057
000040 00 b7 2f bc 12 3f ed bd 54 3d 60 3d c0 cf 49 bb
       -0.010724783 -0.11584295 0.054745987 -0.0030793995
000050 a0 0f ae bc 02 2b f2 3d a0 db 94 3c 30 af 36 bd
       -0.021247685 0.11824609 0.018171132 -0.044600666
000060 bc 4f 61 3d f8 ea ab 3d 40 c9 d1 3b 40 22 35 3d
       0.05500768 0.08394426 0.0064021647 0.044222116
000070 78 e7 cb 3c e2 d7 d8 3d ae c0 91 3d 46 79 f7 bd
       0.024890646 0.105880514 0.07116829 -0.12083678
000080 00 04 df bb f0 0e 70 bd 2e a8 c3 bd 56 70 c0 3d
       -0.0068058968 -0.058607996 -0.09553562 0.093964264
000090 40 06 82 bc b0 00 73 bc 40 15 26 3c 20 5b fd 3d
       -0.01587212 -0.014831707 0.010136902 0.12370896
0000a0 a6 54 99 bd d6 84 cd bd f4 bc bb 3d 80 6d 22 3c
       -0.074868485 -0.10035102 0.09166899 0.009913802
0000b0 20 e8 80 bc c0 0d ce bd 34 f6 60 bd bc ac 01 3d
       -0.015735686 -0.10061216 -0.054922298 0.031658873
0000c0 34 2c 45 3d 0c d5 6a bd c8 b4 d4 bd b0 f7 7d bd
       0.04813786 -0.057332084 -0.10386044 -0.06200379
0000d0 e0 7e b5 bc ec 58 e2 3d a6 37 88 bd 80 14 a8 3b
       -0.022155225 0.11052117 -0.06651239 0.005129397
0000e0 04 dc d9 bd 52 b7 d3 bd 34 ff df 3d fc 19 2a bd
       -0.10637668 -0.103377 0.10937348 -0.041528687
0000f0 98 89 f3 3c da 18 bf bd ae 16 c3 bd 38 fd ed bc
       0.029728696 -0.09330912 -0.0952581 -0.029051408
000100 04 28 04 3d 06 bc ba bd 64 41 69 3d 28 fc bf bc
       0.032264724 -0.09117894 0.056947127 -0.023435667
000110 e8 61 eb bd 74 e1 a2 3d 34 b8 ec bd e0 4f e5 3d
       -0.114932835 0.07953158 -0.115585715 0.111968756
000120 38 a1 3b bd 6a 74 81 bd e2 31 fa 3d 64 d6 54 bd
       -0.045808047 -0.06321032 0.12216546 -0.05196227
000130 08 6b e7 3c 76 88 f1 3d c8 d7 98 bd 20 38 c1 3b
       0.028249279 0.11793606 -0.07463032 0.005896583
000140 30 99 50 3d b4 1e 93 bd e8 64 c8 bd 70 a1 7b 3d
       0.05092734 -0.071835905 -0.09784871 0.061433256
000150 90 28 77 bc 54 1c 37 bd d0 5c a0 3d 14 b9 b7 bd
       -0.015085354 -0.04470475 0.078302026 -0.08970848
000160 34 2a fe 3d 0c cb 3d 3d 2c f8 8e 3d 7a ea f7 3d
       0.12410393 0.04633622 0.06980929 0.1210527
000170 50 ec 49 bd 60 55 d5 bc b2 46 b0 3d 46 40 82 3d
       -0.04929763 -0.026041687 0.08607234 0.063599154
000180 26 fd e5 3d 6c 7d 09 bd a2 c5 fc 3d 8c 6a d5 3d
       0.11229925 -0.033566877 0.12342383 0.10420713
000190 ea ad e1 bd 80 d4 3d bc 20 ae cd bc b0 b3 e4 3c
       -0.110194996 -0.0115863085 -0.025107443 0.027917713
0001a0 6c 80 f3 bd 78 96 46 bd 58 7b bf bc a4 02 90 bd
       -0.11889729 -0.048483342 -0.023374245 -0.07031754
0001b0 98 eb 13 3d 68 6e ae 3c e4 d0 0b bd 00 4f 11 bc
       0.03611335 0.02129288 -0.03413476 -0.008868933
0001c0 7e 9d bd 3d f8 c0 ab 3c 70 ec c8 3d 4e 29 9f 3d
       0.09258555 0.020966038 0.09810722 0.0777155
0001d0 d0 ab c7 bd c0 f6 fa bd 5c 50 a8 bd d6 a7 a6 3d
       -0.097495675 -0.12254095 -0.08218452 0.08137481
0001e0 60 4e de bd c6 16 8a 3d 18 50 d4 bc 82 a2 aa 3d
       -0.108547926 0.06742625 -0.025917098 0.08331777
0001f0 18 a8 de 3c 00 e7 df ba f0 ea 95 bc 5a 1d b6 bd
       0.027179763 -0.0017082393 -0.018300503 -0.08892317
000200 59 38 d6 3d 14 a2 95 3b 1a 19 9f 3d 3d 4a 12 3e
       0.10459966 0.0045664404 0.077684596 0.14286132
000210 18 01 17 3d da 72 b7 bd b1 a0 5e bd 9f f2 3a be
       0.036866277 -0.08957453 -0.054352466 -0.18256615
000220 48 95 e8 3d 38 98 6a 3d ed 24 c6 3d 5a 27 f8 bc
       0.11356598 0.057274073 0.09675012 -0.030292202
000230 65 8b 81 bc 3c c9 fa bd 2c cb fd bc 1c 04 38 3d
       -0.015813539 -0.12245414 -0.030980669 0.044925794
000240 5f 23 aa 3c 28 c3 87 3e 79 b5 27 be fb 69 9d 3e
       0.02076882 0.2651608 -0.1637782 0.3074492
000250 7c dc 35 3d 6d e0 34 3d ee aa 7c be 8a 6b 17 3e
       0.044399723 0.04415934 -0.2467458 0.14787117
000260 18 be a8 3c 67 52 f4 bd e0 33 db bd c0 65 82 3e
       0.020598456 -0.119297795 -0.10703254 0.25468254
000270 f1 4d d7 3c 20 ac aa bd b1 24 61 3e 9e 99 ec bd
       0.026282283 -0.083336115 0.21986653 -0.11552738
000280 1d 5a 8f 3e e0 f9 14 be 0f 10 83 be 82 32 a7 bd
       0.27998438 -0.14548445 -0.2559819 -0.081639305
000290 e0 d3 6f bd ad 0c 07 3d 2c 30 70 bd 75 8b 31 3e
       -0.05855167 0.032971073 -0.05863969 0.17338355
0002a0 1f 65 f4 3c 68 f2 4b 3d 30 af 61 bd 79 4d d1 3c
       0.029833375 0.049791723 -0.055098712 0.025549637
0002b0 00 59 75 3e 63 ab 9c bd ff d9 e3 3d 2d f4 53 3d
       0.23959732 -0.07649877 0.11125564 0.051746536
0002c0 ee 52 b8 3b 7f 69 90 bd 82 fc aa be 65 d1 66 3e
       0.0056251204 -0.07051372 -0.33395773 0.22540815
0002d0 88 59 48 bd a4 25 a2 bd a0 7d 1b be 7d 7c 5e 3d
       -0.04891351 -0.07917336 -0.15184641 0.05431794
0002e0 e3 7e b2 3c e8 de 8d 3c 4f e7 08 3e 6f 16 27 3c
       0.02178902 0.017318204 0.13369487 0.01019822
0002f0 89 d1 83 3e 62 ff e9 3d 56 56 ba be 0a 57 62 bd
       0.257458 0.114256635 -0.36393994 -0.05525879
000300 39 d3 5f 3c 68 92 c1 3d 4b 3b 1e 3e ac 54 93 3d
       0.013661199 0.09451753 0.15452306 0.07193884
000310 9c e6 d2 3d ba 7b bb bd 0e 97 c6 3d 70 80 c5 3d
       0.102978915 -0.09154458 0.0969678 0.09643638
000320 84 95 03 3d 4c fb b5 3d 48 35 43 be 90 6a e6 3d
       0.03212501 0.08885822 -0.19063294 0.11250794
000330 03 74 8e 3d 5c fc a6 3d 7d 88 9c 3d 74 36 8f bd
       0.06955721 0.081536025 0.076432206 -0.06992808
000340 15 a8 fe bb 3c d9 0c bc 39 c1 f6 3c 01 63 33 be
       -0.007771502 -0.008596715 0.030121433 -0.17518236
000350 43 73 73 bd 31 51 1c 3b e9 3d 87 3e 84 ce 96 3d
       -0.059436094 0.0023852105 0.2641442 0.073636085
000360 da 0c f5 bd 20 86 4b 3d a4 82 7e bd 9f 68 07 be
       -0.11965342 0.04968846 -0.062136307 -0.13223504
000370 e5 e6 66 bd fe d0 cb bd 12 50 1a bd ac 2e b1 bd
       -0.056372542 -0.099519715 -0.037674017 -0.0865148
000380 b8 58 22 be 41 7c e6 3d a2 af a2 3d 7c 57 19 3d
       -0.15854156 0.11254168 0.079436556 0.037436947
000390 d1 ca f7 3d ca 26 df 3d c6 4a 71 bd 74 36 4c 3c
       0.12099231 0.1089607 -0.0589092 0.0124641545
0003a0 4e 20 8c bd 0b ac c3 3b 68 05 da 3c 31 5c 83 3d
       -0.06842099 0.005971437 0.026613906 0.064140685
0003b0 9d 3f 82 be 9e 02 e4 3c 03 5a e9 3d d8 8d 96 bc
       -0.25439158 0.02783328 0.113941215 -0.018378183
0003c0 e6 6d 06 3d 88 c9 a3 bd 2d de 81 3e 5f 68 46 ba
       0.03281965 -0.079974234 0.2536482 -0.0007568653
0003d0 0e 96 cb bd e0 59 27 3c 9a e1 22 3d ca fe 38 bd
       -0.0994073 0.010214299 0.03976593 -0.04516486
0003e0 d2 06 d8 3c c3 22 1b 3d a0 34 d3 bd 2f e3 97 3d
       0.02637044 0.03787495 -0.10312772 0.07416379
0003f0 68 d9 ac bd 16 e3 b5 bd 0f 2b 6d 3e ed b5 4c bc
       -0.084399045 -0.08881204 0.23160957 -0.012494546

fc3.bias f4 [32]
000000 40 b3 38 bd 94 1a c5 bd 5e e3 e7 3c e1 c9 05 bc
       -0.04509282 -0.0962421 0.02830666 -0.008165807
000010 08 38 c3 bc 6b df 09 3c 5c 4d bb bd 9e e1 96 bd
       -0.023830429 0.008415083 -0.091456145 -0.07367252
000020 de 3f e2 bd 24 d4 06 3e 54 87 9a bd 80 13 a5 3c
       -0.11047338 0.13166863 -0.07545343 0.0201509
000030 b2 3f 00 be b0 ff ff bd 9c 1c f7 bd 98 7b d5 bd
       -0.12524298 -0.124999404 -0.12066004 -0.10423964
000040 00 e3 37 bc b1 a1 86 3d 8b 53 83 bc a8 3b 42 bd
       -0.011223555 0.06573809 -0.016031047 -0.047420174
000050 d4 39 d6 3d 58 36 5d bd ef 0e c4 3d 0e 0a 38 3c
       0.104602486 -0.054006904 0.09573161 0.011232866
000060 80 40 fc bb de 78 af 3d d4 76 1f bd e8 51 e8 3c
       -0.0076981187 0.085679755 -0.038931683 0.028359368
000070 4e 56 69 3d d2 f3 33 3d 0c 7f 79 bd 24 f1 23 bd
       0.056967072 0.043933697 -0.060912177 -0.04002489

fc4.weight f4 [1, 32]
000000 14 01 3d 3d d2 40 c0 bd cb b3 89 be f4 6e 3c 3e
       0.046143606 -0.093873635 -0.26894984 0.184017
000010 08 84 15 be ae de 5e 3e f4 4d 75 bd ba f4 a5 3d
       -0.14601147 0.21764633 -0.059888795 0.081033185
000020 c2 d2 fd 3d b1 d6 85 be 80 50 1b 3b c9 19 d2 3d
       0.123937145 -0.2614036 0.0023699105 0.102588244
000030 63 84 3c 3e b2 74 a7 3d 48 a3 99 bd 89 c5 87 3e
       0.18409877 0.08176555 -0.075018466 0.26517895
000040 c0 e9 a2 3b cd e1 41 3e cc 5c c9 be 33 66 74 be
       0.004971713 0.18933792 -0.3932861 -0.23867111
000050 b1 f7 a6 be d4 73 aa 3d 17 41 b6 3d cc 24 6e be
       -0.3261085 0.08322874 0.08899134 -0.23256224
000060 90 2c 61 bd e3 b3 f1 bd 5f 26 3b 3e 6c 93 1d 3d
       -0.05497414 -0.11801889 0.18276356 0.03847067
000070 6d b5 a7 be e0 f8 32 be 3e f0 1d be c4 c3 8f 3e
       -0.32755604 -0.17477751 -0.15423676 0.28079045
