process/predict/models/wushashan/mlp_model.pth (torch, 12124 bytes, 5 tensors)

fc1.weight f4 [64, 3]
000000 ea 3b 12 3f fc da 91 3e ff 7c 51 3e a5 92 1b 3e
       0.5712267 0.28487384 0.20457838 0.15192659
000010 a3 e4 e1 3e 61 9f 9b bd 32 53 13 be d4 2d 9e be
       0.44119748 -0.075987585 -0.14387205 -0.3089434
000020 d5 19 0c 3f 67 aa 95 be 50 a9 93 3e c7 f7 43 3e
       0.54726917 -0.2923157 0.28840113 0.19137488
000030 69 c7 20 3e 4f 13 3e 3d 48 b8 51 3e 29 82 d2 3c
       0.15701069 0.046405133 0.20480454 0.02569683
000040 99 90 6e 3e 2d a6 cf 3e d8 b3 7b 3e b0 0a 5b bd
       0.23297347 0.4055647 0.24580324 -0.05347699
000050 52 96 8e be 44 c3 8a 3d 31 69 ff be 4f 98 f5 3e
       -0.2784906 0.06775525 -0.49884942 0.47967765
000060 26 65 90 be 20 ed 5c be 0e 1f c6 be 67 68 cf be
       -0.2820217 -0.21574831 -0.38695568 -0.4050934
000070 49 44 86 be 5f 9d bf 3e 5c 95 c2 be e6 f0 e1 be
       -0.26223972 0.37424752 -0.38004577 -0.44129103
000080 9a 06 28 be 4f e2 a5 bd cf 4f 19 be 1d fe 0e 3f
       -0.16408768 -0.080998056 -0.14971851 0.55856496
000090 0a ba ab be d9 66 11 3f b5 72 bc be 52 41 d8 be
       -0.33540374 0.5679756 -0.36806265 -0.42237335
0000a0 20 3e aa 3c e0 ca 23 be 00 0e c4 3a 39 e1 99 be
       0.020781577 -0.1599536 0.0014957786 -0.30054644
0000b0 6e df 8d 3e 15 51 0a bd aa a3 8b be e4 31 f0 3e
       0.27709526 -0.033768732 -0.27273303 0.46913064
0000c0 98 0a df be 48 f3 e4 3e 33 0f e4 be 96 0c 91 be
       -0.4356277 0.4471686 -0.44542846 -0.28329915
0000d0 08 ef 6b 3e 6b b4 83 3e 47 1c 0c 3f 4e ba 87 3e
       0.23040402 0.25723585 0.5473065 0.26509327
0000e0 31 77 96 bd e7 63 01 3f a6 cb 19 3e df 2b fa be
       -0.07346953 0.50543064 0.15019092 -0.48861596
0000f0 86 c2 b0 3e 78 37 d8 3e da 72 94 be 18 3f 80 3c
       0.3452341 0.4222982 -0.28993875 0.015655085
000100 73 a8 9a 3e cf 43 9d 3e 46 1a 1b be 18 97 e2 be
       0.30206642 0.30715796 -0.15146741 -0.442559
000110 84 57 b2 bd 00 a5 08 3d 90 36 4c be 14 96 03 bf
       -0.087080985 0.03336048 -0.19942689 -0.51400876
000120 dc 44 8c 3e 49 b7 0e 3f 95 45 eb 3e 14 38 35 be
       0.27396286 0.5574842 0.45951524 -0.17697173
000130 e2 a6 0e 3f ac 1b 0e be 96 53 cf 3e 41 90 97 3e
       0.5572339 -0.13877743 0.40493459 0.29602244
000140 4a 65 d2 3e c6 48 f7 3e 8c 9d 2e be 8f 12 36 bd
       0.41092902 0.4829771 -0.17052287 -0.044451293
000150 dc 2c 52 be af e4 bc 3d 3a 2c 31 be 5d ac 86 bc
       -0.20524925 0.092233054 -0.17302027 -0.016439611
000160 f8 b1 7f 3e cc be d2 be 9b 94 e8 3e cd 72 42 3e
       0.24970233 -0.4116119 0.45425877 0.18989106
000170 6f a6 75 3e c6 8d 0b 3f d5 b5 80 be 33 c1 87 3e
       0.2398927 0.54513204 -0.25138727 0.26514587
000180 2b 3a c8 bd 22 e6 60 be 07 ec 11 3f 20 01 bc 3e
       -0.0977672 -0.21962789 0.57000774 0.36719608
000190 66 1d 7f 3a 72 08 0d bd 22 77 a6 be 0a c6 0b be
       0.0009731859 -0.034431882 -0.32512766 -0.13649765
0001a0 93 14 00 bf 40 b4 36 bd ee 2f 5c be b4 a0 cd bd
       -0.50031394 -0.044605494 -0.21502659 -0.10040417
0001b0 1a 7c 04 3f 62 4b 70 3e 8a f5 dd 3e f4 21 12 bf
       0.51751864 0.23466256 0.43351394 -0.5708306
0001c0 88 af 0f 3f 9a b3 08 3d ad 12 e9 3e 48 ce 80 3e
       0.56127214 0.033374406 0.4552206 0.2515738
0001d0 ae b3 96 3e ba e3 65 be d2 c7 90 be 60 a4 88 3d
       0.2943396 -0.22450152 -0.2827745 0.06671977
0001e0 fc f8 69 3e 5a f5 e5 3e 28 1f 03 3f dc ce ac bd
       0.22848886 0.4491375 0.51219416 -0.08437893
0001f0 c5 e2 72 3d 54 64 1f bf 9c 5a 79 3e 2d 47 89 3e
       0.059298296 -0.62262464 0.24350971 0.26812115
000200 8c b3 c5 3d 68 cb 88 3d 6f f6 93 be 0c c1 2f be
       0.096533865 0.06679422 -0.2889895 -0.17163485
000210 a9 9b b8 3e 68 ab c0 3e cf f1 b4 bd 35 1b b4 be
       0.3605626 0.37630773 -0.08835184 -0.35177007
000220 ea 48 64 3e c3 6b ff 3e fa 5c b6 3e 00 61 45 bc
       0.2229344 0.49886903 0.3561781 -0.012047052
000230 35 4c b9 be 80 b9 bf be 8d 3d 11 bf 4a f4 ad 3e
       -0.36190954 -0.37446213 -0.56734544 0.3397544
000240 fe ba 02 bf d8 af 8b be 06 b0 f4 3e 36 ec b6 3e
       -0.5106658 -0.27282596 0.47790545 0.3572709
000250 36 d0 83 3c 85 b7 24 bf 05 ef 55 bb 1a 0d 81 3e
       0.016090494 -0.6434253 -0.0032643687 0.25205308
000260 2d f0 12 3f d8 37 b7 3e 6b 71 d4 3e 67 76 bc be
       0.5739773 0.35784793 0.4149278 -0.36809084
000270 9a 68 e1 be b9 59 11 3f 8f 16 12 3f c5 f7 61 3d
       -0.44025117 0.5677753 0.5706567 0.055167932
000280 54 19 2b bd 3c 51 d5 3c 8a a7 22 3f a7 7e 17 bf
       -0.0417722 0.026039712 0.63536894 -0.5917763
000290 cd 08 9c 3e 36 2b 11 bf 42 34 ae be 48 ad 89 bd
       0.30475464 -0.5670656 -0.34024245 -0.06722504
0002a0 42 4e ef be b4 08 b1 be 00 f9 81 bc 5c 17 ff bd
       -0.46739393 -0.34576952 -0.015865803 -0.12455627
0002b0 6a 63 0e 3f 2d 60 92 be c4 9b 78 bd 48 00 d7 3e
       0.55620444 -0.28589 -0.060695425 0.41992402
0002c0 25 f7 9d 3a 02 85 3a bd 20 28 c9 3e a7 54 13 3f
       0.0012051804 -0.045537002 0.39288425 0.57551044
0002d0 05 c6 d2 3c 83 93 09 bf 1a ee 08 3f be 91 65 3e
       0.025729189 -0.5374071 0.53488314 0.22418877
0002e0 a1 f1 04 3f 05 85 08 bf 91 86 3f 3e 49 6d c7 be
       0.51931196 -0.5332797 0.18703677 -0.38950565
0002f0 f1 11 a7 3e 00 9d 22 3b 30 ea 04 3d 86 f7 e9 be
       0.32630876 0.0024812818 0.0324499 -0.45696658

fc1.bias f4 [64]
000000 70 a7 9c be 72 83 08 bf 3b 72 b0 3e 03 72 cb bd
       -0.30596495 -0.5332557 0.3446215 -0.099338554
000010 5c d4 a9 3e 67 42 06 bf bc da c7 be e7 d4 b4 3e
       0.3316983 -0.5244507 -0.3903407 0.35318682
000020 7a 38 e6 be 29 a6 42 be 71 f7 b5 3e 05 4a 85 be
       -0.44964963 -0.19008698 0.35540345 -0.26033035
000030 33 fd a8 bd 20 51 d1 3c 09 13 11 bf 5a f5 60 be
       -0.08251419 0.025551379 -0.5666967 -0.21968594
000040 58 17 8f bd 7a a9 65 be bf e5 ff 3e da 6b a8 bd
       -0.06986874 -0.22427931 0.4997997 -0.08223696
000050 de 77 33 bd 31 f1 d1 3e 7e 51 5d be f7 1b e3 be
       -0.043815486 0.41004327 -0.21613118 -0.44357273
000060 54 1b 21 be 37 da 51 3e db 85 af be f7 9a d5 3e
       -0.15733081 0.20493399 -0.3428181 0.4171979
000070 d1 65 e2 3e b6 3d 0a 3f 78 d1 a8 be 96 33 d6 3e
       0.44218305 0.54000413 -0.32972312 0.41836232
000080 fe cc 05 3f ec 81 3b be 96 2b 92 be b2 6c bb be
       0.5226592 -0.1831128 -0.28548878 -0.36606365
000090 3c ef ed 3e 09 7b 59 be 79 bd 62 be 2d ca 08 bf
       0.46471584 -0.2123834 -0.2214259 -0.53433496
0000a0 0d a9 80 be 96 d2 a9 3e 43 9c 89 bd 98 b2 f6 be
       -0.25128976 0.33168477 -0.06719258 -0.4818313
0000b0 ab 6c 8d 3d 1b 03 c2 3e e2 49 13 bf 84 94 db be
       0.069054924 0.37892994 -0.5753461 -0.42886746
0000c0 24 5f ad 3e 59 ad 1f 3e da 37 c6 3e d7 af a9 be
       0.3386165 0.1559347 0.38714486 -0.33141968
0000d0 5c ce 13 be 7e a1 fd 3e 0c 94 aa be a6 79 a2 be
       -0.14434189 0.4953727 -0.33316076 -0.31733435
0000e0 79 ed a7 be 39 7e de be d8 8f c8 be d4 56 01 3d
       -0.32798365 -0.43455675 -0.39172244 0.031576946
0000f0 30 37 97 3d 01 02 11 be b4 f2 86 be 2c a4 f0 bd
       0.07383573 -0.1416092 -0.26357043 -0.11750063

fc3.weight f4 [32, 64]
000000 65 0a c9 3d ae 01 08 bc 58 12 ef bd e3 0e 62 bc
       0.09816436 -0.008301182 -0.11673421 -0.013797495
000010 b1 87 f8 3d 59 0f 06 3d d6 3b a5 3d 5d e3 c8 3d
       0.12135256 0.03272948 0.080680534 0.09808991
000020 7c df 55 3d e1 e5 79 bd d4 bb 26 3d e4 34 04 3e
       0.052215084 -0.061010245 0.04070647 0.12910801
000030 67 6a bf 3d 5c 08 17 bd a0 b5 f9 bc 07 55 69 be
       0.093464665 -0.036873206 -0.030482113 -0.22786342
000040 2b d9 8e be 4e 46 bd 3d fe a2 59 bd 1e 60 17 3e
       -0.2790006 0.09241925 -0.053133957 0.1478276
000050 ff d8 e2 bd 32 9a ef 3d 9c 73 cd 3d 80 bc 91 3b
       -0.11076545 0.11699332 0.10031816 0.00444752
000060 8c 54 47 bc 70 19 ca bd 16 f6 b5 bc 67 82 99 bd
       -0.012166154 -0.09868133 -0.02221207 -0.074955754
000070 93 64 1c 3d 80 fc cb bd df c1 3e 3d 0c 26 62 bc
       0.038181853 -0.0996027 0.04657161 -0.013803016
000080 b6 29 85 3d 54 d0 fd be 36 1d c1 bd 02 f0 fe bd
       0.06502096 -0.49573004 -0.094294 -0.124481216
000090 3a 83 54 3c 12 fd d8 3d 33 7a ad 3d 00 aa 02 bb
       0.01297074 0.10595144 0.08470573 -0.0019937754
0000a0 2d fe d7 bc 6b b8 3f 3e db ec 28 3c 68 32 29 3d
       -0.026366318 0.18722694 0.010310377 0.041307837
0000b0 a2 7d 7e 3d 6e 4f e6 bd 60 ef bf bb 6e 45 84 bd
       0.06213153 -0.11245619 -0.005857393 -0.06458555
0000c0 9c d0 a0 bd fd 94 c8 bc 6e 17 c8 3d 27 5c 01 be
       -0.07852289 -0.024485106 0.09770094 -0.1263281
0000d0 ba 6d 6f 3d fc 20 ed 3d 83 9b ba bc a0 84 e7 3d
       0.058454253 0.11578557 -0.022779232 0.11304593
0000e0 2c ec 18 bd 71 8a 3b 3d 00 79 15 3d ae e9 9b bd
       -0.037334606 0.045786325 0.036492348 -0.0761293
0000f0 12 21 8b bd 39 38 20 bd 9b 4c 14 bd 6a 1a f5 bd
       -0.06793417 -0.039116118 -0.03620587 -0.11967929
000100 4b cd eb bd 28 95 34 bc 97 ea 8f 3d 90 80 10 3d
       -0.11513766 -0.01102189 0.07027166 0.035278857
000110 c0 0e db bd af 58 23 be 6c 1f 0e 3d fd 8a 07 be
       -0.10696173 -0.15951799 0.034697935 -0.13236614
000120 cc a2 91 3d cb bf d7 3c ea 51 74 bc 23 e1 3a be
       0.07111129 0.026336571 -0.014912108 -0.18249945
000130 dd 2f fc 3d 60 50 1a 3c 90 15 a0 3c 35 91 23 3e
       0.12313817 0.009418577 0.019541532 0.15973361
000140 3a c6 82 3e 97 60 84 bd 7c 9b d1 3d 15 e2 34 bd
       0.2554186 -0.064637356 0.102347344 -0.04416092
000150 eb 93 98 3d f6 5d 8b 3d 24 71 a0 3d e0 e7 d7 bb
       0.07450088 0.06805031 0.0783408 -0.006588921
000160 2f 19 cf bd ce e4 9c 3d f0 e1 69 bd 9e f2 96 bd
       -0.10112225 0.076608285 -0.057100236 -0.07370494
000170 1a 83 0b 3e e4 93 9c 3c 26 e9 a5 3d 82 5c b3 bd
       0.1362423 0.019113488 0.0810111 -0.08757879
000180 65 78 3d 3d 64 ea cc 3e 40 12 05 bc 00 99 cb 3b
       0.046257395 0.40022576 -0.008122027 0.0062133074
000190 ce 30 e5 3d 14 9f ca bd 1e 40 37 bd 4c ff 73 3d
       0.111909494 -0.09893623 -0.04473888 0.059569642
0001a0 02 64 8a bd 58 11 ef bb 54 25 9c bd a8 85 fa bd
       -0.06757356 -0.0072957687 -0.07624307 -0.12232524
0001b0 f3 a8 d6 bd 8e 6c f7 3d 38 ae c5 3d 78 c4 b8 3c
       -0.10481443 0.12081252 0.0965237 0.022554621
0001c0 8c 65 98 3d 19 37 02 3e ed 08 bd 3d b3 4e 55 3d
       0.074412435 0.1271633 0.09230218 0.052077007
0001d0 5f be 1d bd 49 f2 70 3c de 2c cf bd 2a 53 c8 3d
       -0.03851163 0.014706203 -0.101159796 0.09781487
0001e0 e0 de 94 3b dd 0c cb bd 90 76 7d bd 9f 6e 04 bc
       0.0045431703 -0.09914563 -0.061880648 -0.008083015
0001f0 78 e9 c1 bd d8 7b 99 bd 9a 42 4b 3e 90 12 50 bc
       -0.09468359 -0.074943244 0.19849625 -0.012699738
000200 af 82 eb bc b8 32 1c 3d fb 75 20 3d c5 8d da 3b
       -0.028748838 0.038134307 0.039175015 0.0066697323
000210 fb db 8f bd 99 d2 c6 bc 9c f6 b7 bd e5 67 49 bb
       -0.0702438 -0.024270343 -0.08982584 -0.0030732092
000220 b0 f6 33 3c 94 5b d1 3d 95 bb 5d be 85 ee 84 3e
       0.010984108 0.10222545 -0.21653588 0.25963226
000230 03 9d 0d be dc 22 ce 3d dc 46 69 bd 61 ed 11 bd
       -0.13829426 0.10065243 -0.056952342 -0.035626773
000240 b6 3a a1 be b6 f5 0a 3e 67 67 b1 3d 56 07 9e 3c
       -0.31490105 0.13570294 0.086623006 0.019290607
000250 8d b4 c3 3d f5 26 e2 bc ac e8 13 3d a0 00 19 3c
       0.09555922 -0.027606467 0.036110565 0.009338528
000260 b1 38 da 3d aa 4d 8b 3d ae 63 0f bd 48 d5 60 3d
       0.10655344 0.068019226 -0.03500717 0.0548909
000270 b7 bd c7 3d 6d 41 29 3d 60 88 8d bb 53 82 82 bd
       0.09752982 0.04132216 -0.0043192357 -0.063725136
000280 f7 e9 e1 bd 31 ea 02 bf de e3 95 3d de 7f 96 bd
       -0.110309534 -0.511386 0.07318853 -0.073486075
000290 32 fd fd bc b3 5d aa bc 58 f0 ab 3d b2 d6 99 3d
       -0.031004522 -0.020796632 0.08395451 0.07511653
0002a0 43 02 c6 3d 74 43 00 bc 6a df 17 3d f2 97 dc 3d
       0.096684 -0.007828582 0.0370783 0.10771169
0002b0 15 f5 c0 3d 0d c9 38 bd a4 17 55 3d de c4 a2 3d
       0.09421746 -0.045113612 0.0520245 0.07947706
0002c0 32 0f 99 bc bb bc 65 be 99 a2 a8 bd 01 85 92 bd
       -0.018684004 -0.22435276 -0.08234138 -0.07154275
0002d0 da 78 9d 3b 3c 9d 33 bd a0 8c 15 bd 78 c5 d6 bd
       0.0048056664 -0.043851122 -0.036511064 -0.10486883
0002e0 84 18 ad 3d 29 4e 3b 3e 81 43 a3 3c e2 cf b2 bd
       0.084519416 0.18291534 0.01992965 -0.08731057
0002f0 8f 4b d6 bd db 62 c3 bd ec 98 e8 bd 0a e9 fb 3d
       -0.104636304 -0.095403396 -0.113572925 0.12300308
000300 e9 11 11 ba 96 93 56 3e b0 03 a4 3d db 10 29 3e
       -0.000553398 0.20954737 0.08008516 0.16510336
000310 1a cd a0 3d ee 2d c2 3d 40 de 12 bb ff 27 b5 3d
       0.0785162 0.09481417 -0.0022410303 0.08845519
000320 4c e4 a9 3d d7 b3 87 bc bd 29 ea bd ef 8b 84 3e
       0.08295497 -0.016565247 -0.11433742 0.2588801
000330 08 7a f4 bd ee 8d 9e bd 26 7d ed bd a3 f0 b4 3d
       -0.11937338 -0.07741915 -0.11596136 0.0883496
000340 d8 b2 94 bd a9 1f 5d 3e a4 42 a9 bd b3 94 b9 bc
       -0.07260674 0.21594109 -0.08264664 -0.022653913
000350 b6 e1 8f 3d 09 6d 50 bd 50 c9 25 3d c2 4a d6 bd
       0.07025473 -0.050885234 0.04047519 -0.10463478
000360 73 05 c3 3c 87 7c 11 bd ff 9e fb ba d5 1b 96 bd
       0.02380631 -0.03551915 -0.0019197165 -0.07329527
000370 dc 13 42 be a7 ff 15 bd 03 bb 32 3e 32 79 13 be
       -0.18952888 -0.036620762 0.17454152 -0.14401701
000380 97 fa d3 bc 6e 99 15 bf c0 6a ed bb d8 af 0e bd
       -0.025876326 -0.5843724 -0.0072453916 -0.034835666
000390 ad 00 33 bd f8 69 17 3e c0 ca 11 3e 50 5a d8 3d
       -0.043701816 0.14786518 0.14237499 0.10564101
0003a0 ba fb 3a 3d f4 0f 14 be 80 17 6a 3d b2 c3 a9 bd
       0.04565022 -0.1445921 0.057151318 -0.08289279
0003b0 0e ab e1 bd 6e 7d 41 3d ce a0 cc 3d c0 e8 9c 3b
       -0.11018954 0.04723876 0.099916086 0.004788488
0003c0 c4 e4 bf bd aa c6 c9 be 50 6b 3e bd 49 fb be 3c
       -0.093698055 -0.3940938 -0.04648906 0.023313181
0003d0 b5 2e 05 3e a1 4a a7 3d 6e 56 5a bd 14 6e ee bd
       0.13006099 0.08168531 -0.053305082 -0.116420895
0003e0 a4 53 be 3d b7 2e 27 3e b5 c3 52 3e c2 e8 75 3d
       0.09293297 0.16326414 0.20582469 0.06003643
0003f0 7d c7 c5 3d 61 ab 24 bd f9 c3 b7 bc 66 99 fc bd
       0.0965719 -0.040202502 -0.022432314 -0.12333946

fc3.bias f4 [32]
000000 da 7a 89 3d d4 15 79 3d 39 8d cb 3d 94 86 0a be
       0.06712885 0.060811833 0.099390455 -0.135279
000010 e7 7b bf bd 20 ce 29 bd 58 fa 51 bd b2 8e 4b bd
       -0.09349804 -0.04145634 -0.051264137 -0.04969663
000020 88 f6 1d bd 1c ee bd 3d a8 cd a9 bc 60 ac ec 3d
       -0.03856519 0.092739314 -0.020727947 0.115563154
000030 9e 6d 95 bd 50 f3 33 bc 88 f7 77 3d d1 70 54 bc
       -0.072962984 -0.010983303 0.0605388 -0.012966351
000040 a9 0a 95 ba 3d 92 97 3d de 4c 9b 3a 7c 92 7a bd
       -0.0011370975 0.074009396 0.001184847 -0.061174855
000050 70 3f 15 3c 4c 71 93 3d a0 45 e2 3c fc 43 7d bd
       0.009109363 0.07199344 0.02762109 -0.061832413
000060 43 98 b0 bc 28 72 cc 3c 3b 59 2f 3d 2a 10 8c 3d
       -0.021556979 0.024956778 0.042809706 0.068390206
000070 dd 59 ca 3c d0 53 c2 bd e4 d2 6e bc bd ad 77 bd
       0.024701053 -0.09488642 -0.014576647 -0.060468424

fc4.weight f4 [1, 32]
000000 82 b9 dd 3d 2e 68 1e be 0e 19 25 3e 9c b0 8b 3e
       0.108263984 -0.15469429 0.16122839 0.2728318
000010 41 ac 19 3e 80 53 4d bc 40 4f 10 3d d4 da d8 bd
       0.15007116 -0.012532115 0.03523183 -0.10588613
000020 a0 14 23 3d be 12 d4 3d 65 bd 0c 3e bc fd 29 3e
       0.03981459 0.10355137 0.13744123 0.16600698
000030 1a be 74 bd f8 75 8b 3c cf 22 b6 be 64 9b e8 3d
       -0.059751607 0.017024025 -0.35573432 0.113577634
000040 89 66 46 3e b8 c2 25 be fd d7 22 3e 54 a2 20 3e
       0.19375052 -0.1618756 0.15902705 0.15686923
000050 5c 9a 7f bd d1 a8 96 3e 6a c6 77 bd 34 55 3b 3d
       -0.062403068 0.29425672 -0.060491957 0.045735553
000060 99 90 01 3e 42 3e fe 3d 97 f4 3d 3e 8c 59 1a 3e
       0.12652816 0.124142185 0.18550335 0.15073222
000070 cd 76 0a bd b0 c9 40 3c 68 5d 2c be c9 f4 d4 bd
       -0.033804704 0.011766836 -0.16832507 -0.103982516
