process/diagnose/model/anomaly_classifier.pt (torch, 47547 bytes, 15 tensors)

kernels f4 [84, 1, 9]
00000000: 0000 0040 0000 0040 0000 0040 0000 80bf
00000010: 0000 80bf 0000 80bf 0000 80bf 0000 80bf
00000020: 0000 80bf 0000 0040 0000 0040 0000 80bf
00000030: 0000 0040 0000 80bf 0000 80bf 0000 80bf
00000040: 0000 80bf 0000 80bf 0000 0040 0000 0040
00000050: 0000 80bf 0000 80bf 0000 0040 0000 80bf
00000060: 0000 80bf 0000 80bf 0000 80bf 0000 0040
00000070: 0000 0040 0000 80bf 0000 80bf 0000 80bf
00000080: 0000 0040 0000 80bf 0000 80bf 0000 80bf
00000090: 0000 0040 0000 0040 0000 80bf 0000 80bf
000000a0: 0000 80bf 0000 80bf 0000 0040 0000 80bf
000000b0: 0000 80bf 0000 0040 0000 0040 0000 80bf
000000c0: 0000 80bf 0000 80bf 0000 80bf 0000 80bf
000000d0: 0000 0040 0000 80bf 0000 0040 0000 0040
000000e0: 0000 80bf 0000 80bf 0000 80bf 0000 80bf
000000f0: 0000 80bf 0000 80bf 0000 0040 0000 0040
00000100: 0000 80bf 0000 0040 0000 0040 0000 80bf
00000110: 0000 80bf 0000 80bf 0000 80bf 0000 80bf
00000120: 0000 0040 0000 80bf 0000 0040 0000 80bf
00000130: 0000 0040 0000 80bf 0000 80bf 0000 80bf
00000140: 0000 80bf 0000 0040 0000 80bf 0000 0040
00000150: 0000 80bf 0000 80bf 0000 0040 0000 80bf
00000160: 0000 80bf 0000 80bf 0000 0040 0000 80bf
00000170: 0000 0040 0000 80bf 0000 80bf 0000 80bf
00000180: 0000 0040 0000 80bf 0000 80bf 0000 0040
00000190: 0000 80bf 0000 0040 0000 80bf 0000 80bf
000001a0: 0000 80bf 0000 80bf 0000 0040 0000 80bf
000001b0: 0000 0040 0000 80bf 0000 0040 0000 80bf
000001c0: 0000 80bf 0000 80bf 0000 80bf 0000 80bf
000001d0: 0000 0040 0000 0040 0000 80bf 0000 80bf
000001e0: 0000 0040 0000 0040 0000 80bf 0000 80bf
000001f0: 0000 80bf 0000 80bf 0000 0040 0000 80bf
00000200: 0000 80bf 0000 0040 0000 80bf 0000 0040
00000210: 0000 80bf 0000 80bf 0000 80bf 0000 0040
00000220: 0000 80bf 0000 80bf 0000 0040 0000 80bf
00000230: 0000 80bf 0000 0040 0000 80bf 0000 80bf
00000240: 0000 0040 0000 80bf 0000 80bf 0000 0040
00000250: 0000 80bf 0000 80bf 0000 80bf 0000 0040
00000260: 0000 80bf 0000 0040 0000 80bf 0000 80bf
00000270: 0000 0040 0000 80bf 0000 80bf 0000 80bf
00000280: 0000 80bf 0000 0040 0000 0040 0000 80bf
00000290: 0000 80bf 0000 80bf 0000 0040 0000 0040
000002a0: 0000 80bf 0000 80bf 0000 80bf 0000 0040
000002b0: 0000 80bf 0000 80bf 0000 80bf 0000 0040
000002c0: 0000 80bf 0000 0040 0000 80bf 0000 80bf
000002d0: 0000 0040 0000 80bf 0000 80bf 0000 80bf
000002e0: 0000 0040 0000 80bf 0000 80bf 0000 0040
000002f0: 0000 80bf 0000 0040 0000 80bf 0000 80bf
00000300: 0000 80bf 0000 0040 0000 80bf 0000 80bf
00000310: 0000 80bf 0000 0040 0000 0040 0000 80bf
00000320: 0000 80bf 0000 80bf 0000 80bf 0000 0040
00000330: 0000 0040 0000 80bf 0000 80bf 0000 0040
00000340: 0000 80bf 0000 80bf 0000 80bf 0000 80bf
00000350: 0000 0040 0000 80bf 0000 0040 0000 80bf
00000360: 0000 0040 0000 80bf 0000 80bf 0000 80bf
00000370: 0000 80bf 0000 0040 0000 80bf 0000 80bf
00000380: 0000 0040 0000 0040 0000 80bf 0000 80bf
00000390: 0000 80bf 0000 80bf 0000 80bf 0000 0040
000003a0: 0000 0040 0000 80bf 0000 0040 0000 80bf
000003b0: 0000 80bf 0000 80bf 0000 80bf 0000 80bf
000003c0: 0000 0040 0000 80bf 0000 0040 0000 0040
000003d0: 0000 80bf 0000 80bf 0000 80bf 0000 80bf
000003e0: 0000 80bf 0000 80bf 0000 0040 0000 0040
000003f0: 0000 80bf 0000 0040 0000 0040 0000 0040
2.0 2.0 2.0 -1.0 -1.0 -1.0 -1.0 -1.0
-1.0 2.0 2.0 -1.0 2.0 -1.0 -1.0 -1.0
-1.0 -1.0 2.0 2.0 -1.0 -1.0 2.0 -1.0
-1.0 -1.0 -1.0 2.0 2.0 -1.0 -1.0 -1.0
2.0 -1.0 -1.0 -1.0 2.0 2.0 -1.0 -1.0
-1.0 -1.0 2.0 -1.0 -1.0 2.0 2.0 -1.0
-1.0 -1.0 -1.0 -1.0 2.0 -1.0 2.0 2.0
-1.0 -1.0 -1.0 -1.0 -1.0 -1.0 2.0 2.0
-1.0 2.0 2.0 -1.0 -1.0 -1.0 -1.0 -1.0
2.0 -1.0 2.0 -1.0 2.0 -1.0 -1.0 -1.0
-1.0 2.0 -1.0 2.0 -1.0 -1.0 2.0 -1.0
-1.0 -1.0 2.0 -1.0 2.0 -1.0 -1.0 -1.0
2.0 -1.0 -1.0 2.0 -1.0 2.0 -1.0 -1.0
-1.0 -1.0 2.0 -1.0 2.0 -1.0 2.0 -1.0
-1.0 -1.0 -1.0 -1.0 2.0 2.0 -1.0 -1.0
2.0 2.0 -1.0 -1.0 -1.0 -1.0 2.0 -1.0
-1.0 2.0 -1.0 2.0 -1.0 -1.0 -1.0 2.0
-1.0 -1.0 2.0 -1.0 -1.0 2.0 -1.0 -1.0
2.0 -1.0 -1.0 2.0 -1.0 -1.0 -1.0 2.0
-1.0 2.0 -1.0 -1.0 2.0 -1.0 -1.0 -1.0
-1.0 2.0 2.0 -1.0 -1.0 -1.0 2.0 2.0
-1.0 -1.0 -1.0 2.0 -1.0 -1.0 -1.0 2.0
-1.0 2.0 -1.0 -1.0 2.0 -1.0 -1.0 -1.0
2.0 -1.0 -1.0 2.0 -1.0 2.0 -1.0 -1.0
-1.0 2.0 -1.0 -1.0 -1.0 2.0 2.0 -1.0
-1.0 -1.0 -1.0 2.0 2.0 -1.0 -1.0 2.0
-1.0 -1.0 -1.0 -1.0 2.0 -1.0 2.0 -1.0
2.0 -1.0 -1.0 -1.0 -1.0 2.0 -1.0 -1.0
2.0 2.0 -1.0 -1.0 -1.0 -1.0 -1.0 2.0
2.0 -1.0 2.0 -1.0 -1.0 -1.0 -1.0 -1.0
2.0 -1.0 2.0 2.0 -1.0 -1.0 -1.0 -1.0
-1.0 -1.0 2.0 2.0 -1.0 2.0 2.0 2.0

biases_0 f4 [84, 30]
00000000: d03e 3240 14dc 26c1 57c9 8e41 1468 923d
00000010: 4b65 96c1 fe3c e640 6ca9 a5c0 003a fb41
00000020: 5089 e33f 88c6 5bc1 c978 4941 c3c9 c0bf
00000030: b8c9 02c2 60b4 9f40 d070 13c1 0526 ab41
00000040: 593c 023f 1f58 8bc1 a12a 1641 7136 44c0
00000050: af2e 1442 dc0e 0f40 ea33 2ec1 18e0 7141
00000060: 62f2 2dbf 2d9c c5c1 6f23 c540 2dff e1c0
00000070: 2c90 c041 9993 bd3f 6c77 4140 d16b 0dc1
00000080: f251 8c41 b987 88bd 1b08 a6c1 8914 c540
00000090: cfcc 2cc0 3231 bb41 c9e9 8f3f 22ef 38c1
000000a0: 1e4d 3441 4392 f6be b521 e4c1 a1e5 8440
000000b0: 9772 dec0 bf74 9c41 3c79 053f 145f 82c1
000000c0: 1dc4 1541 962e 81bf fe59 0542 fb80 fe3f
000000d0: ea1c 1ec1 4e2a 5c41 88ba 89be 2760 acc1
000000e0: f2b8 a940 21a2 95c0 eaea aa41 f82c 313f
000000f0: cb85 3f40 0724 d4c0 152f 8141 f44a 51be
00000100: 27e1 84c1 9a02 c740 5d06 65c0 4b66 a441
00000110: ab43 e73f 3eff 1dc1 ef69 2641 5caf a1bf
00000120: a628 c1c1 b4ff 8540 12ee a9c0 18ff 8841
00000130: 39bf da3e f9c2 4cc1 2e66 dd40 4414 12c0
00000140: 8542 c941 892a 2040 75b7 ecc0 4273 4541
00000150: ece2 0ebf 36a4 95c1 ae9d be40 ca5f 87c0
00000160: f4f4 9641 fbb8 803f 24af 0d40 b902 c9c0
00000170: 2f01 3241 4472 b5be 228e 56c1 c6c3 bc40
00000180: 2d63 e7bf 1983 8a41 c8fa c03f 8b32 0cc1
00000190: bd55 fb40 6777 37bf 62e4 98c1 0358 8040
000001a0: 7596 92c0 7d65 4f41 ec6c 9e3e 4e58 36c1
000001b0: badd d840 02b0 81bf b776 ab41 a1c9 e63f
000001c0: fb5b e5c0 9726 1541 5644 04bf a41c 81c1
000001d0: 2a15 ae40 fb27 43c0 7cad 7841 6237 803f
000001e0: d624 2540 3119 9ec0 4bf8 3341 21a9 df3d
000001f0: 7017 6dc1 f43d a540 f8a7 27c0 2383 8e41
00000200: 4547 d03f 6a08 07c1 b5f0 0641 03d0 0dbf
00000210: b173 bbc1 b2f3 5040 af06 65c0 fd17 6141
00000220: 425b 883e 201d 3bc1 4877 b440 6eee a8bf
00000230: c4b8 ae41 7a48 1340 4144 d5c0 4589 2741
00000240: 2011 91be c3c1 88c1 e74d 8d40 0219 39c0
00000250: dad7 7741 417f 6b3f 43a5 3e40 55d2 d0c0
00000260: a879 2c41 dd53 0a3e 6c12 8ec1 eac1 9040
00000270: 459d 2bc0 771c 8841 9e96 bc3f 92b5 11c1
00000280: cec2 fb40 79d6 0fbf e38c d4c1 fa3a 5240
00000290: 33ed 74c0 e4db 5b41 34f2 4a3f aa7c 6ac1
000002a0: f665 af40 f0ce a2bf 9929 ca41 5f99 1440
000002b0: baf2 f2c0 c5a0 2541 b681 59be 9225 9ec1
000002c0: 980f 8a40 56e7 58c0 ea1d 7141 6733 a63f
000002d0: f5dc 1a40 2a9f 2dc1 767b 4b41 f8b0 acbe
000002e0: e3fd a8c1 adcd d940 3698 5fc0 466f ce41
000002f0: 3bbd b13f 2b57 7ac1 4917 2141 7777 d7bf
00000300: 7984 05c2 dec2 7640 b871 a9c0 bf30 9141
00000310: 7552 3d3f 1208 88c1 f332 e740 772a 17c0
00000320: a22c 0b42 9bef 0d40 0189 3dc1 f975 3441
00000330: 64d1 0abf 6d59 b4c1 d075 c440 25d3 81c0
00000340: 76a8 af41 c847 983f 2a10 9640 d962 fec0
00000350: 4a51 5841 1277 f73e ec94 92c1 936d da40
00000360: 464f 3ac0 e277 ae41 fc3d 3540 afb8 37c1
00000370: 3dcd 2841 0b72 3ebd fe1b dac1 ba08 a640
00000380: 1960 d8c0 3ee2 6c41 188f 403f 0626 69c1
00000390: 0011 0841 ec8c d4bf 9a56 e841 fc05 8740
000003a0: 8a88 0cc1 0c87 3841 4c93 023e 4fda 9ec1
000003b0: dd18 d640 cff9 83c0 760e 9841 3233 0340
000003c0: 862e 7840 6ef3 8fc0 33aa 2741 d5b2 d83e
000003d0: 00e8 3ec1 7c2f a340 0d79 cabf cd4e 8041
000003e0: 75d6 ed3f 673b d4c0 ddb0 d240 14a7 c5bc
000003f0: 3cf4 a6c1 827f 9040 c068 5ac0 a775 4541
2.7850838 -10.42873 17.84831 0.071487576 -18.79946 7.1949453 -5.1769314 31.40332
1.777628 -13.73597 12.591989 -1.5061573 -32.69699 4.9907684 -9.215042 21.393564
0.50873333 -17.418028 9.385407 -3.0658228 37.04559 2.235282 -10.887674 15.11721
-0.6794797 -24.701258 6.1605754 -7.0623994 24.070396 1.4810668 3.022914 -8.838822
17.540012 -0.06666512 -20.753958 6.1587567 -2.7000005 23.399021 1.124322 -11.558382
11.268827 -0.48158464 -28.516459 4.153031 -6.951488 19.557005 0.52138114 -16.296425
9.360379 -1.0092342 33.337883 1.9883112 -9.882059 13.760328 -0.26900125 -21.54695
5.3038263 -4.676041 21.364704 0.6920924 2.992541 -6.629398 16.14799 -0.20438749
-16.609938 6.2190676 -3.5785134 20.549948 1.8067526 -9.874815 10.400863 -1.263164
-24.144848 4.1874638 -5.3103113 17.124557 0.42724016 -12.797601 6.918723 -2.282487
25.15748 2.5025961 -7.3973947 12.340639 -0.55815005 -18.705181 5.956748 -4.230443
18.869606 1.0056452 2.2138147 -6.2815824 11.125289 -0.3543874 -13.4097 5.898898
-1.8077141 17.314013 1.5076532 -8.76234 7.854216 -0.7166657 -19.111515 4.0107436
-4.5808663 12.962277 0.30942476 -11.396559 6.777066 -1.0131838 21.432966 1.8030282
-7.167478 9.321921 -0.5166677 -16.138985 5.4400835 -3.0493152 15.542355 1.0016901
2.5803733 -4.940575 11.248118 0.10920931 -14.818222 5.1638126 -2.619627 17.814032
1.627175 -8.439554 8.433766 -0.55395526 -23.43149 3.264874 -3.578533 14.0683565
0.26632124 -11.694611 5.6395607 -1.3197763 21.840218 2.3012986 -6.664582 10.471013
-0.28333378 -17.09461 4.4157596 -2.8921514 15.490198 0.9199105 2.9788368 -6.5256753
10.779701 0.13508554 -17.758995 4.523671 -2.681474 17.013899 1.4733465 -9.106829
7.86753 -0.56186634 -26.568792 3.2848496 -3.8269775 13.741184 0.7927582 -14.655436
5.4811964 -1.2719402 25.270311 2.321861 -7.5921297 10.35175 -0.21240887 -19.768345
4.3144035 -3.3891196 15.069803 1.2984437 2.4197361 -10.851358 12.717642 -0.33728766
-21.123968 6.806357 -3.4936652 25.804333 1.3885874 -15.646281 10.068185 -1.6833333
-33.379368 3.8556437 -5.2951317 18.148802 0.73953944 -17.00394 7.2249694 -2.3619668
34.793587 2.2177494 -11.845948 11.278802 -0.54225755 -22.543665 6.1393814 -4.0570245
21.957256 1.1896906 4.689473 -7.9495664 13.519846 0.4833303 -18.322716 6.8258758
-2.9110885 21.808537 2.8319082 -11.482589 10.550107 -0.04649548 -27.263668 5.1885653
-6.7617307 14.805235 0.75218344 -14.571783 8.50415 -1.6605506 29.042286 4.2194805
-8.783335 11.53297 0.12751502 -19.856596 6.690535 -4.124244 19.007061 2.0499997
3.8778396 -4.4984655 10.479053 0.42323938 -11.931641 5.0995464 -1.5818192 16.038477
1.8581072 -6.6322513 6.5840898 -0.02412752 -20.869255 4.515565 -3.4126434 12.341224

biases_1 f4 [84, 19]
00000000: c7cc cc3d 703a 4bbe 9c0b 9f3e f72c 493b
00000010: cdc4 f9be cdcc 4c3e c1cc ccbd 188b e93e
00000020: 8888 883d bcab 95be 310e 803e 9414 27bd
00000030: 5655 15bf 9bcd e23d 8a88 08be a58d ca3e
00000040: 8b88 083d 4444 c4be dedd 5d3e 1e95 a040
00000050: ba5a b9c0 aef9 7c41 cea7 b93f 51c4 afc1
00000060: bbbb d340 1eee f8bf 0a5f b241 a9e5 8a40
00000070: 5622 48c1 5359 4d41 bcba 5e3e 1982 e7c1
00000080: f095 a740 2d41 67c0 458a 9841 b60a 0b40
00000090: 2723 94c1 0d6e 1341 96ce a740 8c39 04c1
000000a0: 8515 8041 5128 ef3f fdc7 b5c1 d6f7 1041
000000b0: 207d 57c0 83f0 d241 cf1b 8340 e0f0 5ac1
000000c0: 04d3 5c41 14da 0d3d 2354 08c2 115e bb40
000000d0: 299f d6c0 01c2 9a41 08d9 3440 fe31 8fc1
000000e0: d443 1d41 69be a640 abaa f2c0 272f 6a41
000000f0: e268 be3d e02f a1c1 084f e640 373e 79c0
00000100: dacb a941 7591 ce3f c6a2 4ac1 ccd0 3041
00000110: efcf 4dbf ac14 d2c1 c7cc b440 af29 dcc0
00000120: 409b 8141 45cf 813f 34ca 61c1 e165 0341
00000130: 1df6 7a40 c052 39c1 a1c4 6d41 0c91 60be
00000140: 1b61 abc1 c5a0 dd40 b439 8dc0 df9f ce41
00000150: ad51 dd3f a465 64c1 3214 3941 ab7f 44bf
00000160: a847 dcc1 2c77 9540 e955 02c1 04f0 9241
00000170: c375 663e 3c90 98c1 43f7 0241 28a6 8940
00000180: 8866 3bc1 5643 5e41 9a5a 2cbf 0734 b3c1
00000190: 79bd f540 c16d b2c0 2307 c441 8f15 f33f
000001a0: 795f 6ec1 50b3 3541 d143 debf cf30 d7c1
000001b0: 1e71 aa40 13b1 07c1 dab8 8241 49cb 423e
000001c0: 6578 91c1 a3dd 1441 986d 3240 72d1 35c1
000001d0: decb 5241 093e 57bf f1bb 8fc1 d161 b940
000001e0: 045a 96c0 e823 c041 ecf7 b23e 3de4 61c1
000001f0: 4d5d 1941 b549 06c0 10ba c4c1 2370 9340
00000200: e2f3 e1c0 d131 7041 d348 eabe d78e 7bc1
00000210: 77a9 d440 f0b0 9e40 3569 d3c0 4b67 7441
00000220: 245f ce3e 07fe 9ec1 86f2 fc40 c179 0fc0
00000230: ffe4 b541 e508 5640 334e 3fc1 90d2 3041
00000240: d842 a3be 9362 dec1 ce65 b240 18e5 a2c0
00000250: 20af 8b41 4cb5 853f e5b9 7cc1 ff32 0941
00000260: d4e6 cc40 94fb f2c0 f330 7d41 efb9 2540
00000270: d22a a3c1 a825 0f41 7c1f 0fc0 6c5d ac41
00000280: 7451 b240 f185 29c1 df8b 3f41 6b3c 4c3f
00000290: 51da f0c1 b0a7 e540 b0cb 94c0 faad 8a41
000002a0: 5d40 6340 d669 82c1 ce5d 1f41 c0e7 8f40
000002b0: a02f b5c0 f4c5 4541 ef17 9ebd 49c6 68c1
000002c0: b725 d040 c06c 2bc0 6689 8541 3fe8 2940
000002d0: d43f 08c1 8269 2e41 8ae8 90bf ea66 c8c1
000002e0: 4ff3 ad40 d5ed 7ec0 0c60 6541 c26b 943f
000002f0: 1504 3ec1 6788 e640 8b7f 4640 3bb8 a9c0
00000300: 8227 1f41 cffb 133f 879b 7dc1 a00b 9740
00000310: a0ad a7bf 4a81 5c41 51d8 1940 4e79 04c1
00000320: cdf7 e640 c614 27bd b04d b7c1 e0dd 7d40
00000330: 3ca5 29c0 580e 2441 1f12 9a3f 0080 50c1
00000340: 9421 b940 ae37 6640 f911 c4c0 c528 2a41
00000350: ba58 ebbd 7cf8 72c1 0123 a740 8532 4ec0
00000360: 9061 5f41 d170 a23f 5593 00c1 7b9e f740
00000370: 0fcc b1bf 5731 bbc1 faf6 8740 1e1e 96c0
00000380: 7a30 3a41 4635 4a3e f5f8 49c1 2f77 b840
00000390: b862 6440 49c0 01c1 1f57 3441 8605 cd3e
000003a0: 49aa 91c1 193c d140 2df4 43c0 51eb 7241
000003b0: 746d 1040 b453 1ec1 3b79 2341 8d12 8bbf
000003c0: ed3a d3c1 ba0a 9440 ed46 cdc0 73ce 5641
000003d0: e211 983f 098f 76c1 7fee ef40 eb23 8d40
000003e0: 3146 f4c0 d0ea 7041 029b 0f3f 63f8 89c1
000003f0: 0123 c740 5329 91c0 0a84 b141 bce6 5340
0.09999996 -0.19846511 0.31063545 0.0030696967 -0.4878296 0.2 -0.09999991 0.45613933
0.06666666 -0.29232585 0.25010827 -0.04079111 -0.5833334 0.110743724 -0.13333336 0.3956119
0.033333343 -0.38333333 0.21666667 5.018203 -5.792325 15.810957 1.4504335 -21.970858
6.6166663 -1.9447668 22.296406 4.3405347 -12.508383 12.834308 0.21750921 -28.938524
5.237053 -3.613353 19.067514 2.1725287 -18.517164 9.214368 5.243968 -8.26405
16.010508 1.8684179 -22.72265 9.060507 -3.367012 26.367437 4.0971446 -13.683807
13.8015175 0.034631804 -34.082165 5.8552327 -6.7069287 19.344728 2.8257465 -17.89941
9.82906 5.2107434 -7.5833335 14.636512 0.092973486 -20.148376 7.1971474 -3.8944223
21.224537 1.613814 -12.66474 11.050976 -0.80395406 -26.260094 5.649997 -6.8800883
16.200806 1.0141379 -14.111866 8.212373 3.9212716 -11.582703 14.860505 -0.21930331
-21.422415 6.925875 -4.413294 25.828062 1.729055 -14.274815 11.5674305 -0.76757306
-27.534988 4.6707973 -8.145974 18.367195 0.2250586 -19.070427 8.185367 4.3015327
-11.712532 13.891439 -0.67325747 -22.400404 7.679379 -5.5758977 24.503485 1.8990954
-14.898309 11.356277 -1.7364446 -26.898832 5.3263083 -8.480731 16.34026 0.1902286
-18.183786 9.304111 2.787939 -11.363634 13.174772 -0.84079033 -17.966768 5.7931905
-4.698488 24.017532 0.34954774 -14.118222 9.5852785 -2.0982487 -24.59085 4.6074386
-7.061021 15.012162 -0.45758685 -15.722373 6.6456866 4.959099 -6.6065927 15.275218
0.40306962 -19.874037 7.904605 -2.2418063 22.736814 3.3442929 -11.956592 11.051407
-0.31886935 -27.798132 5.5749273 -5.0904655 17.46051 1.0445952 -15.795384 8.57495
6.4031773 -7.59321 15.8244505 2.5894735 -20.395908 8.946693 -2.2362967 21.545616
5.572443 -10.595201 11.971648 0.7977969 -30.1066 7.1767197 -4.649864 17.33495
3.5508034 -16.301678 9.960402 4.49704 -5.6620636 12.360828 -0.07719409 -14.548409
6.504604 -2.6785126 16.69209 2.6548002 -8.515583 10.900759 -1.1320965 -25.050251
5.4359508 -3.983266 14.335949 1.1595385 -11.875997 7.2041507 3.1015346 -5.303739
9.947145 0.57806104 -15.850471 4.720169 -1.3099861 13.781565 2.403828 -8.279615
7.217749 -0.040791295 -22.912933 3.9666672 -2.65071 10.253502 1.203678 -13.03125
5.785349 3.5971484 -6.127194 10.6349535 -0.114915326 -15.185665 5.223023 -3.2218335
13.961319 1.2690679 -8.03597 7.7380958 -1.3890399 -23.399092 4.2488985 -4.6911764
11.636835 0.19746885 -12.623281 5.764549 3.5685253 -8.109445 11.27127 0.40043277
-18.208147 6.538586 -3.0617783 15.18245 2.2566805 -9.895435 10.217097 -1.0865036
-26.403772 4.6263094 -6.414908 13.425403 1.1880457 -15.409921 7.4978633 4.4106345
-7.6335683 15.057327 0.560959 -17.246283 6.223023 -4.5362945 22.189472 3.310958

biases_2 f4 [84, 12]
00000000: fcb4 0841 0296 3bc1 6fb0 a541 be71 3540
00000010: 0e4d e4c1 dc47 3641 1d00 48c0 de7a f341
00000020: 8fbb d040 2b57 a8c1 c9d0 8041 df38 363f
00000030: db9f ef40 28ed 46c1 05a5 bf41 84da ec3f
00000040: 80cd e6c1 d86a 4941 376b bcc0 5031 0042
00000050: 82a0 a840 0ac4 8dc1 5e47 9041 c0c9 e0be
00000060: 5f3a c740 504d 17c1 275f 7d41 c1f8 e73f
00000070: 0314 bcc1 6205 2541 b4b3 9ac0 f25f e541
00000080: 6954 8740 698c 5cc1 2c14 5141 5788 08be
00000090: 2e68 c940 0124 2dc1 3b3b 5c41 5b65 3b3f
000000a0: deba 92c1 6e2f 0241 855d d3c0 7c30 9e41
000000b0: 7aa1 2e40 ad6f 42c1 3012 3841 e638 9abf
000000c0: ad98 be40 b614 28c1 ab21 5341 9eb9 653f
000000d0: 7aec a1c1 a42e ee40 6c9c c1c0 e5ee 9641
000000e0: 3c75 5540 3d45 40c1 fc07 3441 2f4b f0be
000000f0: 52bf a940 bd25 1bc1 151e 4d41 78f8 a73d
00000100: 2b4f b1c1 2d2a d340 5165 46c0 cc9f a241
00000110: 29ac 6040 221a 43c1 3a29 2a41 0349 fbbe
00000120: 7539 4c40 fe2d 3dc1 4432 5d41 c371 35be
00000130: 29e2 bfc1 dc46 bb40 4172 bec0 80d4 bd41
00000140: 9e19 1140 6fc9 63c1 57a1 f840 5b82 9bbf
00000150: 30c9 cb40 c513 17c1 c293 8541 2d77 e73f
00000160: de7c bfc1 4632 2541 895c 9cc0 c9ba b241
00000170: 5a6e a640 24b1 55c1 b0a4 7541 64f3 8bbe
00000180: 4a32 f840 009f 19c1 0bd3 8241 19a3 0240
00000190: 2222 90c1 fad3 2c41 7b66 6ec0 0b8c b641
000001a0: 61e9 ba40 23dc 3fc1 b944 6041 b9e8 41bf
000001b0: 13d3 c840 54c0 2bc1 681f 6941 d02a 703f
000001c0: 0caa 90c1 3ee3 1641 61e2 d9c0 7b2e a441
000001d0: ca42 7d40 46f6 62c1 0258 4941 a6e3 e8be
000001e0: 0458 9840 8442 1fc1 3114 6841 db45 3a3f
000001f0: 868f 94c1 0a19 0d41 70f4 81c0 135f a041
00000200: c569 1840 8308 5ec1 0d19 3d41 1673 3ebd
00000210: 73ac 6a40 6517 0bc1 4355 4441 2b22 22bf
00000220: 8688 6cc1 9bde b040 cdf9 b7c0 49c5 aa41
00000230: 0dcf 9d3f d524 2cc1 d5c0 0641 70a8 99bf
00000240: 9488 883c 9a99 19be cdcc 4c3e 8888 08bd
00000250: 574d 82be d2cc 4c3d cccc ccbd aaaa aa3e
00000260: 004c 2fb1 bdbb 3bbe eaa4 083e ca58 6bbd
00000270: 33c0 c940 7589 16c1 91a2 8041 5d40 c83f
00000280: 2765 a2c1 0684 2841 a0a3 b0c0 3581 d641
00000290: 29d0 9640 8194 42c1 8f55 5c41 eb91 36bf
000002a0: c4a9 a740 0600 07c1 a349 7541 00f6 16bd
000002b0: b84d 6dc1 1faf 1141 3eec c3c0 7cf2 9641
000002c0: 42a3 4a40 a31f 32c1 87e0 4941 d30e 10c0
000002d0: 3e21 5f40 ef8d 18c1 4fa0 6e41 dc63 05be
000002e0: a812 8dc1 b982 d840 2ab1 b4c0 f972 a841
000002f0: 91ca ea3f e6ef 36c1 b3f4 3641 c42e d1bf
00000300: 0f08 9c40 39d2 17c1 47fd 7a41 3cff a4bf
00000310: 7aec 83c1 c5e6 f340 f7d6 e0c0 fb57 9441
00000320: a147 5640 e8d4 36c1 9cc0 3f41 55cb 16c0
00000330: 1469 0940 b114 09c1 3598 2041 885c 6dbf
00000340: 0958 57c1 1c3c 9140 6566 bec0 3456 9641
00000350: 3c8c 6f3f 4795 1cc1 5105 f840 7947 65c0
00000360: 2807 9440 26c1 0ac1 4774 4341 4737 4a3f
00000370: 41e9 56c1 2a2a d340 7dd9 a6c0 9ef1 8541
00000380: 6152 4840 de1b 1dc1 7b1d 1d41 a5f5 05bf
00000390: 0223 9240 a790 d5c0 07a3 1f41 feda 8c3f
000003a0: d407 66c1 a65a c540 8195 6cc0 6bc6 8141
000003b0: f064 4f40 8a17 18c1 ab02 0841 926a f4bb
000003c0: 2c2a 8640 624c 01c1 e97b 3a41 b086 573d
000003d0: fb4b 57c1 2e07 cc40 b0e1 8cc0 1172 8341
000003e0: 94fb 2b40 f823 2bc1 da89 1c41 8a88 e8bf
000003f0: e9b0 c33f 6e3a cdc0 84e0 2541 11b4 58bf
8.544186 -11.724123 20.71115 2.8350673 -28.537624 11.392544 -3.125007 30.434994
6.5228953 -21.042562 16.101946 0.7118053 7.4882636 -12.432899 23.955576 1.8504186
-28.850342 12.588585 -5.8880877 32.048157 5.2695932 -17.720722 18.034847 -0.43903923
6.2258754 -9.456375 15.835731 1.8122789 -23.509771 10.313814 -4.8344364 28.671848
4.229054 -13.78428 13.067425 -0.1333326 6.2939672 -10.82129 13.764461 0.7320153
-18.341244 8.1365795 -6.605166 19.773674 2.7286057 -12.152265 11.50444 -1.2048614
5.956137 -10.505056 13.19572 0.89736354 -20.240467 7.4431934 -6.0503445 18.866648
3.3352804 -12.016904 11.251949 -0.4693236 5.3046045 -9.696713 12.819844 0.082016885
-22.163656 6.5988984 -3.0999339 20.328026 3.5105078 -12.19388 10.635065 -0.4907914
3.191007 -11.823729 13.824772 -0.17719178 -23.98543 5.8524 -5.951447 23.72876
2.2671885 -14.236678 7.769695 -1.2149156 6.368309 -9.442327 16.697147 1.8083245
-23.93597 10.324774 -4.886296 22.341204 5.2009706 -13.355747 15.352707 -0.2733413
7.756139 -9.601318 16.353048 2.0412047 -18.016666 10.801752 -3.725005 22.81838
5.8409886 -11.991244 14.016778 -0.7574573 6.275766 -10.734455 14.570168 0.93815327
-18.08303 9.430479 -6.808884 20.522696 3.9572015 -14.185125 12.583986 -0.45486182
4.760744 -9.953739 14.50493 0.7276284 -18.57008 8.818613 -4.0610886 20.046423
2.3814557 -13.877078 11.818616 -0.046496473 3.6667755 -8.693212 12.270816 -0.63333386
-14.783331 5.5271735 -5.7492433 21.34633 1.2328812 -10.758992 8.422078 -1.2004528
0.016666688 -0.15 0.2 -0.03333333 -0.2544963 0.05000002 -0.099999994 0.3333333
-2.5509053e-09 -0.18333335 0.1334416 -0.057457723 6.304712 -9.408559 16.079378 1.5644642
-20.29939 10.532232 -5.5199738 26.81309 4.71291 -12.161256 13.770888 -0.71316403
5.2394733 -8.437506 15.330478 -0.036855698 -14.831474 9.105254 -6.122588 18.8684
3.1662145 -11.132724 12.617316 -2.2509048 3.486404 -9.534652 14.914138 -0.13026375
-17.63411 6.7659574 -5.6466265 21.056139 1.8343068 -11.433569 11.434741 -1.6342397
4.8759837 -9.488824 15.686835 -1.2890391 -16.490467 7.62192 -7.026241 18.54296
3.348122 -11.426979 11.984524 -2.3561604 2.1470385 -8.567552 10.03716 -0.92719316
-13.458993 4.5385876 -5.9499993 18.792091 0.93573356 -9.786445 7.750649 -3.5824873
4.6258736 -8.672155 12.215888 0.78990597 -13.431947 6.598897 -5.214049 16.742977
3.130028 -9.8193035 9.819697 -0.5232795 4.5667734 -6.6739078 9.977302 1.1004331
-14.376911 6.1673155 -3.696625 16.221884 3.2405357 -9.505747 8.500651 -0.0074589932
4.192648 -8.081148 11.6552515 0.052618682 -13.45605 6.3758764 -4.4025497 16.430696
2.68723 -10.696281 9.783655 -1.8166668 1.5288364 -6.4133825 10.367313 -0.8464976

biases_3 f4 [84, 12]
00000000: 285b 1e41 5cad 6cc1 dc98 c241 adef e93f
00000010: 2f64 eac1 b859 6741 ffff 2bc1 3eda f741
00000020: f819 f740 9623 aec1 8a09 a641 9e68 80c0
00000030: 18e4 f340 f1f8 61c1 6e3e a641 19ed 3840
00000040: 04ea eac1 cb24 3641 bae8 b6c0 fbd9 ff41
00000050: 8f76 b940 91e0 b9c1 8cad 8441 66c5 9a3f
00000060: 9745 0841 ad38 7bc1 957c b441 4444 e43f
00000070: 145b c5c1 1034 5841 b0b6 f7c0 60d9 f241
00000080: 489b ca40 5a3f 8cc1 e87b 9d41 c001 5bc0
00000090: 8de9 ba40 8f15 36c1 7898 8841 b5ef 893f
000000a0: 9f45 b7c1 316e 1741 c61d abc0 66c7 a641
000000b0: 3b33 7340 4eed 6fc1 9d95 5f41 b360 11c0
000000c0: 5ad0 bc40 c0f0 2cc1 23ce 7041 d3f4 ab3f
000000d0: 46ee 9fc1 25fe 0741 f624 bac0 11f4 a841
000000e0: faeb 6140 cda9 75c1 ddb0 5e41 3c8f ffbf
000000f0: 208c de40 ba0b 76c1 d56f 6c41 7e52 c43f
00000100: 3da6 c8c1 ebc2 1741 7ead c2c0 fc8c 9f41
00000110: c733 a340 4a8f 89c1 8f80 4641 7275 5fbf
00000120: a3a0 cb40 6b50 81c1 5147 9a41 b6a2 b7bf
00000130: b4a1 bdc1 abcd 2541 71c7 0ec1 510e d041
00000140: e76d 6440 4a64 97c1 a633 7741 60ad 63c0
00000150: 96ce 0b41 d12d 6ac1 141e af41 9a4d 0540
00000160: ee94 cec1 4843 4141 9343 afc0 8c64 da41
00000170: dbc1 cf40 c549 91c1 0379 9541 2c48 44bf
00000180: f004 1141 a376 54c1 7a63 9841 9d87 9d40
00000190: 0baa c4c1 54bf 3541 bf6c c3c0 fdd2 c541
000001a0: fd15 0741 f8e5 87c1 aecf 7f41 8842 2940
000001b0: 65d0 ca40 1f34 2dc1 94af 8e41 a275 b13f
000001c0: b84d a7c1 b58f 1441 be40 c7c0 e48d b841
000001d0: b0cb 5b40 81a4 6cc1 92a5 4541 5427 e3bf
000001e0: 5a4c ab40 63eb 32c1 2157 9441 5af8 1cbf
000001f0: b807 b5c1 fe8c 2341 a281 fbc0 d5dd e341
00000200: da65 f83f 2496 6dc1 fed8 5f41 d3e1 09c0
00000210: b851 b440 630e 3ec1 86e0 7141 bc90 a23d
00000220: 6374 acc1 4bc8 0441 103e c4c0 efee c041
00000230: 7e2f 3b40 df1b 85c1 9fe3 4941 2d4f c8bf
00000240: 9ef1 5140 3219 4ac1 92a2 8241 49e5 4abf
00000250: 76d7 8ac1 eb9e b940 8e4f 06c1 52e2 a841
00000260: ba2e cf3f 57c9 6cc1 29c4 2741 e468 4ec0
00000270: 7c88 f240 e509 2dc1 5ee4 9541 b486 c23f
00000280: 1c7d 98c1 0f9e 3441 59bb 88c0 5bd8 bb41
00000290: af4e 9840 e049 56c1 ce4b 7c41 2027 03be
000002a0: 4ff4 b740 520f ffc0 8ffa 7941 5211 26bf
000002b0: b2a8 99c1 c4c3 1841 a904 a1c0 6002 a741
000002c0: b2f9 5040 1162 4dc1 7721 4941 2c35 21c0
000002d0: 9b03 6640 7292 08c1 5ba4 6741 18e0 b3be
000002e0: d715 83c1 29a6 0e41 b20d 99c0 b33f 8b41
000002f0: c822 5d3f 6019 25c1 490f 3b41 3461 89bf
00000300: 8aa2 4540 15a7 08c1 e3b4 5841 f8ae 56bf
00000310: 4fb0 8fc1 8046 e540 6ec8 8dc0 81b3 8a41
00000320: 0fd8 233f 1a08 52c1 ff57 2941 93b4 10c0
00000330: 5a5d 683f 4a70 07c1 2a2a 2f41 2236 e4bf
00000340: b302 76c1 05b9 8a40 8c92 a7c0 5784 9041
00000350: 12e4 353e 1ba7 33c1 bc3a 1b41 4c71 3ac0
00000360: a7df b840 8c4b dac0 6a2c 6541 deb8 0a40
00000370: 81e2 9bc1 b48f 1841 d025 8cc0 c0f8 9141
00000380: 4920 9640 338c 22c1 b742 2f41 5ec1 c6be
00000390: 4906 8440 bdbb 0fc1 5941 8a41 be5f d93d
000003a0: f49a 86c1 9d00 d940 03de b2c0 8d03 ba41
000003b0: 9a6b 0440 9c66 50c1 1e26 5641 de80 05c0
000003c0: f3e5 7c40 539c e2c0 8a64 2e41 782a b8bd
000003d0: 3cc1 72c1 66ac b440 3108 96c0 57e1 8541
000003e0: a7ff 0940 395c 18c1 2bbc 0f41 3776 f6bf
000003f0: 54cf 2d3d 9c99 19be e7c1 683e 8788 08bd
9.897255 -14.792324 24.324638 1.8276268 -29.298918 14.459404 -10.749999 30.981564
7.72192 -21.767376 20.754658 -4.0127707 7.6215935 -14.123277 20.780483 2.8894713
-29.364265 11.383983 -5.715909 31.981436 5.7957225 -23.234652 16.58474 1.2091491
8.51699 -15.701337 22.560831 1.7833333 -24.669472 13.512711 -7.7410507 30.35614
6.331455 -17.530933 19.685501 -3.4219818 5.8410096 -11.380263 17.074448 1.0776278
-22.908995 9.464402 -5.3473845 20.847363 3.8000019 -14.995436 13.974027 -2.271527
5.9004335 -10.808777 15.050326 1.343409 -19.991344 8.499547 -5.817012 21.119173
3.5300279 -15.353955 13.9181795 -1.9965587 6.954605 -15.377863 14.777303 1.5337675
-25.081171 9.485087 -6.0836782 19.94384 5.1000705 -17.194965 12.406386 -0.8728858
6.363359 -16.164267 19.284822 -1.434653 -23.703957 10.362712 -8.923692 26.00699
3.569208 -18.92397 15.4501095 -3.557457 8.737936 -14.636186 21.889687 2.0828614
-25.82272 12.078926 -5.476999 27.299095 6.492414 -18.16102 18.684088 -0.76672626
9.063705 -13.278964 19.048573 4.9228044 -24.583029 11.359211 -6.1070247 24.728022
8.442868 -16.98729 15.988203 2.6446857 6.337939 -10.825225 17.835732 1.3864024
-20.912949 9.285085 -6.226653 23.069283 3.434307 -14.790162 12.352922 -1.7746377
5.3530703 -11.182467 18.542543 -0.61316454 -22.628769 10.221922 -7.8595743 28.483316
1.9406083 -14.849155 13.990477 -2.1544082 5.6349754 -11.878512 15.117315 0.07937762
-21.55683 8.2989 -6.132576 24.116667 2.9247737 -16.638609 12.618072 -1.5649163
3.2803721 -12.631151 16.32938 -0.7925611 -17.355206 5.800649 -8.394423 21.110508
1.6186135 -14.799155 10.485391 -3.225152 7.5791607 -10.814916 18.736507 1.5197358
-19.061089 11.288589 -4.2728696 23.480642 4.759605 -13.393036 15.768507 -0.12807894
5.748573 -7.97062 15.623672 -0.6487018 -19.20737 9.547794 -5.031819 20.87616
3.2652402 -12.836442 12.57067 -2.5188704 3.59397 -8.535753 14.477626 -0.35131907
-16.385664 8.915566 -4.782922 17.406103 0.86381197 -10.318695 11.691232 -1.0732789
3.0880456 -8.5407915 13.544162 -0.8386073 -17.961088 7.164856 -4.4307165 17.337648
0.64001554 -13.126978 10.583983 -2.2610214 0.90767443 -8.464914 10.947794 -1.782902
-15.375659 4.3350854 -5.236639 18.06462 0.17762783 -11.228297 9.701839 -2.913165
5.7773013 -6.821722 14.323343 2.1675334 -19.485598 9.535084 -4.379616 18.24646
4.691441 -10.159228 10.953788 -0.38819402 4.125767 -8.983335 17.281908 0.106139645
-16.82566 6.781325 -5.589601 23.251734 2.0690675 -13.025051 13.384306 -2.0859904
3.951535 -7.0815825 10.899546 -0.08992475 -15.172176 5.6460447 -4.6885 16.73503
2.1562288 -9.522515 8.983439 -1.9254826 0.04243405 -0.15000004 0.22730218 -0.033333328

biases_4 f4 [84, 8]
00000000: 0000 0000 0000 0000 0000 0000 0000 0000
00000010: 0000 0000 0000 0000 0000 0000 0000 0000
00000020: 61ea 0f41 7bd4 85c1 ad96 cd41 a6aa cabf
00000030: 23c1 d5c1 4fd7 5a41 1f24 20c1 68cf f541
00000040: e580 0941 e4dd 78c1 48c8 aa41 89e2 1740
00000050: 5072 c2c1 e0ee 6141 6f9b 0ec1 8c14 d941
00000060: 35c0 0141 c793 9cc1 bd53 c541 2849 50bf
00000070: 8d34 dac1 12ff 7541 a460 31c1 f760 0342
00000080: 920c 1041 e728 86c1 4a93 9c41 c28c ba3f
00000090: 3278 d8c1 3d92 5241 3f74 20c1 8c64 e441
000000a0: 44c8 0141 5a70 6cc1 8569 8141 29b5 43bf
000000b0: 358c c8c1 a3f9 3b41 63ee 16c1 2519 be41
000000c0: 0000 0000 0000 0000 0000 0000 0000 0000
000000d0: 0000 0000 0000 0000 0000 0000 0000 0000
000000e0: 0f95 3241 0461 71c1 d6d4 bf41 16fa 483f
000000f0: 9fdc cdc1 de23 7041 a613 cbc0 fd2b ed41
00000100: 257a 2641 4856 7ec1 4f29 d241 dffd 2940
00000110: 8b71 dac1 e361 5e41 1011 25c1 44a4 0642
00000120: 87bd e640 5970 58c1 3389 9a41 ee35 29bf
00000130: 9661 9fc1 7b30 2a41 47df 05c1 ff4e be41
00000140: bdbb 9340 6d5d 47c1 85f2 7441 f467 733e
00000150: 4b04 a0c1 39da 1241 8f17 fbc0 b7e7 ae41
00000160: c5d5 1840 9938 37c1 4ab6 7d41 4f18 19c0
00000170: 597d 8bc1 46fb d040 4152 e7c0 5dea 9941
00000180: 807f 6040 7189 2fc1 a701 5d41 4f94 0fc0
00000190: eb9b 88c1 e958 fb40 e2bc e7c0 466f 8e41
000001a0: 2bdf 1241 03cb 11c1 4311 8e41 c0a9 5740
000001b0: 6336 b7c1 2dd2 5141 e38e 4dc0 0b8a c241
000001c0: d46f 0041 2f10 25c1 feab 7241 f857 973e
000001d0: 04ea 8ac1 f72b 2241 35e5 89c0 8c41 8d41
000001e0: 8688 083d abaa aabd f0ee ee3d 8988 88bc
000001f0: aaaa 2abe f0a8 5f3d 23ee 58bd 894e 483e
00000200: 0946 a440 ce7d fcc0 e2d8 4641 1922 62bf
00000210: f339 98c1 9e98 f240 e612 9ac0 a024 8541
00000220: 52a4 c53f 174f 17c1 8503 3941 339d c5bf
00000230: 1111 89c1 80c5 c640 2f08 bec0 5f76 aa41
00000240: 1c0c 0d41 94cf 52c1 9ea6 8b41 c000 5b40
00000250: 5d0d bac1 6627 3141 ea97 bdc0 a548 b941
00000260: d0c3 aa40 79b5 1ac1 1146 5b41 1abc c63e
00000270: 0958 89c1 7dc6 0941 c11f b1c0 a5a1 9a41
00000280: 825c 9940 f5c2 00c1 19b4 3041 15d2 ba3c
00000290: d1e4 7ec1 00ff e040 e062 a1c0 3333 8d41
000002a0: 8d38 5940 e273 15c1 319d 6b41 399a 99bf
000002b0: f760 8bc1 005e cf40 4ea5 a4c0 2619 a641
000002c0: 0c69 1340 e3b1 0cc1 89b7 2c41 6e04 acbe
000002d0: 0682 8ec1 724b b040 10b9 a0c0 c099 a641
000002e0: b8a0 0f40 8e91 14c1 b99c 2841 4e00 10c0
000002f0: 8db0 68c1 32bf a740 6dc8 ddc0 dfe5 8641
00000300: 14ab 7fbe d5f8 27c1 89ed 2d41 2269 4fc0
00000310: fdc8 88c1 dcaf b040 603b f9c0 b34b a341
00000320: 5317 8a3f f258 46c1 2894 4b41 2e72 6dc0
00000330: 0935 96c1 4a88 b440 321d 0dc1 9bbc c441
00000340: 02c8 553f e909 2cc1 6589 3541 1709 6ec0
00000350: fe67 b2c1 e789 a440 0e3e f4c0 8ad6 c341
00000360: 7a20 0ec0 0c09 77c1 dfb9 7741 5dda d9c0
00000370: c665 b4c1 1304 ed40 7d6b 34c1 2ed1 c941
00000380: 1369 1941 79e1 1ec1 d36f a041 1aeb 3a40
00000390: 5655 c5c1 b85a 6641 b30d 91c0 9afa d541
000003a0: 7277 3041 1d9e 5dc1 c1b4 9e41 a3d5 9640
000003b0: f64d dec1 02ee 5441 4a21 90c0 b5d5 f041
000003c0: 2603 0241 23c1 27c1 f8e4 8041 f92a 703f
000003d0: 7c23 9bc1 2357 3441 b087 aec0 48bf b341
000003e0: 352a b140 7a05 44c1 9da6 7541 de69 2a40
000003f0: 54bd abc1 98ce 1b41 8658 6bc0 5ff2 aa41
0.0 0.0 0.0 0.0 0.0 0.0 0.0 0.0
8.994721 -16.72875 25.698572 -1.5833328 -26.719305 13.677566 -10.008819 30.726273
8.593968 -15.5541725 21.347794 2.3732016 -24.305817 14.120819 -8.912948 27.135033
8.109426 -19.572157 24.665888 -0.8136163 -27.27566 15.374773 -11.086094 32.844692
9.003069 -16.769972 19.571918 1.4574206 -27.05869 13.160703 -10.02838 28.549095
8.111393 -14.77743 16.176523 -0.76448303 -25.06846 11.748446 -9.4332 23.762278
0.0 0.0 0.0 0.0 0.0 0.0 0.0 0.0
11.161391 -15.086185 23.978924 0.785066 -25.732725 15.008757 -6.3461485 29.646479
10.40482 -15.896065 26.27017 2.65612 -27.30544 13.898898 -10.316666 33.660416
7.2106357 -13.527429 19.316992 -0.66097915 -19.92265 10.636836 -8.367011 23.788572
4.6166673 -12.460309 15.309209 0.23770124 -20.002096 9.178277 -7.846626 21.863142
2.3880475 -11.451318 15.857004 -2.3921087 -17.436205 6.530673 -7.2287908 19.239435
3.507782 -10.971055 13.812903 -2.243427 -17.076132 7.8546033 -7.241807 17.804333
9.179484 -9.112063 17.758429 3.3697357 -22.901556 13.113812 -3.211846 24.317404
8.027302 -10.316451 15.16699 0.29559302 -17.364265 10.135734 -4.3092294 17.657005
0.033333324 -0.083333336 0.116666675 -0.016666668 -0.16666666 0.05460447 -0.05296148 0.19561209
5.133549 -7.890357 12.42795 -0.8833328 -19.028296 7.58113 -4.814807 16.642883
1.5440772 -9.456809 11.563359 -1.5438598 -17.133333 6.211609 -5.938499 21.307798
8.815456 -13.175678 17.456356 3.4219208 -23.256525 11.072119 -5.924794 23.160471
5.336403 -9.669305 13.704606 0.38815385 -17.167986 8.610959 -5.535126 19.328928
4.7925425 -8.047597 11.043969 0.022805253 -15.930863 7.031128 -5.0433197 17.65
3.3940766 -9.340792 14.725877 -1.200019 -17.422346 6.4802246 -5.145179 20.76228
2.3032866 -8.793429 10.794808 -0.3359713 -17.813488 5.5092096 -5.0225906 20.825073
2.2441845 -9.285536 10.538262 -2.2500186 -14.543103 5.2420893 -6.930716 16.862242
-0.24967605 -10.49825 10.870492 -3.2407918 -17.098139 5.521467 -7.788498 20.411963
1.0788368 -12.396715 12.723671 -3.710094 -18.775896 5.641637 -8.819628 24.592093
0.8350831 -10.752419 11.346044 -3.7193048 -22.300777 5.141834 -7.632575 24.479755
-2.2207322 -15.439709 15.482879 -6.8079057 -22.549694 7.4067473 -11.276242 25.227139
9.588153 -9.930047 20.054602 2.9205995 -24.666668 14.397148 -4.5329223 26.747364
11.029161 -13.851102 19.838259 4.7135787 -27.788067 13.308107 -4.5040636 30.10435
8.125769 -10.4846525 16.111801 0.9381557 -19.392326 11.271274 -5.4540634 22.4684
5.536402 -12.251337 15.353177 2.6627116 -21.467445 9.737938 -3.677278 21.368345

biases_5 f4 [84, 8]
00000000: 71b4 6340 5c6b cac1 7fe7 2c42 1762 bbc0
00000010: 24f8 22c2 513d a741 0d9c 68c1 1072 4942
00000020: 6c28 0a41 b798 9bc1 c34a e241 8939 98c0
00000030: 1b69 e2c1 853b 8a41 8205 77c1 d523 1042
00000040: adc4 4740 6970 75c1 ccef b741 8244 b4bf
00000050: e5fe cdc1 4ac8 8441 cde3 11c1 46fd ec41
00000060: cab6 1341 74d4 90c1 6952 ab41 7a73 9abf
00000070: 8b79 cfc1 32a4 6441 77ba 40c1 1508 cf41
00000080: 293c da40 efee 84c1 e8e3 b441 0c23 55c0
00000090: 81a5 c7c1 c7d4 6041 204f 31c1 bca0 e741
000000a0: a6f9 ad40 0209 89c1 be74 b641 1889 083d
000000b0: aed1 cfc1 cbcc 1441 40cc 2cc1 bd47 ea41
000000c0: 0d46 d440 1cc6 80c1 1255 ad41 5039 85bf
000000d0: 646c f5c1 8338 0f41 bb14 0fc1 04b9 dc41
000000e0: 9e90 9f40 d6c3 2dc1 7127 c441 d624 2bc0
000000f0: ee71 cfc1 c871 7141 47f6 fac0 82fb e841
00000100: 83e9 cf40 f48d 57c1 b5b0 c941 91f2 1ac0
00000110: e2a4 c3c1 c74c 8e41 f2cd 1cc1 db8d e441
00000120: 5ac7 ca40 1946 4dc1 040d ae41 3fbb 70bf
00000130: 34af c9c1 ba35 5941 c676 02c1 6efb d441
00000140: c6d4 af40 23c1 43c1 9703 8041 cc48 03c0
00000150: bf91 a8c1 bb7c 2a41 b4df f6c0 a563 a741
00000160: 8688 083d 723a 4bbe cdcc 4c3e 8a88 08bd
00000170: 01f8 acbe efee ee3d 79dd d2bd d646 a53e
00000180: e21a d540 f84f 6fc1 cfa6 9241 c7f9 b2bf
00000190: e9e1 d8c1 bf74 4641 338d 41c1 7ccf c541
000001a0: 7c04 ee40 ba2e 11c1 ef44 a441 c21b 383e
000001b0: 89e1 b5c1 018c 7041 efa1 9cc0 884a d541
000001c0: bb86 9240 2783 27c1 94e2 8e41 7979 cdbe
000001d0: dad0 9fc1 a062 0d41 a2ce adc0 fb95 c741
000001e0: 5dd9 dc40 40ec 1fc1 8415 5c41 a35a 3f40
000001f0: a92d bbc1 9338 1041 b05b 6ac0 613a 9341
00000200: 4b9c 7c40 a1e9 1dc1 d161 6d41 c824 033f
00000210: 3c68 95c1 8cf0 ce40 39c2 bdc0 e572 b041
00000220: 8f4a 9040 152c 28c1 7b30 6a41 d809 d93f
00000230: bdac cac1 3205 0641 60e2 99c0 fa34 a141
00000240: 60f3 d140 e073 f9c0 8731 8041 8a6c f33f
00000250: a136 a6c1 ed23 1141 7328 67c0 79e0 aa41
00000260: 0000 0000 0000 0000 0000 0000 0000 0000
00000270: 0000 0000 0000 0000 0000 0000 0000 0000
00000280: fc60 2a40 4da5 c4c0 d380 3441 63fa b2be
00000290: 666f 6ec1 615d a640 cca0 90c0 bc01 9441
000002a0: 6792 2740 c9f0 26c1 1f8c 6241 bbbb dbbf
000002b0: 7b3d b6c1 2fe3 c540 e241 b3c0 ab51 cb41
000002c0: 4917 8440 964a 2ec1 6c2c 6141 f08b e53a
000002d0: 3b0e a3c1 ce11 e440 9515 a5c0 3f64 a041
000002e0: 3dd0 c03f f384 0ec1 7e1a 2b41 d639 58c0
000002f0: 02d6 8ec1 5fa4 9b40 ab7e cec0 34d8 9b41
00000300: b88f 5440 dc1b 25c1 792f 4b41 7cd9 66c0
00000310: efa8 a6c1 c709 ab40 e28e f5c0 8487 a341
00000320: 0000 0000 0000 0000 0000 0000 0000 0000
00000330: 0000 0000 0000 0000 0000 0000 0000 0000
00000340: 9b40 0240 30db 62c1 f065 4f41 b1bd 79c0
00000350: 410c acc1 865a bb40 6b44 0dc1 38f8 bd41
00000360: bf12 3540 d097 96c1 3c17 9c41 d4ef 71c0
00000370: 98de f8c1 704b f840 73f3 66c1 1a53 e941
00000380: 3fb7 0a41 e58e 68c1 cd31 da41 8a21 423f
00000390: 7aec e9c1 39fc 5a41 ea28 04c1 d41b 1742
000003a0: f0ee 3641 98e9 67c1 bedc b441 fb21 2a40
000003b0: 2ee7 d2c1 c273 8541 5a29 0bc1 cd2d f741
000003c0: 6989 2041 c486 68c1 142f b341 5827 053f
000003d0: f670 dbc1 9abc 5c41 e997 05c1 54e2 dc41
000003e0: 9183 1041 9d2f 59c1 fb24 9341 1af5 db3f
000003f0: a96b d6c1 5ba4 4b41 e519 d7c0 d72b c941
3.5578883 -25.302422 43.22607 -5.855724 -40.742325 20.90494 -14.538098 50.36139
8.634869 -19.449568 28.286505 -4.7570233 -28.301321 17.279062 -15.438845 36.034992
3.1213791 -15.339944 22.992088 -1.4083407 -25.74946 16.597797 -9.118115 29.623669
9.232126 -18.103737 21.41524 -1.2066491 -25.934347 14.290087 -12.045524 25.878946
6.819844 -16.616667 22.611282 -3.330264 -24.955812 14.051948 -11.081818 28.953484
5.4367247 -17.129398 22.807003 0.033333868 -25.977383 9.299998 -10.799866 29.285028
6.633551 -16.096733 21.666538 -1.0408115 -30.677925 8.951297 -8.942561 27.59034
4.9864035 -10.8603115 24.519258 -2.6741233 -25.93063 15.090279 -7.842563 29.122807
6.497255 -13.472157 25.211283 -2.421055 -24.45551 17.787489 -9.80028 28.569265
6.336835 -12.829614 21.756355 -0.94035715 -25.210548 13.575617 -8.153997 26.622768
5.4947233 -12.2346525 16.001753 -2.0513182 -21.071165 10.655452 -7.7148075 20.923655
0.033333324 -0.19846514 0.2 -0.03333334 -0.33782962 0.11666667 -0.10296149 0.32280606
6.6595316 -14.957024 18.33145 -1.3982476 -27.110308 12.403502 -12.096972 24.72631
7.4380474 -9.073908 20.533659 0.17979339 -22.735125 15.034181 -4.8947673 26.661392
4.5789466 -10.46952 17.860634 -0.4013174 -19.976978 8.836578 -5.4314737 24.948233
6.9015336 -9.995178 13.755253 2.989907 -23.397295 9.013812 -3.6618462 18.403505
3.9470394 -9.869538 14.836381 0.51228 -18.675896 6.4668636 -5.929959 22.0561
4.5091014 -10.510762 14.636836 1.6956129 -25.334345 8.376268 -4.8088837 20.150867
6.560959 -7.795395 16.024183 1.9017498 -20.776674 9.071271 -3.6118438 21.359606
0.0 0.0 0.0 0.0 0.0 0.0 0.0 0.0
2.6621695 -6.1451783 11.281451 -0.34956655 -14.902197 5.198899 -4.5196285 18.500847
2.6183107 -10.433785 14.159209 -1.7166666 -22.78002 6.1839824 -5.6017923 25.414877
4.1278424 -10.893209 14.073345 0.0017513018 -20.381948 7.1271734 -5.1588845 20.048948
1.5063549 -8.907458 10.693968 -3.37853 -17.854496 4.863815 -6.4529624 19.480568
3.321272 -10.319302 12.69909 -3.6070242 -20.832487 5.3449435 -7.6736917 20.44117
0.0 0.0 0.0 0.0 0.0 0.0 0.0 0.0
2.0351932 -14.178513 12.962387 -3.9022028 -21.505983 5.8548 -8.829204 23.7462
2.8292692 -18.824127 19.511345 -3.780263 -31.108688 7.7592087 -14.434436 29.165577
8.669738 -14.534886 27.274317 0.75832427 -29.240467 13.686578 -8.259989 37.777176
11.433334 -14.49453 22.607784 2.658324 -26.36288 16.681522 -8.697596 30.897364
10.033547 -14.532902 22.397987 0.5201316 -27.430157 13.796045 -8.349587 27.610512
9.032121 -13.574124 18.393057 1.7184174 -26.802568 12.727626 -6.721911 25.146406

biases_6 f4 [84, 4]
00000000: b673 2f40 7354 ebc1 5ec4 3442 88e1 0bc1
00000010: 0000 0000 0000 0000 0000 0000 0000 0000
00000020: 2dc9 a340 e800 8dc1 7ca5 da41 d029 32c0
00000030: c1a9 dc40 a290 84c1 2b07 a841 876e 21c0
00000040: cc2d af40 4202 8ac1 0970 b541 b82f 4fc0
00000050: 1708 bf40 9e83 88c1 3554 8841 b59f 65bf
00000060: fb95 8840 4e51 97c1 a05f 8c41 7e48 70bf
00000070: e61a c540 8c39 64c1 2a92 cb41 95ef 0dbd
00000080: dd12 c440 e0a8 4bc1 cbbc b141 b915 a8bf
00000090: e44f bb40 be63 7ac1 19b4 a441 3ace 423f
000000a0: 4cb6 a440 24ca 50c1 81d3 9141 6961 84c0
000000b0: 2910 7e40 10b0 4ec1 9997 7f41 a0ad 87c0
000000c0: bc51 a440 29a7 88c1 87f2 7441 87a3 7ac0
000000d0: 975b fe40 4aae 52c1 9f3e a541 ec48 7bbf
000000e0: 6db5 bc40 0961 28c1 4025 8141 1922 a23f
000000f0: 3f93 cc40 ce48 43c1 b2e7 7541 7067 adbd
00000100: 8215 5440 b552 5bc1 8f60 4e41 44d0 18bf
00000110: cda8 5e40 57d1 6bc1 2464 5c41 0f7d 21c0
00000120: 29a6 e140 4e82 01c1 62f3 5941 f968 6740
00000130: 2245 3140 afdf d3c0 d1a4 0641 15ee 58be
00000140: 8b6d 8740 4a4d 30c1 77ee 4f41 bbec 983e
00000150: 9363 e13f e900 33c1 98ce 3b41 511a 17c0
00000160: 0e3d 8a40 1eff 1fc1 6e91 3241 2391 dbbf
00000170: 500c da3e 515e 17c1 dc35 2f41 e200 33c0
00000180: 82b4 233f 7c4b 56c1 aa44 8041 e4dd e5c0
00000190: e0f7 1a40 1772 5ac1 d87c 5041 b288 20c0
000001a0: f77a c3be a7ab 7dc1 02ee 6041 c3bb 6bc0
000001b0: 7dd8 1140 e84b 89c1 32df 8741 aedf 73c0
000001c0: 15b4 5d41 4aae acc1 5c82 0142 3734 0140
000001d0: 308f 3f41 b7c4 55c1 c3b4 ba41 1a59 423f
000001e0: eaee 0741 2095 5bc1 5ef5 af41 9d6c d33f
000001f0: ec58 eb40 19a7 33c1 62d0 8241 8187 3d40
00000200: cd01 1341 aa90 48c1 7f6d 9b41 59a9 5f3e
00000210: 4dfd d940 fbdc 59c1 3f5a 7741 ed2e 473f
00000220: 3840 1741 1ddc 20c1 5a83 a841 cfec 5840
00000230: 74ac ed40 d597 01c1 a9f0 a241 7ebc 3640
00000240: 372a b940 ac15 dcc0 0ae5 5141 ce73 eb3f
00000250: 930c 6840 43ec fbc0 34aa 3f41 d411 8c3f
00000260: 4c32 8840 72b5 1bc1 1241 2041 9c05 cd3e
00000270: 825c 0541 d70a 1ac1 f6a2 a441 dc61 2740
00000280: 0c46 8f40 9e6d c0c0 5400 4941 c335 d43f
00000290: de3e b040 bef0 08c1 7458 5841 e296 1040
000002a0: 7ba3 8340 5632 0ec1 573d 4441 cb72 a03f
000002b0: 02b9 0240 6cfc d9c0 3a70 4e41 34d6 7abf
000002c0: b448 0740 0db9 f0c0 4992 3341 6766 06c0
000002d0: 35fe 3940 7dd8 2cc1 053c 2441 cf4b 4cc0
000002e0: c8a8 f83f 9515 15c1 3d17 1e41 f350 2ec0
000002f0: ed72 183f a626 3ec1 61f2 1641 c7de 80c0
00000300: e011 d83f 3994 90c1 ca00 8441 7a10 7ec0
00000310: 9bfa 6741 17ee 2cc1 625b ca41 d7cf d83f
00000320: b38f 0041 dcef 38c1 e42c b241 2274 00bf
00000330: fe57 b540 a1f1 00c1 74cf 7441 a0fb 9d3c
00000340: 0db0 c340 a22f 0cc1 1671 7341 449f 663f
00000350: 9449 9440 6cc7 33c1 bb8a 6d41 8d6e 01c0
00000360: fee4 0b41 53a5 07c1 a49f b441 0be1 493f
00000370: c197 6d40 f33e c4c0 f707 7c41 0f11 51bf
00000380: 81fb de40 3fc0 23c1 250e 8f41 1431 a6bd
00000390: 1769 1940 d359 02c1 18b4 2041 804b dcbf
000003a0: 52ad 6740 072c 0fc1 7e1a 5b41 f648 dbbf
000003b0: f1ee ee3d 9b99 99be d13e d23e 4361 a4bd
000003c0: df79 4640 fd1a 35c1 4ce7 5b41 f7ba 50c0
000003d0: 3bec a840 3df5 71c1 439a 9d41 f0c2 b3bf
000003e0: 8a52 f03f 3471 5ec1 ca6b 6f41 c153 b3c0
000003f0: 4ef0 e43e 79f7 8ac1 9dfc 9841 8a88 f8c0
2.7414374 -29.416235 45.191765 -8.742561 0.0 0.0 0.0 0.0
5.1183076 -17.625443 27.330803 -2.783802 6.895722 -16.570621 21.0035 -2.522371
5.4743404 -17.251102 22.679705 -3.2372875 5.9697375 -17.064266 17.041117 -0.8969682
4.268308 -18.9147 17.546692 -0.93860614 6.1595335 -14.26405 25.44637 -0.03465231
6.1273026 -12.728729 22.217184 -1.3131629 5.8535023 -15.649351 20.587938 0.76095927
5.147253 -13.049351 18.228273 -4.136891 3.9697363 -12.917984 15.974511 -4.2399445
5.1349773 -17.081621 15.309211 -3.916231 7.9486804 -13.167551 20.655577 -0.98158145
5.8971467 -10.52369 16.143188 1.2666656 6.3929744 -12.205275 15.369066 -0.08466995
3.3138127 -13.707692 12.898574 -0.5969279 3.4790528 -14.738608 13.774448 -2.523258
7.051533 -8.094313 13.62192 3.615782 2.7698445 -6.621055 8.415238 -0.21184571
4.232122 -11.018869 12.995719 0.2986811 1.7608513 -11.187722 11.737938 -2.3609812
4.319953 -9.999784 11.160505 -1.7153667 0.4258752 -9.460526 10.950649 -2.796929
0.6394731 -13.393429 16.033527 -7.1833363 2.421379 -13.652854 13.030479 -2.5083432
-0.38179752 -15.854407 14.058107 -3.683335 2.2788384 -17.162064 16.983982 -3.8105273
13.856465 -21.585102 32.377304 2.018812 11.972458 -13.360526 23.338263 0.7591721
8.495829 -13.723907 21.994808 1.6517521 7.3546047 -11.228295 16.35175 2.9613955
9.18794 -12.535318 19.428465 0.21841945 6.8121705 -13.61645 15.459533 0.7780598
9.453178 -10.053739 21.064137 3.3894536 7.4273014 -8.099568 20.36751 2.8552547
5.786403 -6.8776455 13.118418 1.8394716 3.6257675 -7.8725905 11.9790535 1.0942941
4.2561398 -9.731798 10.015886 0.40043342 8.335085 -9.627646 20.57957 2.6153479
4.4773006 -6.013381 12.56258 1.6578907 5.507674 -8.558775 13.521595 2.2592092
4.113706 -8.887289 12.264976 1.2535032 2.042542 -6.812063 12.902399 -0.979831
2.1138124 -7.522589 11.223214 -2.1000001 2.9061406 -10.802854 10.264653 -3.192127
1.9426508 -9.317769 9.880673 -2.7236907 0.5955036 -11.884436 9.434175 -4.0271945
1.6880455 -18.072374 16.500385 -3.9697556 14.498683 -10.808127 25.29462 1.6938428
8.035083 -11.558559 22.27192 -0.50177205 5.666991 -8.058991 15.300648 0.019285023
6.1152406 -8.761629 15.215109 0.9008677 4.6339817 -11.236187 14.84637 -2.0223725
8.743406 -8.477862 22.57795 0.78859013 3.7123873 -6.132684 15.751945 -0.81666654
6.968201 -10.234435 17.881907 -0.0811483 2.3970392 -8.14693 10.043968 -1.7210541
3.6199536 -8.948249 13.693968 -1.7131641 0.11666668 -0.30000004 0.4106355 -0.08026364
3.1011884 -11.319089 13.743969 -3.2614114 5.2788367 -15.122373 19.700323 -1.4043865
1.8775189 -13.9026375 14.963816 -5.603974 0.44714588 -17.370836 19.123346 -7.7666674
