process/diagnose/model/fault_detection.pt (torch, 47493 bytes, 15 tensors)

kernels f4 [84, 1, 9]
000000 00 00 00 40 00 00 00 40 00 00 00 40 00 00 80 bf
       2.0 2.0 2.0 -1.0
000010 00 00 80 bf 00 00 80 bf 00 00 80 bf 00 00 80 bf
       -1.0 -1.0 -1.0 -1.0
000020 00 00 80 bf 00 00 00 40 00 00 00 40 00 00 80 bf
       -1.0 2.0 2.0 -1.0
000030 00 00 00 40 00 00 80 bf 00 00 80 bf 00 00 80 bf
       2.0 -1.0 -1.0 -1.0
000040 00 00 80 bf 00 00 80 bf 00 00 00 40 00 00 00 40
       -1.0 -1.0 2.0 2.0
000050 00 00 80 bf 00 00 80 bf 00 00 00 40 00 00 80 bf
       -1.0 -1.0 2.0 -1.0
000060 00 00 80 bf 00 00 80 bf 00 00 80 bf 00 00 00 40
       -1.0 -1.0 -1.0 2.0
000070 00 00 00 40 00 00 80 bf 00 00 80 bf 00 00 80 bf
       2.0 -1.0 -1.0 -1.0
000080 00 00 00 40 00 00 80 bf 00 00 80 bf 00 00 80 bf
       2.0 -1.0 -1.0 -1.0
000090 00 00 00 40 00 00 00 40 00 00 80 bf 00 00 80 bf
       2.0 2.0 -1.0 -1.0
0000a0 00 00 80 bf 00 00 80 bf 00 00 00 40 00 00 80 bf
       -1.0 -1.0 2.0 -1.0
0000b0 00 00 80 bf 00 00 00 40 00 00 00 40 00 00 80 bf
       -1.0 2.0 2.0 -1.0
0000c0 00 00 80 bf 00 00 80 bf 00 00 80 bf 00 00 80 bf
       -1.0 -1.0 -1.0 -1.0
0000d0 00 00 00 40 00 00 80 bf 00 00 00 40 00 00 00 40
       2.0 -1.0 2.0 2.0
0000e0 00 00 80 bf 00 00 80 bf 00 00 80 bf 00 00 80 bf
       -1.0 -1.0 -1.0 -1.0
0000f0 00 00 80 bf 00 00 80 bf 00 00 00 40 00 00 00 40
       -1.0 -1.0 2.0 2.0
000100 00 00 80 bf 00 00 00 40 00 00 00 40 00 00 80 bf
       -1.0 2.0 2.0 -1.0
000110 00 00 80 bf 00 00 80 bf 00 00 80 bf 00 00 80 bf
       -1.0 -1.0 -1.0 -1.0
000120 00 00 00 40 00 00 80 bf 00 00 00 40 00 00 80 bf
       2.0 -1.0 2.0 -1.0
000130 00 00 00 40 00 00 80 bf 00 00 80 bf 00 00 80 bf
       2.0 -1.0 -1.0 -1.0
000140 00 00 80 bf 00 00 00 40 00 00 80 bf 00 00 00 40
       -1.0 2.0 -1.0 2.0
000150 00 00 80 bf 00 00 80 bf 00 00 00 40 00 00 80 bf
       -1.0 -1.0 2.0 -1.0
000160 00 00 80 bf 00 00 80 bf 00 00 00 40 00 00 80 bf
       -1.0 -1.0 2.0 -1.0
000170 00 00 00 40 00 00 80 bf 00 00 80 bf 00 00 80 bf
       2.0 -1.0 -1.0 -1.0
000180 00 00 00 40 00 00 80 bf 00 00 80 bf 00 00 00 40
       2.0 -1.0 -1.0 2.0
000190 00 00 80 bf 00 00 00 40 00 00 80 bf 00 00 80 bf
       -1.0 2.0 -1.0 -1.0
0001a0 00 00 80 bf 00 00 80 bf 00 00 00 40 00 00 80 bf
       -1.0 -1.0 2.0 -1.0
0001b0 00 00 00 40 00 00 80 bf 00 00 00 40 00 00 80 bf
       2.0 -1.0 2.0 -1.0
0001c0 00 00 80 bf 00 00 80 bf 00 00 80 bf 00 00 80 bf
       -1.0 -1.0 -1.0 -1.0
0001d0 00 00 00 40 00 00 00 40 00 00 80 bf 00 00 80 bf
       2.0 2.0 -1.0 -1.0
0001e0 00 00 00 40 00 00 00 40 00 00 80 bf 00 00 80 bf
       2.0 2.0 -1.0 -1.0
0001f0 00 00 80 bf 00 00 80 bf 00 00 00 40 00 00 80 bf
       -1.0 -1.0 2.0 -1.0
000200 00 00 80 bf 00 00 00 40 00 00 80 bf 00 00 00 40
       -1.0 2.0 -1.0 2.0
000210 00 00 80 bf 00 00 80 bf 00 00 80 bf 00 00 00 40
       -1.0 -1.0 -1.0 2.0
000220 00 00 80 bf 00 00 80 bf 00 00 00 40 00 00 80 bf
       -1.0 -1.0 2.0 -1.0
000230 00 00 80 bf 00 00 00 40 00 00 80 bf 00 00 80 bf
       -1.0 2.0 -1.0 -1.0
000240 00 00 00 40 00 00 80 bf 00 00 80 bf 00 00 00 40
       2.0 -1.0 -1.0 2.0
000250 00 00 80 bf 00 00 80 bf 00 00 80 bf 00 00 00 40
       -1.0 -1.0 -1.0 2.0
000260 00 00 80 bf 00 00 00 40 00 00 80 bf 00 00 80 bf
       -1.0 2.0 -1.0 -1.0
000270 00 00 00 40 00 00 80 bf 00 00 80 bf 00 00 80 bf
       2.0 -1.0 -1.0 -1.0
000280 00 00 80 bf 00 00 00 40 00 00 00 40 00 00 80 bf
       -1.0 2.0 2.0 -1.0
000290 00 00 80 bf 00 00 80 bf 00 00 00 40 00 00 00 40
       -1.0 -1.0 2.0 2.0
0002a0 00 00 80 bf 00 00 80 bf 00 00 80 bf 00 00 00 40
       -1.0 -1.0 -1.0 2.0
0002b0 00 00 80 bf 00 00 80 bf 00 00 80 bf 00 00 00 40
       -1.0 -1.0 -1.0 2.0
0002c0 00 00 80 bf 00 00 00 40 00 00 80 bf 00 00 80 bf
       -1.0 2.0 -1.0 -1.0
0002d0 00 00 00 40 00 00 80 bf 00 00 80 bf 00 00 80 bf
       2.0 -1.0 -1.0 -1.0
0002e0 00 00 00 40 00 00 80 bf 00 00 80 bf 00 00 00 40
       2.0 -1.0 -1.0 2.0
0002f0 00 00 80 bf 00 00 00 40 00 00 80 bf 00 00 80 bf
       -1.0 2.0 -1.0 -1.0
000300 00 00 80 bf 00 00 00 40 00 00 80 bf 00 00 80 bf
       -1.0 2.0 -1.0 -1.0
000310 00 00 80 bf 00 00 00 40 00 00 00 40 00 00 80 bf
       -1.0 2.0 2.0 -1.0
000320 00 00 80 bf 00 00 80 bf 00 00 80 bf 00 00 00 40
       -1.0 -1.0 -1.0 2.0
000330 00 00 00 40 00 00 80 bf 00 00 80 bf 00 00 00 40
       2.0 -1.0 -1.0 2.0
000340 00 00 80 bf 00 00 80 bf 00 00 80 bf 00 00 80 bf
       -1.0 -1.0 -1.0 -1.0
000350 00 00 00 40 00 00 80 bf 00 00 00 40 00 00 80 bf
       2.0 -1.0 2.0 -1.0
000360 00 00 00 40 00 00 80 bf 00 00 80 bf 00 00 80 bf
       2.0 -1.0 -1.0 -1.0
000370 00 00 80 bf 00 00 00 40 00 00 80 bf 00 00 80 bf
       -1.0 2.0 -1.0 -1.0
000380 00 00 00 40 00 00 00 40 00 00 80 bf 00 00 80 bf
       2.0 2.0 -1.0 -1.0
000390 00 00 80 bf 00 00 80 bf 00 00 80 bf 00 00 00 40
       -1.0 -1.0 -1.0 2.0
0003a0 00 00 00 40 00 00 80 bf 00 00 00 40 00 00 80 bf
       2.0 -1.0 2.0 -1.0
0003b0 00 00 80 bf 00 00 80 bf 00 00 80 bf 00 00 80 bf
       -1.0 -1.0 -1.0 -1.0
0003c0 00 00 00 40 00 00 80 bf 00 00 00 40 00 00 00 40
       2.0 -1.0 2.0 2.0
0003d0 00 00 80 bf 00 00 80 bf 00 00 80 bf 00 00 80 bf
       -1.0 -1.0 -1.0 -1.0
0003e0 00 00 80 bf 00 00 80 bf 00 00 00 40 00 00 00 40
       -1.0 -1.0 2.0 2.0
0003f0 00 00 80 bf 00 00 00 40 00 00 00 40 00 00 00 40
       -1.0 2.0 2.0 2.0

biases_0 f4 [84, 30]
000000 15 2b 2e 40 03 b1 1f c1 a2 bf 7e 41 a4 32 28 bf
       2.7213795 -9.980716 15.921785 -0.6570227
000010 8c f5 93 c1 d5 85 cf 40 44 cb a5 c0 40 53 e9 41
       -18.494896 6.485087 -5.1810627 29.16565
000020 89 32 d6 3f 1a 1b 57 c1 43 9a 30 41 7b 25 83 bf
       1.6734172 -13.444117 11.037662 -1.0245813
000030 7c fa e0 c1 d8 ca 8e 40 3e c1 f6 c0 5b b9 a1 41
       -28.122307 4.462261 -7.711089 20.215506
000040 e7 6e ae 3d 57 9a 7d c1 60 e6 01 41 34 a7 46 c0
       0.08517247 -15.850181 8.118744 -3.1039553
000050 3f 8e 00 42 4f b5 0a 40 48 b6 30 c1 46 e6 5b 41
       32.138912 2.1673162 -11.044502 13.743719
000060 4d 3e 54 bf 7f e2 a8 c1 ef 29 af 40 fd 64 cc c0
       -0.82907563 -21.110594 5.473869 -6.3873277
000070 5f f7 c8 41 85 3e 4e 3f fa f6 17 40 01 b1 df c0
       25.120787 0.8056415 2.3744493 -6.990357
000080 c5 e2 77 41 ea e3 1f 3e 7e f9 8d c1 02 00 b8 40
       15.492864 0.15614286 -17.746822 5.750001
000090 1c 73 10 c0 86 b4 a3 41 07 8a 7e 3f c4 13 3f c1
       -2.2570257 20.463146 0.99429363 -11.942326
0000a0 03 50 2f 41 42 fe 09 bf 2a 28 c3 c1 c3 2e 84 40
       10.957034 -0.5390359 -24.394611 4.130708
0000b0 64 ee b6 c0 ae 25 82 41 05 25 b9 3e 9e 75 64 c1
       -5.7166004 16.268398 0.36161056 -14.278715
0000c0 97 21 df 40 db 95 d2 bf eb 7f e8 41 cc 70 a1 3f
       6.9728503 -1.6451982 29.06246 1.2612548
0000d0 bc 84 01 c1 fa 75 57 41 9b 48 0f be 6f 86 97 c1
       -8.094906 13.466303 -0.1399254 -18.940641
0000e0 6a b3 b5 40 7c 86 41 c0 a7 d8 8f 41 d8 df 35 3f
       5.678151 -3.0238333 17.980787 0.71044683
0000f0 35 44 5e 40 6a 21 d5 c0 b2 b2 47 41 d8 69 3e 3e
       3.472913 -6.660329 12.481127 0.18595064
000100 b6 8b 60 c1 d6 83 b9 40 c3 c4 43 c0 21 71 92 41
       -14.034109 5.7973433 -3.0588844 18.305239
000110 d2 53 2e 40 df 36 09 c1 43 42 13 41 9b 24 a8 bf
       2.723866 -8.575896 9.203677 -1.3136171
000120 b0 97 af c1 80 7f 88 40 ab aa 9a c0 98 c1 7c 41
       -21.949066 4.265564 -4.8333335 15.797264
000130 00 00 a0 3f b3 90 53 c1 7f dd df 40 27 c2 0d c0
       1.25 -13.222827 6.995788 -2.214975
000140 9e 11 ab 41 9a ef 4d 40 d7 f9 e5 c0 5b c7 3e 41
       21.383602 3.217749 -7.186748 11.923671
000150 94 3f 4b bc 91 06 85 c1 c5 9c a8 40 1d 28 5c c0
       -0.012405295 -16.628206 5.269137 -3.4399483
000160 9d 35 89 41 f1 da ef 3f ac 59 fc 3f 03 73 bc c0
       17.151178 1.8738691 1.9714866 -5.8890395
000170 2e 25 24 41 b5 3c a1 be cc 48 4f c1 c3 09 9b 40
       10.259077 -0.31491628 -12.955273 4.8449416
000180 b0 0c aa bf 8a ab 83 41 d7 e2 3a 3f 55 c9 f8 c0
       -1.3285122 16.45876 0.7300238 -7.7745767
000190 70 2f ea 40 9e 99 19 bf e5 85 89 c1 66 00 7b 40
       7.3182907 -0.60000026 -17.190378 3.9218993
0001a0 69 2b 7e c0 22 77 3f 41 42 80 39 bd f3 61 37 c1
       -3.9713995 11.966585 -0.04528833 -11.461413
0001b0 00 55 ad 40 7a 6f 84 bf e3 1e 9d 41 55 f7 cc 3f
       5.416626 -1.034652 19.640081 1.601298
0001c0 8e 9a ca c0 b1 33 0a 41 62 4f d8 be 31 29 69 c1
       -6.3313665 8.63762 -0.42248064 -14.5725565
0001d0 3a fd 8d 40 a8 4d 26 c0 f0 b9 7a 41 dc bc 87 3e
       4.4371614 -2.5984898 15.670395 0.26511276
0001e0 0c e5 39 40 5d 55 a3 c0 ac b6 3f 41 47 ad a1 3d
       2.904605 -5.1041703 11.982098 0.07894378
0001f0 34 4e 67 c1 38 c8 9f 40 e0 e9 52 c0 e7 f6 8d 41
       -14.456593 4.993191 -3.2955246 17.745558
000200 40 b7 d7 3f 24 48 08 c1 b2 44 fa 40 ab c0 07 bf
       1.6852798 -8.517612 7.8208857 -0.53028363
000210 3c 3f af c1 24 21 53 40 59 83 8a c0 66 8e 59 41
       -21.905876 3.2988977 -4.3285336 13.597265
000220 43 2b f1 3e d1 d6 3b c1 d8 43 bd 40 40 9f 03 c0
       0.4710332 -11.739945 5.9145317 -2.0565948
000230 b6 fd b0 41 7f 94 26 40 ba 84 ce c0 7b bc 26 41
       22.123882 2.6028135 -6.453702 10.421016
000240 de 2a 38 bd 37 c3 84 c1 15 ed 92 40 78 d9 76 c0
       -0.044962756 -16.59532 4.5914407 -3.8570232
000250 88 1f 71 41 cb b6 6b 3f 75 e1 43 40 77 f3 95 c0
       15.070198 0.92075795 3.0606358 -4.68597
000260 bc ea 27 41 18 81 65 be a2 6d 7f c1 d9 d2 af 40
       10.494808 -0.22412527 -15.964266 5.4944882
000270 a6 ab 29 c0 16 77 7b 41 b3 79 a8 3f b0 85 f6 c0
       -2.6511016 15.716574 1.316214 -7.7038193
000280 d1 ef 06 41 cc f9 12 bf 37 dd ca c1 70 c6 67 40
       8.433549 -0.5741241 -25.358015 3.6214867
000290 a0 76 6a c0 25 97 3f 41 83 cd d8 3d c2 5c 59 c1
       -3.6634903 11.9744005 0.10586073 -13.585146
0002a0 ec 21 cc 40 08 48 ea bf 17 02 bd 41 ec 9a 27 40
       6.379141 -1.8303232 23.62602 2.6188307
0002b0 da 8b c8 c0 ae 63 15 41 3f 82 a5 be ee b8 8d c1
       -6.2670717 9.336836 -0.32325932 -17.715298
0002c0 f8 61 91 40 4a 70 3c c0 0d 0c 50 41 20 ac 5c 3f
       4.543209 -2.9443536 13.002942 0.8620014
0002d0 23 e4 06 40 e7 bb 1a c1 c0 a4 25 41 21 ca d5 bd
       2.1076744 -9.670875 10.352722 -0.10438944
0002e0 e2 89 8b c1 11 34 a0 40 56 55 45 c0 52 81 ac 41
       -17.442326 5.006356 -3.0833335 21.563145
0002f0 dc aa 6a 3f 4f b7 33 c1 13 82 ff 40 4a fd 68 bf
       0.9166696 -11.232253 7.984628 -0.9101149
000300 ec 4f e8 c1 ab 44 4f 40 ef 85 71 c0 f9 ce 64 41
       -29.039024 3.2385662 -3.7737997 14.30053
000310 aa 6d 1a 3d 0b d4 71 c1 39 66 bb 40 f3 d6 25 c0
       0.03770224 -15.114268 5.8562284 -2.5912445
000320 4e 05 f1 41 9b 99 f9 3f 01 09 29 c1 56 9b 0f 41
       30.12759 1.9500002 -10.564698 8.975424
000330 1f e2 c2 be 44 f9 8f c1 70 0c 8b 40 07 dd 57 c0
       -0.38063142 -17.996712 4.3452682 -3.3728654
000340 06 02 a8 41 cf 66 4c 3f 27 d2 82 40 c9 74 cc c0
       21.000988 0.79844373 4.0881534 -6.389256
000350 6f 5c 50 41 9d a8 d4 3e 09 35 84 c1 ad ef c1 40
       13.022567 0.41534892 -16.525896 6.0605073
000360 56 2d 31 c0 7d d7 96 41 eb 33 ae 3f ad 4c 33 c1
       -2.768392 18.855219 1.3609594 -11.20622
000370 fd 05 17 41 e9 4d b2 be af c0 cf c1 70 62 a2 40
       9.438962 -0.34825066 -25.969084 5.0745163
000380 d7 c3 a5 c0 e1 22 65 41 fa 23 30 3f 4e 58 52 c1
       -5.180156 14.321015 0.68804896 -13.146559
000390 77 65 e7 40 8e 58 b6 bf 5f b5 e1 41 05 73 53 40
       7.231136 -1.4245775 28.21356 3.3038952
0003a0 93 3e ff c0 45 8a 46 41 50 a1 44 3c 0a c7 8e c1
       -7.9763885 12.408757 0.0120013505 -17.847187
0003b0 c9 3d ba 40 b0 0d 81 c0 18 18 86 41 b3 22 88 3f
       5.820042 -4.032921 16.761765 1.0635589
0003c0 e4 4f 9b 40 48 f5 b3 c0 cd 84 28 41 5f ce 78 3e
       4.8535023 -5.6236916 10.532422 0.24297474
0003d0 aa 03 62 c1 5e 3a c7 40 c0 2d ed bf 8d e0 82 41
       -14.125895 6.225875 -1.8529587 16.359644
0003e0 87 5a 13 40 f0 6a d5 c0 9b ef fd 40 99 dc bc be
       2.3024004 -6.669304 7.9354987 -0.36887053
0003f0 fb 25 a2 c1 c4 c3 ac 40 79 0e 8a c0 11 19 60 41
       -20.268545 5.398897 -4.3142667 14.00612

biases_1 f4 [84, 19]
000000 2f 33 c8 40 68 94 32 c1 a4 28 90 41 7a 6a 2d 40
       6.256248 -11.161232 18.019844 2.7096238
000010 19 69 ea c1 75 e1 23 41 c9 ac b1 bf 1d 4a e3 41
       -29.301317 10.242543 -1.3880855 28.411188
000020 a2 c4 a9 40 0e 17 90 c1 e5 7d 60 41 94 da 1c 3f
       5.305253 -18.011257 14.030736 0.61271024
000030 bf e7 11 c2 6a b1 e2 40 0c 53 f3 c0 f1 c7 a3 41
       -36.476315 7.084157 -7.6038876 20.472628
000040 f7 dd 6e 40 9e c3 b4 c1 6f 19 38 41 65 c7 a8 40
       3.7322977 -22.595516 11.506209 5.27434
000050 ec e6 cb c0 40 f0 72 41 24 b2 38 3f 04 89 a0 c1
       -6.3719387 15.183655 0.7214682 -20.066902
000060 30 4b fc 40 9b 4b 48 c0 f2 ca ba 41 0a 82 96 40
       7.884178 -3.1296146 23.349094 4.703374
000070 f9 49 39 c1 90 20 35 41 d7 98 9e bf c5 1e d8 c1
       -11.58056 11.32045 -1.2390393 -27.015024
000080 e3 db bf 40 73 dc 90 c0 2f fe 95 41 93 6b f2 3f
       5.9955916 -4.5269103 18.749113 1.8939079
000090 3e 6c 90 c1 0a a2 14 41 0c e5 79 40 19 3d b8 c0
       -18.052853 9.28956 3.904605 -5.757458
0000a0 8b b8 57 41 9c 7d 64 3f 21 a5 96 c1 f1 a7 d9 40
       13.482554 0.89254165 -18.83063 6.8017507
0000b0 c7 81 28 c0 66 64 a4 41 c4 dc 3c 40 44 82 2b c1
       -2.632921 20.549023 2.9509745 -10.719303
0000c0 cc 78 27 41 2a 7e a3 be c8 b5 d6 c1 98 e7 a2 40
       10.466991 -0.31932193 -26.83876 5.0907707
0000d0 8c 9e 84 c0 a3 87 79 41 96 91 05 40 e8 48 5a c1
       -4.144354 15.595614 2.0870109 -13.642799
0000e0 72 77 f4 40 d5 ef 5b 40 06 85 f6 c0 13 41 4c 41
       7.6395807 3.4365132 -7.703738 12.765887
0000f0 bc 83 d1 3e 63 36 9b c1 25 fe ab 40 77 d0 6e c0
       0.40920818 -19.401556 5.3747735 -3.7314737
000100 86 1b b3 41 01 0d 23 40 ce 02 35 c1 6d e1 2d 41
       22.38844 2.5476687 -11.313185 10.867536
000110 14 54 b4 be ea 5f cf c1 e4 33 80 40 4e b6 ba c0
       -0.35220397 -25.921833 4.0063343 -5.834754
000120 ef 3c 82 41 59 de 61 3f 60 17 65 c1 f8 54 e7 40
       16.279753 0.882299 -14.318207 7.229122
000130 ee a7 51 40 df 85 2c c1 06 d8 59 41 b4 a0 b1 be
       3.2758746 -10.782683 13.61524 -0.3469292
000140 d9 76 85 c1 e4 b9 9f 40 bc 47 44 c0 08 5d 98 41
       -16.683031 4.9914417 -3.0668783 19.045425
000150 f0 5a 08 40 1a a7 43 c1 fa 57 1d 41 69 af 61 bf
       2.1305504 -12.228296 9.833979 -0.8815828
000160 6a 92 af c1 9e 95 7d 40 52 c9 e0 c0 66 f2 7a 41
       -21.946491 3.962257 -7.024575 15.684179
000170 90 27 8f 3b 21 cb 5f c1 86 54 d8 40 98 03 66 40
       0.00436873 -13.987092 6.760318 3.5939693
000180 8d 53 1e c1 92 37 55 41 80 70 af bf e5 d4 9e c1
       -9.895398 13.326067 -1.3706207 -19.853952
000190 06 b9 d2 40 0d e7 ba c0 20 d2 b8 41 03 2b a8 3f
       6.585086 -5.8407044 23.1026 1.3138126
0001a0 6d 55 4c c1 98 18 2d 41 e7 ab 1d c0 10 a1 cc c1
       -12.770856 10.818504 -2.463617 -25.578644
0001b0 25 c9 8a 40 37 b2 04 c1 7c 75 7d 41 b1 e6 28 bf
       4.337054 -8.2935095 15.841183 -0.6597701
0001c0 80 39 7a c1 b7 ee f8 40 f5 a7 d1 3f 5c 3b 0a c1
       -15.639038 7.77914 1.6379381 -8.639492
0001d0 07 1a 34 41 20 7b 43 bf ad ad 6d c1 ae 86 9c 40
       11.256354 -0.7635975 -14.854901 4.8914404
0001e0 92 43 7f c0 5d 26 a7 41 23 28 7a 3e 93 1e 37 c1
       -3.9884992 20.893732 0.24429373 -11.444964
0001f0 a7 06 04 41 bb a3 e2 bf 1a 1d a5 c1 70 62 4a 40
       8.251624 -1.7706217 -20.63921 3.1622581
000200 bf fb c0 c0 f1 63 4c 41 2e db 06 bf 8b 0d 50 c1
       -6.0307307 12.7744 -0.5267819 -13.003306
000210 a2 bb bc 40 47 67 b6 40 4a 4d d4 c0 be c8 5f 41
       5.8979044 5.700107 -6.6344347 13.986509
000220 de ed 83 3f 3e 9f ae c1 53 be 16 41 43 ac 2d c0
       1.0306966 -21.827755 9.421466 -2.713639
000230 bd 7d be 41 79 65 88 40 7c 5a 46 c1 e3 00 44 41
       23.811396 4.262387 -12.397091 12.2502165
000240 05 08 0d bf 49 12 f2 c1 1a b7 e2 40 dc 2e aa c0
       -0.5509036 -30.258928 7.0848513 -5.31822
000250 1b c8 91 41 67 6f 33 40 44 d6 8d c1 9c 3b 20 41
       18.222708 2.8036745 -17.729622 10.014553
000260 8a 7f 8e 40 f0 cb cf c0 bd fd 81 41 b7 07 23 3f
       4.4530687 -6.4936447 16.248896 0.63683647
000270 c1 44 96 c1 cf 34 cb 40 e4 98 24 c0 f0 db af 41
       -18.783571 6.3501964 -2.5718317 21.982391
000280 44 02 41 40 55 0f 1f c1 23 7a 35 41 e3 0a 24 bf
       3.0157633 -9.941243 11.342319 -0.6407911
000290 78 dc df c1 d9 21 a8 40 4a ce 83 c0 66 ea 8b 41
       -27.98265 5.254132 -4.118932 17.489452
0002a0 b8 2c 0c 40 29 b1 70 c1 77 cc fc 40 8c b4 84 40
       2.1902294 -15.043252 7.899959 4.1470394
0002b0 b1 75 a7 c0 37 51 43 41 50 39 0f 3b 46 b0 70 c1
       -5.2331166 12.207328 0.002185423 -15.0430355
0002c0 0f 7a ce 40 ae 67 1f c0 c6 85 83 41 98 61 1d 40
       6.4523997 -2.490703 16.44032 2.4590816
0002d0 ef 09 cb c0 d6 e5 21 41 70 8d 94 bf f8 4b bc c1
       -6.3449626 10.118612 -1.1605663 -23.537094
0002e0 23 6f a4 40 4e dd 8d c0 71 a1 54 41 49 b2 8b 3f
       5.1385665 -4.4332647 13.289414 1.0913783
0002f0 d7 4e 2c c1 da ff e2 40 85 27 48 40 d8 02 ab c0
       -10.769248 7.093732 3.127412 -5.344097
000300 4a 1c 0e 41 e7 f0 6f 3f ef e5 8c c1 ee e4 af 40
       8.8819065 0.9372696 -17.612272 5.4966955
000310 18 d6 ae bf c4 31 64 41 47 ad 01 40 e2 16 11 c1
       -1.3659086 14.26215 2.026201 -9.068087
000320 98 99 01 41 d0 90 a2 3d ea 22 c5 c1 e1 8d 7e 40
       8.099998 0.07937777 -24.642048 3.9774096
000330 23 b9 14 c0 b7 96 2c 41 c0 05 b1 3f 29 43 58 c1
       -2.3237998 10.786796 1.382988 -13.5163965
000340 28 33 c2 40 bb a0 4f 40 8d 0d bf c0 22 99 12 41
       6.0687447 3.2441852 -5.970404 9.162386
000350 80 d9 50 b5 b3 b4 60 c1 ab 86 94 40 27 84 61 c0
       -7.780254e-07 -14.044116 4.641439 -3.523691
000360 65 98 66 41 48 bd d1 3f 98 38 d7 c0 66 e9 e5 40
       14.412206 1.6385889 -6.7256584 7.184741
000370 6d 93 8c bf 0d 44 ab c1 2a d2 72 40 e0 a2 95 c0
       -1.0982491 -21.408228 3.7940774 -4.676132
000380 7b 58 35 41 2f 8f 40 3e ee 80 42 c1 70 10 b7 40
       11.334102 0.1880462 -12.156477 5.7207565
000390 d7 50 5c 40 29 8c ec c0 51 59 2d 41 80 d0 ed be
       3.442434 -7.3921094 10.834306 -0.46448135
0003a0 4b 16 7c c1 d3 1b ab 40 71 9b 8a c0 8a 0c 86 41
       -15.755443 5.3471465 -4.331475 16.756123
0003b0 e8 a2 04 40 e6 df 2c c1 62 c2 13 41 98 54 da bf
       2.072443 -10.804663 9.234957 -1.7057066
0003c0 df f0 aa c1 4d f3 85 40 ce d7 c2 c0 3c 12 43 41
       -21.367613 4.18595 -6.0888433 12.191952
0003d0 77 1c f5 3e 16 09 55 c1 c7 a9 f1 40 0b 72 90 40
       0.4787328 -13.314718 7.551975 4.5139213
0003e0 ea 00 f3 c0 49 1c 72 41 04 f3 05 3f 9b ad 83 c1
       -7.5938616 15.131906 0.5232394 -16.459768
0003f0 96 26 d5 40 e2 9a 52 c0 b6 36 b7 41 1b 04 4d 40
       6.66096 -3.2907033 22.901714 3.2033756

biases_2 f4 [84, 12]
000000 3f 44 19 41 98 53 3f c1 77 cd 9a 41 b0 2d 8d 40
       9.579162 -11.957909 19.350325 4.411827
000010 4f ee f0 c1 88 7e 49 41 91 93 3e c0 42 ea eb 41
       -30.116362 12.593391 -2.9777567 29.489384
000020 47 6d fd 40 bd 17 ac c1 94 22 88 41 5c ca 06 40
       7.9195895 -21.511591 17.016884 2.106101
000030 bf b2 a9 40 e1 7c 2a c1 09 3b a1 41 a0 7f 2c bc
       5.3030696 -10.655488 20.153826 -0.010528475
000040 88 e0 ba c1 21 22 12 41 d4 7d b4 c0 67 87 ed 41
       -23.359634 9.133332 -5.64036 29.691114
000050 8f 40 2c 40 46 57 65 c1 9f 68 7a 41 b1 1b 35 bf
       2.6914403 -14.333807 15.650542 -0.7074538
000060 70 16 e2 40 c0 02 0f c1 ec 23 87 41 02 cb 16 40
       7.065239 -8.938171 16.89254 2.3561406
000070 23 dc c3 c1 dd 58 1e 41 94 bd a4 c0 18 43 e3 41
       -24.482489 9.896695 -5.148142 28.40776
000080 5f 64 97 40 c5 aa 69 c1 14 38 4f 41 83 50 5e 3f
       4.7310023 -14.604192 12.951191 0.868416
000090 a7 1d 99 40 36 7a 2b c1 65 42 7c 41 64 4a 31 3f
       4.7848697 -10.717337 15.76621 0.69254136
0000a0 13 e7 a1 c1 7f a2 ff 40 68 ec e0 c0 57 5d b0 41
       -20.23783 7.988586 -7.028858 22.045576
0000b0 de 6a 69 40 78 eb 4e c1 7d 44 4f 41 2d 64 95 bf
       3.6471477 -12.9324875 12.954221 -1.1671196
0000c0 f3 dc d2 40 73 f3 3e c1 2b 37 73 41 46 4c 32 3f
       6.5894713 -11.934436 15.200969 0.69647634
0000d0 a6 9d b6 c1 7b 30 06 41 b8 22 b6 c0 c2 1b a5 41
       -22.826977 8.386836 -5.691738 20.638554
0000e0 5e fb 81 40 33 10 68 c1 e2 87 47 41 41 ba 45 bf
       4.0619345 -14.503955 12.4706745 -0.77237326
0000f0 c8 50 9e 40 f9 cb 15 c1 89 db 36 41 7e 2e 9c 3f
       4.947361 -9.362298 11.428597 1.2201688
000100 00 3e a9 c1 2d 4d ea 40 87 80 6f c0 d1 2c 96 41
       -21.155273 7.321921 -3.7422197 18.771883
000110 f2 ca 50 40 ce e7 48 c1 67 39 1f 41 c4 49 cf be
       3.2623868 -12.556593 9.951514 -0.40485966
000120 fd 68 4d 40 d5 24 18 c1 87 bd 52 41 ad 67 a6 be
       3.209533 -9.508992 13.171271 -0.32500973
000130 89 be ba c1 4e 29 ce 40 2e 83 ca c0 8f 97 bb 41
       -23.343035 6.442542 -6.328513 23.449003
000140 ee c0 e9 3f d7 f1 62 c1 4e 8a 10 41 da f7 f6 bf
       1.8262002 -14.184043 9.033766 -1.9294388
000150 6f 09 0a 41 4d 3b 39 c1 d5 c5 a5 41 ee 82 0e 40
       8.627303 -11.576978 20.721598 2.2267413
000160 68 9c e4 c1 48 20 5e 41 fe 59 ce c0 36 5e dd 41
       -28.57637 13.882881 -6.4484854 27.671001
000170 27 4b db 40 01 d5 81 c1 be 0b 90 41 db ac 9f bf
       6.852924 -16.229006 18.005733 -1.2474626
000180 9c 7a 09 41 d9 ba 2b c1 d3 c2 90 41 a9 06 08 40
       8.592434 -10.733117 18.095129 2.1254065
000190 72 71 a5 c1 ae 63 41 41 87 88 b8 c0 88 df bd 41
       -20.680393 12.086836 -5.766666 23.734146
0001a0 5a 43 de 40 ef 8d 50 c1 33 8b 6c 41 60 c9 9a bf
       6.9457216 -13.034652 14.783984 -1.2092705
0001b0 84 fb a6 40 e1 dd 24 c1 6e 80 56 41 7f b7 8f 3e
       5.2182026 -10.30417 13.406355 0.28069684
0001c0 24 97 88 c1 45 44 18 41 a6 fa d9 c0 c7 47 94 41
       -17.0738 9.516667 -6.8118467 18.535048
0001d0 28 a5 75 40 cf 53 55 c1 96 45 40 41 02 37 5e bf
       3.8382053 -13.332961 12.016989 -0.86802685
0001e0 cd 3e 72 40 cf a9 fd c0 b9 9c 3c 41 e0 dd 1d 3f
       3.785083 -7.9269786 11.788262 0.6166668
0001f0 39 df 78 c1 09 08 f1 40 b6 2c 1d c0 70 9a 7c 41
       -15.554498 7.532231 -2.455854 15.787704
000200 ff ff ff 3f 9b 0d 39 c1 f6 36 1a 41 96 be 5a be
       1.9999999 -11.565822 9.638418 -0.21361765
000210 25 19 88 40 fe 08 fa c0 48 c8 3c 41 9d 50 9e 3e
       4.2530694 -7.8135977 11.798897 0.30920878
000220 9a b4 69 c1 dd dd cd 40 29 2b 8a c0 17 60 85 41
       -14.606592 6.433333 -4.3177686 16.671919
000230 f8 19 f7 3f 77 6f 34 c1 4f de 21 41 da ad 6b bf
       1.93048 -11.277213 10.116775 -0.9206215
000240 2e c0 3e 40 7b ac 2c c1 0e ce 5b 41 3e f7 31 bf
       2.9804797 -10.7921095 13.737806 -0.69517887
000250 ab e8 8f c1 e0 a2 d4 40 4f d2 d7 c0 f6 3d a5 41
       -17.988607 6.644882 -6.7444224 20.655254
000260 71 d9 59 3f 7a c8 73 c1 3e cd 2c 41 17 3e 27 c0
       0.85097414 -15.236444 10.800108 -2.6131647
000270 dd 12 94 40 8a 1e ec c0 78 53 4d 41 4b b6 c9 3f
       4.6273026 -7.378728 12.832878 1.5758756
000280 ce 1d 7d c1 93 38 04 41 95 f4 8e c0 96 1c a0 41
       -15.819777 8.263812 -4.467356 20.013958
000290 5c 1d 49 40 4e da 0a c1 9a 6e 2d 41 d8 b2 c4 3d
       3.142417 -8.678297 10.839502 0.09604424
0002a0 7c 9a b9 40 c0 8f 22 c1 ac aa 80 41 43 0b 7b 3e
       5.800108 -10.160095 16.083336 0.24516015
0002b0 ef 2c 82 c1 f7 71 18 41 95 9c d6 c0 b6 f0 a4 41
       -16.27194 9.527823 -6.706614 20.617535
0002c0 07 ae 5c 40 80 6e 44 c1 7b 71 66 41 6c 7b 33 c0
       3.4481218 -12.276978 14.402705 -2.804408
0002d0 9d 6c 29 40 8c 53 f5 c0 2c 6c 49 41 a3 4d 32 bf
       2.6472542 -7.6664486 12.588909 -0.69649714
0002e0 84 b9 5f c1 8a aa a0 40 aa 53 89 c0 c4 73 95 41
       -13.982792 5.0208178 -4.291463 18.681526
0002f0 d6 9e d6 3f 9b 91 1a c1 b0 4a 27 41 5b 3c 0e c0
       1.6767223 -9.660548 10.455734 -2.2224338
000300 24 83 4c 40 29 8c ec c0 ca 24 52 41 f5 de 48 bf
       3.1955042 -7.3921094 13.133982 -0.78465205
000310 30 03 7c c1 e9 2b bd 40 4d 4d b4 c0 be e6 85 41
       -15.750778 5.91161 -5.634436 16.737667
000320 d8 46 0b 40 13 7d 1d c1 ce 9f 29 41 df c5 14 c0
       2.176199 -9.843036 10.601515 -2.324577
000330 85 6c 93 3e d7 ba 0f c1 67 66 52 41 8b b5 3e c0
       0.2879373 -8.983115 13.150001 -2.9798305
000340 a6 3c 6c c1 2a ae 5e 40 73 c7 d6 c0 b9 cc b6 41
       -14.764807 3.4793801 -6.711847 22.849962
000350 cc fc d7 be f8 59 23 c1 9d c0 27 41 b7 03 80 c0
       -0.42185056 -10.209465 10.484525 -4.0004535
000360 00 00 00 00 00 00 00 00 00 00 00 00 00 00 00 00
       0.0 0.0 0.0 0.0
000370 00 00 00 00 00 00 00 00 00 00 00 00 00 00 00 00
       0.0 0.0 0.0 0.0
000380 00 00 00 00 00 00 00 00 00 00 00 00 00 00 00 00
       0.0 0.0 0.0 0.0
000390 36 f5 82 40 10 4f bc c0 d9 7c 10 41 b2 48 ab 3f
       4.092433 -5.884651 9.03048 1.338156
0003a0 15 31 52 c1 71 6e af 40 03 b3 5d c0 1b 07 6c 41
       -13.136983 5.4822316 -3.464051 14.751735
0003b0 61 f3 51 40 9a 53 07 c1 8b d6 ec 40 3f a7 94 3e
       3.2804797 -8.457911 7.4011893 0.2903385
0003c0 28 10 3e 40 aa 90 bd c0 df 54 16 41 c6 70 ea 3e
       2.969736 -5.923909 9.3957205 0.45789164
0003d0 6e fc 4c c1 32 9d a7 40 ee fa 03 c0 29 71 84 41
       -12.811628 5.237939 -2.0621905 16.555254
0003e0 00 00 e0 3f ae bd 1b c1 12 5f ed 40 80 3c a1 be
       1.75 -9.7338085 7.4178553 -0.3149147
0003f0 22 f6 da 3f e4 47 d0 c0 82 c1 22 41 cb c9 60 bf
       1.7106364 -6.5087757 10.172243 -0.8780791

biases_3 f4 [84, 12]
000000 49 9c e4 40 c9 13 62 c1 8e e6 d4 41 00 7a dd bf
       7.144078 -14.12983 26.612576 -1.7302856
000010 f3 b4 df c1 0e a3 53 41 cc b6 0e c1 25 d2 15 42
       -27.963354 13.227308 -8.919628 37.45522
000020 db 7f 9c 40 89 3a 97 c1 0e 6d a0 41 ac d9 4e c0
       4.8906074 -18.903582 20.05325 -3.2320356
000030 bd 25 f8 40 fb b0 59 c1 a3 2a b4 41 69 31 5d 40
       7.7546067 -13.605708 22.520819 3.4561408
000040 15 02 ec c1 56 be 36 41 05 de c2 c0 b4 cc 00 42
       -29.501017 11.421469 -6.089602 32.199905
000050 a4 a0 cb 40 bd 52 bc c1 d6 bc 8d 41 a0 3a 81 3f
       6.3633595 -23.5404 17.717205 1.0096016
000060 f5 f2 08 41 4d 9c 5b c1 aa 00 a0 41 99 0b df 3f
       8.559316 -13.725659 20.000324 1.7425414
000070 40 14 b1 c1 ea 8d 41 41 7f e6 d2 c0 49 9c ca 41
       -22.134888 12.097147 -6.5906367 25.326311
000080 32 ae bf 40 01 7c 7e c1 a3 89 83 41 fe e7 16 c0
       5.990014 -15.905274 16.442205 -2.3579097
000090 5a 6f 9d 40 a8 52 52 c1 fd 69 9c 41 88 4c 9c be
       4.9198427 -13.14518 19.551752 -0.3052714
0000a0 d1 9a d2 c1 45 be 2d 41 68 93 e9 c0 8d 7f ee 41
       -26.325594 10.8589525 -7.299244 29.81228
0000b0 b8 b1 24 40 27 0c 8d c1 47 17 7d 41 33 34 63 c0
       2.573347 -17.630934 15.818183 -3.550061
0000c0 31 56 e2 40 97 4a 1a c1 ba f0 8f 41 b6 cc 0c 3f
       7.0730214 -9.64321 17.992542 0.54999864
0000d0 80 cf d2 c1 fd 9e 32 41 2e 57 ee c0 bd c1 cc 41
       -26.351318 11.1638155 -7.448142 25.594599
0000e0 36 1c 78 40 89 a3 96 c1 18 34 81 41 ae 0c af bf
       3.8767219 -18.829851 16.150436 -1.3675745
0000f0 14 3d 09 41 a1 7a 84 c1 a8 02 82 41 7a d6 70 3f
       8.577412 -16.559877 16.251297 0.94077265
000100 8a 55 d5 c1 50 f4 27 41 11 13 c7 c0 60 d7 a8 41
       -26.666767 10.497147 -6.2210774 21.105164
000110 23 9d a6 40 1f cf 95 c1 58 78 67 41 c3 6b d8 bf
       5.2066817 -18.726133 14.466881 -1.6907886
000120 a9 40 e3 40 ee d8 88 c1 c3 5e 8d 41 2a 3b a6 3f
       7.101643 -17.105923 17.67127 1.2986805
000130 91 16 dc c1 ef 23 2d 41 1d 05 d8 c0 46 f1 c7 41
       -27.511019 10.821273 -6.750624 24.99281
000140 19 e3 6b 40 1a 00 99 c1 fa 8a 6b 41 f7 ef be bf
       3.685736 -19.12505 14.72143 -1.4916981
000150 67 66 b6 40 9e 2f 45 c1 a4 c0 a5 41 0b 1b 8a 3e
       5.7000003 -12.324125 20.719063 0.26973757
000160 48 2e a7 c1 cc af 1b 41 a4 8c 99 c0 41 b6 d1 41
       -20.897598 9.730419 -4.798418 26.213991
000170 7c e0 74 40 50 ba 7a c1 3b fe 80 41 9d 0e 4f bf
       3.8262014 -15.670486 16.124136 -0.80881673
000180 70 35 06 41 d1 25 4f c1 41 ae 80 41 01 08 73 40
       8.388046 -12.9467325 16.085085 3.7973635
000190 b4 df ac c1 7b fb 37 41 a7 05 b0 c0 27 fe b1 41
       -21.60923 11.498897 -5.50069 22.249098
0001a0 32 ae cf 40 00 00 70 c1 ca 24 5a 41 85 d0 f3 3f
       6.490014 -15.0 13.633982 1.904801
0001b0 12 11 b9 40 89 91 1d c1 23 99 82 41 4c b5 b9 3e
       5.783334 -9.848031 16.324774 0.3627113
0001c0 2b b8 9c c1 3c 82 11 41 67 ec c0 c0 cc 2d b3 41
       -19.589926 9.0942955 -6.0288577 22.397362
0001d0 0b 42 72 40 e9 a1 6d c1 9d bc 31 41 86 eb bc bf
       3.785281 -14.852029 11.108548 -1.4759376
0001e0 a6 0b 82 40 91 e0 17 c1 0a d3 7a 41 40 da e6 be
       4.063922 -9.492326 15.676523 -0.45088387
0001f0 56 ec 8f c1 11 06 d3 40 b2 39 cd c0 46 31 bb 41
       -17.990398 6.5944905 -6.413293 23.39906
000200 22 bf 0d 40 81 89 58 c1 1b 57 3d 41 3b 00 d5 bf
       2.2147908 -13.53357 11.833766 -1.6640695
000210 af a1 68 40 c5 b2 20 c1 4e a0 56 41 5b 18 a9 be
       3.6348684 -10.043645 13.414137 -0.33026394
000220 6e 87 8a c1 c8 36 e1 40 46 9d cb c0 1d 57 9f 41
       -17.316128 7.037937 -6.3629484 19.917536
000230 95 6b 24 40 45 9d 5f c1 db 89 18 41 31 d8 08 c0
       2.5690663 -13.975896 9.533656 -2.1381953
000240 3d a5 3e 40 8d c6 3a c1 ac da 55 41 cb 5d 6d bf
       2.9788353 -11.673474 13.365887 -0.9272124
000250 c7 42 83 c1 2d 6f aa 40 26 87 e6 c0 d5 23 98 41
       -16.407606 5.3260713 -7.2039976 19.017496
000260 9e 40 db 3f 5f c8 5c c1 3f 1f 25 41 93 9d 77 c0
       1.7129095 -13.798919 10.320128 -3.8689926
000270 62 ba 14 41 f4 84 42 c1 15 ca ab 41 38 21 4f 40
       9.295504 -12.157459 21.473673 3.2364025
000280 c8 1f ae c1 9c 52 4c 41 04 df 89 c0 da 2c ca 41
       -21.765518 12.770168 -4.3084736 25.2719
000290 92 a1 d9 40 00 ba 81 c1 d5 6a 9c 41 5f 4a 31 3f
       6.800973 -16.21582 19.552164 0.69254106
0002a0 f7 dc ca 40 46 0f 0a c1 74 8d 56 41 d4 83 11 3f
       6.3394732 -8.628729 13.409534 0.5684178
0002b0 ef 2c 8e c1 f8 d3 10 41 84 8a 86 c0 17 83 9e 41
       -17.77194 9.05175 -4.2044086 19.814009
0002c0 eb dd 6c 40 b6 da 4a c1 54 01 40 41 c2 2e b1 bf
       3.7010448 -12.678396 12.000324 -1.3842394
0002d0 09 e5 49 40 f2 96 cc c0 19 b4 48 41 5a 83 c6 be
       3.1546042 -6.393426 12.543969 -0.38772088
0002e0 c8 7f 57 c1 b3 8f ec 40 a8 7e 8e c0 fb 57 76 41
       -13.468697 7.3925414 -4.452961 15.39648
0002f0 e6 c6 12 3f f8 c2 10 c1 bf 5d 1b 41 d7 6b 98 bf
       0.57334745 -9.0476 9.710387 -1.190791
000300 9d 8f 48 40 ec 96 be c0 26 2f 1a 41 18 e0 b3 be
       3.1337655 -5.955923 9.636511 -0.35131907
000310 68 fd 6c c1 55 9b ab 40 9e 54 50 c0 22 fd 56 41
       -14.811867 5.3627114 -3.2551646 13.4368
000320 3c 1c a8 3f 37 a2 22 c1 4a 0b ef 40 11 cc 01 c0
       1.3133616 -10.164603 7.470128 -2.0280802
000330 ea 10 79 3f 9c 99 01 c1 6d 1a 36 41 7e 4b 9c bf
       0.97291434 -8.100002 11.381452 -1.2210538
000340 c9 f5 60 c1 9f 69 76 40 f9 31 96 c0 8a 16 86 41
       -14.060006 3.8501966 -4.6936 16.761005
000350 a0 7f 80 3e ac 92 21 c1 60 ef 16 41 b6 bd 09 c0
       0.2509737 -10.098309 9.433441 -2.152204
000360 42 79 a2 40 82 16 b3 c0 5e 6f 39 41 97 40 d8 3f
       5.077302 -5.5964975 11.589689 1.6894711
000370 c9 56 83 c1 81 7f f8 40 02 0b 66 c0 e3 96 7c 41
       -16.417376 7.7655644 -3.5944219 15.786838
000380 bd 5f 71 40 ae 29 0c c1 c0 e2 15 41 70 59 3c 3d
       3.7714684 -8.760176 9.367859 0.04598373
000390 06 ee 83 40 5a eb 0c c1 3b 4d 8b 41 14 13 e7 be
       4.1228056 -8.807459 17.41271 -0.45131743
0003a0 18 0f 86 c1 60 c6 c3 40 56 82 c0 c0 54 f2 c2 41
       -16.75737 6.1179657 -6.01591 24.368324
0003b0 4f 5b 1e 40 6f 78 47 c1 51 b1 4e 41 1a f7 69 c0
       2.474323 -12.466903 12.91829 -3.655707
0003c0 ea 7b 7a 40 6f 43 ed c0 df dd 29 41 6e 3a cb be
       3.913813 -7.4144816 10.616668 -0.39693016
0003d0 34 71 72 c1 b9 6b c6 40 49 c9 a7 c0 c7 47 8a 41
       -15.1526375 6.2006497 -5.243321 17.285048
0003e0 77 bc f6 3f c6 8f 2d c1 a3 df 19 41 04 6d 7d bf
       1.9276265 -10.847601 9.617099 -0.9899447
0003f0 3f fd a6 3f 65 17 1f c1 bc 32 60 41 e5 0d 3d c0
       1.3046035 -9.943212 14.012386 -2.953973

biases_4 f4 [84, 8]
000000 08 ee e3 40 64 85 86 c1 8c e8 dc 41 82 55 0d c0
       7.1228065 -16.815132 27.613548 -2.208344
000010 4e 79 f8 c1 66 5b 50 41 b0 e1 24 c1 2d eb 1d 42
       -31.05923 13.022314 -10.3050995 39.479664
000020 a5 75 0d 41 87 72 86 c1 f1 a9 c1 41 d5 ff 9e be
       8.841222 -16.805922 24.20798 -0.3105456
000030 c2 3d e0 c1 b7 13 81 41 ec 1b 26 c1 0d d3 05 42
       -28.030155 16.134626 -10.381817 33.456104
000040 ce 2d 2b 41 ca bf a2 c1 ff 34 de 41 4d b3 20 40
       10.698683 -20.343647 27.775877 2.5109437
000050 c2 3d ec c1 00 58 91 41 00 d4 27 c1 6f 1e 02 42
       -29.530155 18.167969 -10.489258 32.52972
000060 e3 cb 09 41 4f 67 8d c1 eb 37 c2 41 42 06 c2 bf
       8.612277 -17.675444 24.277304 -1.515816
000070 5e 4c d8 c1 5a 77 61 41 2f d2 08 c1 18 60 e9 41
       -27.037289 14.091639 -8.551314 29.17192
000080 cd 8e 09 41 a9 33 8c c1 78 ee ab 41 00 41 ae 3f
       8.597363 -17.525225 21.49144 1.3613586
000090 d5 24 e6 c1 e3 ee 59 41 77 61 41 c1 80 37 ec 41
       -28.767984 13.620822 -12.086295 29.5271
0000a0 e4 9f 9d 40 56 32 22 c1 48 c7 61 41 f7 58 c1 bf
       4.925768 -10.137289 14.111153 -1.5105275
0000b0 a7 9d 9e c1 4f 5d 05 41 54 29 05 c1 71 4b a4 41
       -19.826979 8.33528 -8.32259 20.536837
0000c0 e3 23 c7 40 79 f7 80 c1 a4 7e 9d 41 ee 40 38 c0
       6.2231307 -16.120836 19.686836 -2.878963
0000d0 58 2b be c1 e8 c2 33 41 6d 59 2c c1 86 bc d2 41
       -23.771164 11.235085 -10.771832 26.342052
0000e0 bd a9 44 41 2d 5b 91 c1 20 24 de 41 0c 7d 58 be
       12.29144 -18.16952 27.76764 -0.21141452
0000f0 18 d1 f2 c1 f5 c6 92 41 9c 56 16 c1 82 a2 12 42
       -30.352097 18.347147 -9.396145 36.6587
000100 d6 50 1c 41 58 eb 4c c1 d1 fa a7 41 e3 46 99 40
       9.769735 -12.807457 20.997469 4.789903
000110 c8 c6 d4 c1 b2 0a 49 41 59 1c 07 c1 3b c8 ff 41
       -26.597061 12.565111 -8.444421 31.972769
000120 8c ab 02 41 d3 97 4d c1 47 32 8f 41 2e 9a 99 bf
       8.166882 -12.849566 17.89955 -1.2000177
000130 05 ac 93 c1 f6 60 28 41 13 f1 f9 c0 e6 d3 a4 41
       -18.458994 10.523672 -7.810678 20.603466
000140 1b ff 1c 40 04 61 21 c1 5e e6 49 41 e0 04 b7 be
       2.4530704 -10.086185 12.618742 -0.35745907
000150 e4 b7 80 c1 54 d5 cc 40 0e b9 90 c0 0e a6 91 41
       -16.08979 6.401041 -4.5225897 18.206081
000160 ba f8 77 40 87 91 2a c1 37 81 7a 41 7f 67 21 c0
       3.874556 -10.660529 15.656547 -2.521942
000170 50 cb 89 c1 67 f1 d3 40 1f 9e cd c0 35 fd a6 41
       -17.224274 6.623218 -6.425552 20.873636
000180 b7 59 52 40 ac 75 3c c1 f6 3d 79 41 09 58 4b bf
       3.2867258 -11.7787285 15.577627 -0.79431206
000190 09 96 9c c1 e7 4e b4 40 ff d3 fb c0 89 ce ae 41
       -19.57326 5.6346316 -7.8696284 21.850847
0001a0 d3 8e 24 41 98 15 3c c1 1e 8c 96 41 a7 b9 45 40
       10.284869 -11.755272 18.818417 3.0894563
0001b0 ca 79 be c1 9b 24 53 41 63 73 1a c0 13 ce d0 41
       -23.809467 13.196437 -2.4132926 26.100622
0001c0 cb 62 f5 40 a1 ce 3d c1 69 42 74 41 de 61 27 40
       7.6683097 -11.8629465 15.266213 2.6153483
0001d0 d3 ed 9a c1 dd 8c 1d 41 79 56 a1 c0 d7 50 9a 41
       -19.366125 9.84689 -5.0418057 19.289473
0001e0 63 9b 94 40 12 35 1a c1 4e 29 4e 41 18 9f e6 3e
       4.643968 -9.637957 12.885084 0.45043254
0001f0 5e eb 7f c1 93 fa fd 40 00 0c 9d c0 f1 19 81 41
       -15.994963 7.9368377 -4.907715 16.137667
000200 29 19 50 40 0e 7d e9 c0 9e 1d 22 41 58 b9 2f bf
       3.2515357 -7.2965155 10.132231 -0.6864219
000210 12 3f 6a c1 f9 d3 d0 40 21 22 92 c0 48 3b 7e 41
       -14.640398 6.5258756 -4.566666 15.889473
000220 ec 9d e0 3f e2 1b 24 c1 c5 a0 39 41 41 07 18 c0
       1.7548194 -10.256807 11.60175 -2.3754427
000230 d0 41 83 c1 e9 08 ce 40 60 3c d0 c0 5a 3f a7 41
       -16.407135 6.4385877 -6.50737 20.905933
000240 cf 9b 05 41 c7 7d 36 c1 c8 e2 73 41 ec c1 58 40
       8.350539 -11.405707 15.2428665 3.386836
000250 55 93 bc c1 ba 01 2a 41 97 f3 b7 c0 b0 8e 9f 41
       -23.57194 10.625422 -5.748485 19.944672
000260 8e d7 96 40 ce 97 06 c1 5d f8 34 41 3a 63 65 3f
       4.713813 -8.412062 11.310636 0.8960453
000270 89 42 72 c1 f9 d3 f0 40 0a 4d 86 c0 ef ee 8e 41
       -15.141244 7.5258756 -4.196904 17.866667
000280 fe 95 90 40 52 06 02 c1 43 cc 34 41 6c dd 12 bf
       4.5183096 -8.126543 11.299869 -0.5736911
000290 83 5f 81 c1 6a 88 ce 40 65 b6 8d c0 b6 b2 89 41
       -16.171637 6.454152 -4.428515 17.212261
0002a0 09 a7 4e 40 14 a7 e4 c0 94 49 3c 41 27 c3 28 bf
       3.228945 -7.1453953 11.767963 -0.6592278
0002b0 d1 93 76 c1 c5 09 b3 40 8f eb 96 c0 6e b5 82 41
       -15.411088 5.5949426 -4.7162547 16.338589
0002c0 f8 dc 2a 40 69 d9 ea c0 0d 9e 10 41 64 83 46 bf
       2.6697369 -7.3390393 9.038587 -0.77544236
0002d0 fe 81 5b c1 99 52 a4 40 ee 74 89 c0 88 88 7b 41
       -13.719236 5.1350827 -4.2955236 15.720833
0002e0 4f bf db 3f 34 60 1d c1 4b 5d 25 41 61 5e 13 c0
       1.7167758 -9.835987 10.335277 -2.3026354
0002f0 40 75 5f c1 4b d9 a0 40 c9 74 bc c0 6f a6 6e 41
       -13.9661255 5.026525 -5.889256 14.915633
000300 e7 63 85 bd 24 22 32 c1 32 cd 2a 41 f7 ee 2e c0
       -0.065131955 -11.133335 10.6750965 -2.7333353
000310 d2 17 6c c1 27 c3 8a 40 ec ef f5 c0 bc 5e 94 41
       -14.7558155 4.3363223 -7.6855373 18.546257
000320 0e 8c a8 3f 8e 30 32 c1 17 3c 2d 41 ac a2 77 c0
       1.3167741 -11.136854 10.82717 -3.8693037
000330 37 df 90 c1 08 8a 8e 40 37 b8 f6 c0 83 26 ab 41
       -18.108992 4.4543495 -7.709987 21.393805
000340 75 bd d5 3f ca a0 18 c1 48 3f 19 41 6b c8 25 c0
       1.6698443 -9.539255 9.57795 -2.5903575
000350 cc cb 8b c1 4e 63 87 40 d6 2e ec c0 48 64 a6 41
       -17.47451 4.230872 -7.3807173 20.798965
000360 c8 29 8a bf de 97 53 c1 5d 92 58 41 d5 62 c6 c0
       -1.0794001 -13.224577 13.535733 -6.1995645
000370 0f 79 99 c1 3b df d1 40 a8 7e 16 c1 a8 dc b2 41
       -19.18411 6.5585 -9.405922 22.357742
000380 76 39 20 41 eb 1b 36 c1 84 27 ad 41 bc f3 20 40
       10.014029 -11.381816 21.644295 2.5148764
000390 bc 98 c4 c1 56 55 5d 41 e8 c3 99 c0 81 6d ce 41
       -24.574577 13.833334 -4.8051643 25.803469
0003a0 e1 be 09 41 51 06 3b c1 ee 9a 87 41 a1 d9 51 40
       8.609101 -11.689042 16.95065 3.278908
0003b0 2e cc be c1 e3 95 45 41 cf 48 54 c0 7a cd d3 41
       -23.849697 12.349093 -3.316944 26.47533
0003c0 f7 b0 f6 40 a4 1e 37 c1 53 bc 86 41 02 23 d7 be
       7.709102 -11.444981 16.841955 -0.42018896
0003d0 fc cf 9c c1 ef 11 32 41 d9 38 fb c0 ba d4 af 41
       -19.601555 11.129378 -7.8506894 21.97887
0003e0 0c dc c7 40 0c ee 2e c1 dc 35 67 41 37 b5 1e 40
       6.245611 -10.933117 14.450649 2.4798105
0003f0 78 31 9d c1 8d d7 12 41 a4 ad 77 c0 03 b9 94 41
       -19.649155 9.177625 -3.8699732 18.590338

biases_5 f4 [84, 8]
000000 b5 51 8c 40 c8 0a 85 c1 ac 0f e6 41 67 56 70 c0
       4.384974 -16.630264 28.757652 -3.7552736
000010 49 6c dc c1 13 02 85 41 1d 88 23 c1 f7 ff 04 42
       -27.552874 16.626013 -10.220731 33.249966
000020 bc 0a 0b 41 aa 33 94 c1 d6 d2 e1 41 de 4e 65 c0
       8.690121 -18.525227 28.227947 -3.5829387
000030 eb 1f dc c1 26 0f 88 41 a4 27 69 c1 d7 6a 0a 42
       -27.515585 17.007397 -14.572178 34.604336
000040 1d 45 99 40 4c 49 96 c1 72 f5 de 41 9e c6 9f bf
       4.7896867 -18.78579 27.869846 -1.2482488
000050 eb 3a fe c1 21 02 a8 41 35 8c 36 c1 67 c7 13 42
       -31.778769 21.00104 -11.40923 36.94473
000060 bb f0 f9 40 5d ad 9c c1 85 78 a3 41 28 db fb bf
       7.810636 -19.58465 20.433847 -1.9676256
000070 c3 b9 de c1 dc 9e 70 41 dd 4e 41 c1 a7 14 df 41
       -27.840704 15.038784 -12.081754 27.885084
000080 f2 b0 cb 40 58 13 84 c1 26 a8 a4 41 de 3f 3d c0
       6.36535 -16.509445 20.582104 -2.9570231
000090 a5 66 b9 c1 06 3d 3f 41 72 9b 3a c1 72 ac d4 41
       -23.17512 11.952398 -11.6629505 26.584202
0000a0 b0 6c 82 40 6b c7 4b c1 06 a5 8f 41 2c 15 88 3f
       4.0757675 -12.736186 17.955578 1.0631461
0000b0 19 61 af c1 0d 08 e1 40 4f a5 fc c0 0a f6 c0 41
       -21.922411 7.0322328 -7.8951793 24.120136
0000c0 c3 0a 8a 40 c3 d6 51 c1 a9 35 80 41 9a 4a c6 be
       4.3138137 -13.114932 16.026201 -0.3872879
0000d0 cf 78 c6 c1 11 34 00 41 41 f9 c7 c0 7c 76 bc 41
       -24.808989 8.012712 -6.2491765 23.557854
0000e0 39 b7 ba 40 25 f6 64 c1 a5 49 cf 41 8f f2 92 c0
       5.834866 -14.310094 25.91096 -4.592109
0000f0 09 96 ea c1 65 65 6b 41 73 4c 1a c1 c1 7d 17 42
       -29.32326 14.712255 -9.643664 37.872807
000100 b8 3f da 40 5f eb 2f c1 49 93 ae 41 35 75 a6 bf
       6.820278 -10.994964 21.821917 -1.3004519
000110 51 c4 ab c1 ff 8b 68 41 0e 3e d4 c0 6a be d4 41
       -21.470858 14.534179 -6.632575 26.592976
000120 75 ac b5 40 77 f3 35 c1 8a ca 84 41 d0 9c da bf
       5.677302 -11.37194 16.598896 -1.7079105
000130 e9 64 a1 c1 b0 1c 28 41 b3 38 ce c0 1b 95 b0 41
       -20.174273 10.507004 -6.4444213 22.072805
000140 08 dc df 40 c7 b2 67 c1 db 68 97 41 b3 da 39 c0
       6.9956093 -14.481147 18.926199 -2.9039733
000150 cf a2 c1 c1 2e 07 50 41 16 04 1f c1 61 be c2 41
       -24.204496 13.001753 -9.938498 24.342958
000160 fc ff 5f 40 56 f4 66 c1 0d ad 9e 41 f8 12 8b c0
       3.499999 -14.434652 19.834497 -4.3460655
000170 22 9e a8 c1 c1 a7 06 41 7a fd 11 c1 f2 e5 c4 41
       -21.077213 8.415956 -9.124384 24.612278
000180 60 3a 6f 40 ba 0b 6a c1 99 99 99 41 66 93 94 c0
       3.737938 -14.627863 19.199999 -4.642993
000190 38 fa bc c1 78 25 28 41 2e 99 24 c1 f0 b8 c0 41
       -23.622177 10.509148 -10.287397 24.090302
0001a0 86 bc df 40 cf 0a 13 c1 46 65 91 41 1a d6 80 3f
       6.991763 -9.190139 18.17445 1.0065339
0001b0 80 cf a0 c1 38 43 48 41 68 ec 80 c0 a8 14 b7 41
       -20.101318 12.516411 -4.028858 22.885086
0001c0 a5 63 ba 40 0d ee 2a c1 66 9b 92 41 17 ea 16 3c
       5.8246636 -10.683118 18.325878 0.009211085
0001d0 5e 8a a9 c1 a0 97 1b 41 74 79 b5 c0 e9 c2 d1 41
       -21.192562 9.724518 -5.671076 26.220171
0001e0 87 bd be 40 56 0f ff c0 dc 12 2c 41 26 5f 1e 40
       5.9606357 -7.970622 10.754604 2.4745574
0001f0 c5 8f 8f c1 41 44 ec 40 ff 71 50 c0 bd 1a 76 41
       -17.9452 7.383332 -3.2569578 15.381528
000200 dc 9f 72 40 49 da 1b c1 62 d0 4e 41 57 81 30 3f
       3.791007 -9.740792 12.925875 0.68947357
000210 62 36 93 c1 b0 3f b7 40 0e 98 ca c0 68 53 a1 41
       -18.401554 5.7265244 -6.3310614 20.165726
000220 dd 12 84 40 a1 e0 fc c0 3b d6 4e 41 2c e1 d9 3f
       4.1273026 -7.9024205 12.927302 1.7021842
000230 84 34 b5 c1 66 88 ee 40 4d a5 64 c0 16 4e 8f 41
       -22.650642 7.45415 -3.5725892 17.913128
000240 17 d3 e0 40 50 60 fb c0 e0 96 78 41 c1 9a df 3f
       7.025768 -7.855507 15.536835 1.7469102
000250 e6 12 a6 c1 78 77 07 41 52 08 63 c0 2f 93 a6 41
       -20.759228 8.466667 -3.5473828 20.821867
000260 f5 2b 21 40 ac c5 ee c0 60 16 31 41 a8 68 9d 3e
       2.518308 -7.46163 11.067963 0.3074391
000270 f2 c4 81 c1 ba 47 b8 40 92 9e 74 c0 6c e9 98 41
       -16.221165 5.7587557 -3.8221784 19.113976
000280 f4 c1 6e 40 38 fe ff c0 03 95 54 41 0b 31 5d 3f
       3.730588 -7.9997826 13.28638 0.8640296
000290 98 a0 9b c1 3e 18 b5 40 b9 6f 90 c0 85 76 ac 41
       -19.453415 5.6592093 -4.513638 21.55787
0002a0 cf 2d 27 40 df 1b 01 c1 a5 ae 3e 41 56 18 a9 bf
       2.612171 -8.069304 11.917638 -1.3210552
0002b0 a5 43 94 c1 11 7a 9e 40 1b 73 98 c0 b4 a8 92 41
       -18.53303 4.9524007 -4.764051 18.332375
0002c0 6d 42 93 40 ea 35 0c c1 5f 8d 51 41 8a 01 cb be
       4.6018586 -8.763163 13.097014 -0.39649612
0002d0 c9 bf 9c c1 d6 1a d4 40 4c d4 a5 c0 64 41 8d 41
       -19.593645 6.628276 -5.182165 17.656929
0002e0 62 d0 12 40 52 fd 00 c1 b9 66 23 41 54 9c 12 c0
       2.2939687 -8.061846 10.212579 -2.2907915
0002f0 ae 3a 8b c1 99 df 9f 40 19 a0 b3 c0 56 38 99 41
       -17.403652 4.9960446 -5.613293 19.152508
000300 e7 61 4d 40 39 c9 26 c1 74 8d 4e 41 a6 2f 83 c0
       3.2091005 -10.424127 12.909534 -4.0995665
000310 8e d3 a9 c1 12 34 c8 40 c8 5e 02 c1 20 d2 ae 41
       -21.228298 6.2563562 -8.14814 21.8526
000320 a0 62 ae 3f 88 fb 1d c1 37 0b 19 41 3e 9d 65 c0
       1.3623848 -9.873909 9.565238 -3.5877223
000330 38 5b 7f c1 bb de b2 40 0f 11 f9 c0 c8 85 b5 41
       -15.95977 5.589689 -7.7833323 22.690323
000340 25 32 0e 40 7f 42 4c c1 2f 8b 30 41 bc ab 75 c0
       2.2218106 -12.766234 11.03398 -3.8386068
000350 05 4b a7 c1 c0 74 be 40 e0 20 13 c1 c0 1d a8 41
       -20.91163 5.9517517 -9.195526 21.014526
000360 92 8d 3a 40 8c bd 7d c1 7f 08 82 41 78 10 4e c0
       2.9148908 -15.858776 16.254148 -3.2197552
000370 97 dd b9 c1 b9 bb e3 40 cf 94 21 c1 57 e7 c0 41
       -23.233198 7.1166654 -10.09883 24.112959
000380 b1 cd 10 41 1d 3d 67 c1 c3 2b cb 41 9f 0b 65 3f
       9.050218 -14.45242 25.396368 0.8947086
000390 af 17 ec c1 35 bb 97 41 4b b4 b6 c0 0d 7b f1 41
       -29.511564 18.96641 -5.7095084 30.185083
0003a0 04 c2 2b 41 c0 8f 5e c1 6d 4d b0 41 0d 2b 48 40
       10.734867 -13.910095 22.037806 3.1276276
0003b0 47 58 c6 c1 c8 01 6f 41 8f 6a fb c0 d2 47 e8 41
       -24.793104 14.937935 -7.8567576 29.035069
0003c0 ec 58 eb 40 2b ca 27 c1 2a 3c 94 41 a9 b2 dd 3f
       7.3546047 -10.486857 18.529377 1.7320148
0003d0 94 b6 b4 c1 15 ca 47 41 1c 72 d1 c0 7c b4 b5 41
       -22.58915 12.486836 -6.5451794 22.713127
0003e0 3a 79 f4 40 b2 75 53 c1 51 bf 85 41 86 39 bb 3f
       7.639798 -13.216234 16.718416 1.462693
0003f0 c1 44 b0 c1 ca 01 2f 41 3c fb d5 c0 8f 6c a9 41
       -22.033571 10.937937 -6.6869183 21.178007
