process/predict/models/daxue/mlp_model.pth (torch, 12124 bytes, 5 tensors)

fc1.weight f4 [64, 3]
000000 72 62 05 3f 78 08 9c 3e 90 3a 6a be ae 9f 00 3e
       0.5210334 0.3047521 -0.22873902 0.12560913
000010 85 47 78 3e a3 14 ce be 57 96 04 bf a5 ee 50 be
       0.24246033 -0.4025012 -0.517919 -0.20403536
000020 65 99 f2 3e e2 d0 c0 be a8 79 06 3f b6 b5 b0 3e
       0.47382656 -0.37659365 0.5252938 0.34513634
000030 87 a8 3c 3d 06 51 59 bc 29 10 c1 bd fe 14 06 3f
       0.046059158 -0.013263946 -0.094269104 0.5237578
000040 5a 06 0c 3f c9 57 9e be 47 2f aa 3e 1a b7 db be
       0.5469719 -0.3092635 0.33239195 -0.42913133
000050 84 02 0c 3f 5f d4 a8 3e 2a c4 bf 3d be 3e d1 be
       0.5469134 0.32974526 0.09363587 -0.4086818
000060 8f b7 04 be 64 50 b0 3e cf 8d be 3e 36 d2 fe 3e
       -0.12960647 0.34436333 0.37217566 0.49769753
000070 6a 63 25 3e 7e 73 46 bc 79 72 14 3e 41 53 10 3f
       0.16151205 -0.012112496 0.14496793 0.56377035
000080 77 a0 a2 be b5 19 a0 3e c4 d4 12 be 73 cd bf be
       -0.3176305 0.31269613 -0.14338976 -0.37461433
000090 05 c4 a6 bd 29 e6 16 3e d6 2c ab 3e 5f 3f 07 3c
       -0.081428565 0.14736237 0.33432645 0.008254855
0000a0 df aa 95 3e b7 21 0d 3d 53 85 6e 3d 53 9d e8 3e
       0.29231927 0.03445598 0.058232617 0.4543253
0000b0 1c 8f 2b 3c d4 13 c0 3e 6b 29 9b 3e c4 b3 f5 be
       0.010471132 0.37515128 0.30305037 -0.47988713
0000c0 f1 72 1f 3d 76 07 01 bf 64 bd 94 3e 42 a3 2e 3d
       0.038927976 -0.5040201 0.29050744 0.042636164
0000d0 e2 fe cd 3d 63 50 24 3d d8 44 1d 3b d0 b1 75 3e
       0.10058381 0.040115725 0.0023997333 0.23993611
0000e0 fa 32 e5 be 8b c3 7e 3e a8 45 c5 3e 14 10 02 bf
       -0.44765455 0.24879281 0.38529706 -0.50805783
0000f0 83 0c 10 3f ad 55 fa be 6c bd d0 3d 03 49 0b 3f
       0.5626909 -0.4889349 0.10192379 0.5440828
000100 d8 18 e0 bd a9 1f 00 bf 4c a3 a9 3e 60 4f ad 3c
       -0.109422386 -0.5004831 0.33132398 0.021156013
000110 df 2c 00 bf c4 a6 c0 be 09 66 85 3e 84 94 08 3c
       -0.5006847 -0.37627232 0.2605441 0.00833619
000120 81 5c b8 3d 35 98 bb 3d 74 cd cc be 3a fd 90 be
       0.09002019 0.091598906 -0.40000498 -0.28318197
000130 01 1a 02 be 0c 10 55 bc 80 e5 9b 3e 00 fb 06 3d
       -0.12705232 -0.013004314 0.30448532 0.032954216
000140 cd 48 0d bf 0a 9c 06 3e 0e e4 16 bf 9c b3 32 3e
       -0.5518921 0.13145462 -0.58941734 0.17451328
000150 f0 99 47 3e e4 b2 d7 be 98 c3 d4 3e ee f4 c9 3c
       0.19492316 -0.4212867 0.41555476 0.024652924
000160 c5 7f 0d 3e a7 f3 f9 be a0 ac cc bc cb 1d 70 3e
       0.13818271 -0.48818704 -0.024984658 0.23448865
000170 ea a4 0b 3d 92 c0 ef 3d 1b 13 08 be 41 94 02 3e
       0.03409282 0.11706652 -0.13288538 0.12751867
000180 9a 11 3f be 9b cf 0e 3f 25 70 15 be 68 73 92 3e
       -0.18659058 0.5578553 -0.14593561 0.28603673
000190 ed 4e ab 3e d6 57 4b 3e 23 37 1a 3f a3 e6 05 bf
       0.33458653 0.19857726 0.6024038 -0.5230505
0001a0 97 b7 70 3e 5d e2 a2 3e 32 11 38 3d cc 4b 90 be
       0.23507534 0.31813326 0.044938274 -0.28182828
0001b0 91 1f 0c bf 81 25 f6 be 3d 4d ca be c1 f0 bf 3e
       -0.54735667 -0.48075488 -0.39512053 0.37488368
0001c0 60 9d f4 be ca 85 a4 be bc 5b 2b be 1d 7b d6 be
       -0.47776318 -0.32133323 -0.16734213 -0.41890803
0001d0 64 61 d2 3e a4 75 7a be 66 ec 06 3e 4d 8a c1 be
       0.41089928 -0.24458939 0.13176116 -0.37800828
0001e0 64 6f c5 be a7 18 81 3e a0 87 cd 3e dd 5b ed 3e
       -0.38561547 0.2521412 0.40142536 0.4635915
0001f0 a5 3b 51 be 2a fa 86 bc bb b5 95 3e 63 e3 d2 3e
       -0.20432909 -0.01647671 0.29240212 0.41189107
000200 89 7e c4 3d a4 48 7d 3e 42 37 00 3f d3 af b2 3e
       0.09594447 0.24734741 0.50084317 0.34899768
000210 a1 ad bf be 32 f6 dc be 3d 74 66 3e 88 42 d7 3e
       -0.37437156 -0.43156582 0.22505279 0.42042947
000220 e8 63 03 be 6a fa 9b be cb aa d5 be 61 95 cd bc
       -0.1283108 -0.30464488 -0.41731867 -0.025095643
000230 e3 a6 27 be 37 1c ff bd 71 69 82 be 2f 1b 15 3f
       -0.16372256 -0.124565534 -0.2547107 0.58244604
000240 76 91 d6 bd db a9 ed 3e 4b fd 97 3e 56 b9 65 3e
       -0.10476963 0.46418652 0.29685435 0.22433981
000250 8b ec a2 3e 09 4b fc 3e 12 bb a3 3c e0 de c7 be
       0.31821093 0.49275997 0.019986663 -0.39037228
000260 cf 92 fe 3e 50 8f 84 be 2d 8e 9c 3d 64 1c df 3e
       0.4972138 -0.2589059 0.076443054 0.43576348
000270 c9 63 81 be 2a 46 9f 3e 7f a5 0c 3f 18 5e 0a bf
       -0.25271443 0.31108218 0.54940027 -0.54049826
000280 04 cb c4 be e2 02 13 bf 30 58 bb 3e 3f 4c 4d 3e
       -0.3843614 -0.57426274 0.3659072 0.20048617
000290 22 03 57 be 2d b6 fd 3e f7 1d fa 3e c0 cf e4 be
       -0.20997289 0.49553052 0.48850986 -0.4468975
0002a0 d7 ce 58 bd 72 2d a3 3e c3 43 05 3f 72 a2 cb be
       -0.052931633 0.3187061 0.5205652 -0.39772373
0002b0 c0 cd 39 bd 00 34 76 ba 84 bd 28 3e 87 53 07 3e
       -0.045362234 -0.0009391904 0.16478544 0.13215457
0002c0 be 10 d8 3e 2b cd 86 be 7d 49 69 bd f6 56 0a 3e
       0.42200273 -0.26328406 -0.05695485 0.13509735
0002d0 df b4 76 be 09 7d 5a 3d 75 f0 8b 3e 82 ac a6 3e
       -0.24092434 0.0533419 0.27331892 0.32553488
0002e0 33 84 76 3e a6 7f 0f 3e 66 2a b0 be ee e4 e2 3e
       0.24073867 0.14013538 -0.34407347 0.44315284
0002f0 09 0c b3 3e 41 ea 0e 3f a4 52 de 3d 7c 89 c5 3e
       0.3497012 0.55826193 0.10855606 0.38581455

fc1.bias f4 [64]
000000 11 e4 e2 be 72 ee ff bd 1a 7b 08 3f 99 14 e9 be
       -0.44314626 -0.12496652 0.5331284 -0.45523527
000010 f6 8c c0 3d e2 47 a0 be cd 5d 03 bf dd cd c6 bd
       0.09401886 -0.31304842 -0.51315004 -0.09707234
000020 78 54 80 be 52 a8 75 bd e8 4b 5b 3e 18 7f 7b 3d
       -0.25064445 -0.059974976 0.21415675 0.061400503
000030 36 da 59 3e cf 2a ee 3e 4d e3 17 3f 29 fe 05 bf
       0.21274647 0.46517035 0.5933121 -0.5234094
000040 a8 f7 94 bc ee d2 90 3e 7e 64 ff 3e f9 43 a2 3e
       -0.018184498 0.28285927 0.49881357 0.31692484
000050 df 51 af 3d 17 bf b4 3e 0a 5d e6 be 97 5e 12 3f
       0.085605375 0.3530204 -0.44992858 0.5717558
000060 5d 5a 29 3e 27 d6 92 3e 03 78 00 bf 96 84 f5 3e
       0.16538377 0.2867901 -0.50183123 0.47952718
000070 d2 ca 02 bf bc 75 28 bd df fa 86 be a3 f2 46 bd
       -0.5109073 -0.041127905 -0.26363274 -0.04857124
000080 2d 06 a5 be 6b f0 8f be a5 8a ee bd bc 88 a9 3d
       -0.32231274 -0.28113112 -0.11647538 0.08278033
000090 00 45 02 bc ca 2a 7a 3e 87 c6 50 3e af ea 86 3e
       -0.007951021 0.24430385 0.20388232 0.26350924
0000a0 46 35 b2 be 6e dc d8 3e 5d 5e 92 be 89 1b b0 3d
       -0.3480627 0.42355675 -0.28587618 0.08599002
0000b0 3e d2 1e 3f 2f c2 44 3e d8 80 ac 3e 56 a4 0d 3e
       0.62039554 0.192147 0.3369205 0.1383222
0000c0 fe 6e d5 3d 4e fb be be 4a 0d 1d 3f c1 2b e5 be
       0.10421561 -0.37301105 0.613484 -0.44759944
0000d0 d7 3c ed 3c 7c 00 bd be ee f2 89 be f3 c5 91 be
       0.028959675 -0.36914432 -0.26943153 -0.28471336
0000e0 26 ec 94 be 80 35 5d bc 9e 6b 52 3e ca c7 50 3d
       -0.29086417 -0.013501525 0.20548865 0.050971784
0000f0 d5 49 f0 3e 32 fe c1 be 33 84 a9 be fd ba c5 be
       0.4693133 -0.37889248 -0.33108672 -0.38619223

fc3.weight f4 [32, 64]
000000 bd 3f 4a bc bc aa 08 bc 21 d7 bf 3d b3 65 3d bc
       -0.012344298 -0.0083414875 0.093672045 -0.0115598915
000010 0f be c5 3d f2 7f 1c bd 24 17 43 bd 58 c6 24 3e
       0.096553914 -0.038207956 -0.04762949 0.16091287
000020 bf 8f 0f bd b9 97 07 3d f9 fa 19 3e 95 dc 08 be
       -0.035049196 0.03310368 0.15037145 -0.13365395
000030 03 9f 9f bc a9 f8 02 3e ae 37 be 3d 32 c4 8d bd
       -0.019485002 0.12790169 0.09287964 -0.06922187
000040 6e 00 4a be fd 61 49 3d f4 b4 db 3d 5e ba 19 bc
       -0.19726726 0.049165715 0.107278734 -0.009382812
000050 99 e8 15 3e 8e 0d a1 bd 5c a2 3e bd 5a ad 7c 3d
       0.1463951 -0.078639135 -0.046541557 0.06168876
000060 66 87 06 bc c7 ca 09 3e 90 8f 9b bd 73 2c 46 be
       -0.008210992 0.1345626 -0.07595742 -0.19352894
000070 1c df fb bd 96 a6 f3 3d 92 b3 87 bd 5a d2 61 bd
       -0.12298414 0.11897008 -0.06626047 -0.055132248
000080 5c 33 6e bd 13 e9 48 bc f4 34 88 be 31 89 f2 bb
       -0.05815445 -0.0122626005 -0.266029 -0.0074016084
000090 80 4a 13 3d e8 6b 13 be 9b 3e 69 bd bc 96 00 3e
       0.03595972 -0.14396632 -0.05694447 0.125575
0000a0 66 69 ef bd ae 91 3a 39 3d a8 b1 3c 66 38 ab bd
       -0.11690025 0.00017792612 0.021686668 -0.083603665
0000b0 a9 42 18 be 61 19 d5 3d fb 31 7c 3e 84 f8 0e be
       -0.14869179 0.10405231 0.24628441 -0.13961989
0000c0 2d 7b c9 bd ec b8 93 bc 23 c8 05 be 30 b4 f0 3c
       -0.09837947 -0.018032514 -0.13064627 0.029382795
0000d0 93 07 6c bc fc 41 96 3d ea 75 58 3d 64 aa a9 bd
       -0.014406103 0.07336804 0.052846827 -0.082844526
0000e0 90 b4 41 3d 84 c7 aa bd fe b3 10 3d c8 8b 35 3d
       0.04729134 -0.08338836 0.035327904 0.04432276
0000f0 54 d0 aa bc f7 a6 d6 3d f4 ba 45 bd 17 27 8f bc
       -0.020851292 0.10481065 -0.048273996 -0.017474694
000100 46 5b f1 3d 82 19 0c bb b6 f6 3c bd b3 59 a9 bd
       0.11784987 -0.0021377509 -0.04613372 -0.08269062
000110 d8 b7 d1 3c c9 16 9d bd 40 f8 43 bb ca 73 60 3d
       0.025600359 -0.076703615 -0.0029902607 0.054797925
000120 80 40 1a be 7c dc cb 3d 30 5f 31 3d 00 af e2 bd
       -0.15063667 0.099541634 0.04330367 -0.11068535
000130 ac 78 63 bd 92 e0 6d 3d f0 e4 f7 bc 6d 9c 95 3d
       -0.055535004 0.058075495 -0.030260533 0.073052265
000140 dd 4a 25 be dd 3b b2 bd ce b9 b1 3d 82 6b ff 3d
       -0.1614184 -0.08702824 0.086780176 0.12471677
000150 66 b2 b4 3d e8 c5 db 3d 00 78 b8 39 58 48 ad bd
       0.08823089 0.10731107 0.00035184622 -0.08461064
000160 87 c2 4b 3b be db 43 bd e0 32 df 3b 8a bd ad 3d
       0.003109129 -0.047816984 0.0068114847 0.08483417
000170 6a e3 be 3d 73 8c 28 3e ae 35 5e 3d 83 d5 82 be
       0.093207195 0.16459827 0.05425041 -0.25553522
000180 52 25 8a 3d 52 05 b3 bd a7 d8 39 be 6d f0 d7 bc
       0.067453995 -0.08741249 -0.18149053 -0.026359761
000190 44 08 79 bd 10 69 22 be 76 17 97 be 7f 49 0f 3d
       -0.0607989 -0.1586039 -0.29510087 0.0349822
0001a0 8a 6c ac 3d 6b cf 11 3e 4c f2 a7 bd 1c 86 ee 3d
       0.0841914 0.1423928 -0.08200511 0.11646673
0001b0 0c f4 9d be 6f 0f 35 3d e0 a9 4d 3e 48 50 65 bc
       -0.30850255 0.04420417 0.20084333 -0.013996191
0001c0 69 24 52 3c c1 18 c2 bc 12 a7 a1 bc 80 86 68 3b
       0.012826064 -0.023693444 -0.019732986 0.003548056
0001d0 e0 51 84 3c 34 5a 37 3d 3a 14 93 3d af a3 14 3e
       0.016152322 0.04476376 0.07181592 0.14515565
0001e0 e0 5f d6 bd 86 e5 d5 bd 94 79 a0 3d 12 ef a2 3d
       -0.104675055 -0.10444169 0.07835689 0.07955755
0001f0 ab 92 0c be b7 b3 f8 3d 15 95 10 3d 3b 6f 40 3d
       -0.13727824 0.12143653 0.035298426 0.046981078
000200 04 e8 f6 3d e8 5c d5 3d 0c c6 87 3d ea b1 d1 bd
       0.12055972 0.10418111 0.06629571 -0.102390125
000210 aa 13 d5 bd 58 72 55 bd b8 45 c7 3d c4 1b 99 3d
       -0.10404141 -0.052111 0.09730095 0.07475999
000220 c8 9e cf bd 80 50 5a 3d ac 60 29 3d 64 b9 93 bd
       -0.10137707 0.053299427 0.04135196 -0.07213095
000230 78 f2 d5 bc f4 47 5c 3d b0 4e c0 bd 70 c4 ee bd
       -0.026116595 0.053779557 -0.093900084 -0.11658561
000240 36 59 ac 3d 80 aa 48 bd b4 27 96 3d e8 11 4d bd
       0.08415453 -0.048990726 0.073317915 -0.050065905
000250 de fe d8 3d 96 13 a2 3d 68 05 23 3d f0 41 d1 bd
       0.10595487 0.07913892 0.039800078 -0.10217655
000260 68 cb c1 bc c8 98 9d 3d 26 3e f1 bd 68 d3 c3 bd
       -0.023656562 0.07695156 -0.11779432 -0.09561807
000270 1c b6 c4 bd 50 d7 48 bc 70 71 6b 3d a4 67 eb bd
       -0.09605047 -0.012258366 0.05748123 -0.11494377
000280 de 75 85 bd fc fc df bd 9a 85 d0 3d d8 94 e3 3c
       -0.06516622 -0.10936925 0.101817325 0.027780935
000290 1c 27 7a bd 34 c4 b6 bd 00 63 4c bb 18 24 af 3d
       -0.061072454 -0.089241415 -0.0031186938 0.08551806
0002a0 80 e6 4f bd bc 22 62 3d 7e ec dd 3d ca 73 86 bd
       -0.05075693 0.055208907 0.10836123 -0.06565054
0002b0 e4 78 41 bd c0 11 13 bb 0c a3 33 3d 64 02 d4 bd
       -0.04723443 -0.0022441 0.043856665 -0.103520185
0002c0 a8 d9 42 bd 9e 10 f6 bd 14 dc 37 bd 32 be c4 bd
       -0.047570854 -0.12014888 -0.044887617 -0.096065894
0002d0 20 97 5c 3c da 10 82 3d 30 35 e4 bc 92 8b c8 bd
       0.013463765 0.063508704 -0.027857393 -0.09792246
0002e0 40 6a 30 bd a0 6b b0 3d 6e 49 da bd 84 d6 e2 bd
       -0.043070078 0.08614278 -0.10658537 -0.11076072
0002f0 28 e2 98 3d b2 8f ff 3d 80 0a e5 3b 80 16 89 3a
       0.07465011 0.124785796 0.006989777 0.0010458976
000300 77 eb fb bd 38 54 c5 bd ac c6 e0 3c 1a 9a cd bd
       -0.12300771 -0.09635204 0.027438484 -0.10039158
000310 01 2e 21 be a3 9c af bd 91 da 9e ba 8a 36 a2 bd
       -0.15740205 -0.08574798 -0.0012119581 -0.07920559
000320 dc 9f 44 bd d2 5a 16 bb d8 b0 c4 3c 4e d2 e5 3d
       -0.048004016 -0.0022942317 0.024010107 0.11221753
000330 d2 09 1b 3d 37 0b 7a 3d b5 f6 78 3c ce 0e 5b 3d
       0.037851162 0.06104585 0.015195538 0.053480916
000340 77 c7 b9 3a f8 35 81 bd dd 4d b9 3d e5 77 d2 3d
       0.0014173825 -0.06309122 0.09048054 0.10276774
000350 8f a0 6b be b1 90 43 3c b6 a0 c5 3d a8 fe 0e 3e
       -0.23010467 0.011936353 0.09649794 0.13964331
000360 6a fd b4 3d 49 f5 46 be e8 bb e5 bc 1d ba be bb
       0.088373974 -0.19429506 -0.028043702 -0.0058205263
000370 58 57 b3 bd 38 fb 0f be d0 77 67 bc 57 7f c7 bd
       -0.08756894 -0.14060676 -0.014127687 -0.09741085
000380 2f 52 ff bd 43 04 96 3d 08 07 63 bd be 1b 17 3d
       -0.12466847 0.073250316 -0.055426627 0.03689169
000390 70 dd 66 3c 08 a7 1f 3e 0d 2b b7 3d 53 e8 dd bc
       0.014090881 0.15591061 0.08943758 -0.02708832
0003a0 0c 25 cb bc cc ac 4e bd 6a 02 2a bd 53 11 07 3e
       -0.024797939 -0.05045776 -0.04150621 0.13190202
0003b0 1c 1a 07 3e ad bf 29 bb 7a ce 51 be c8 03 80 3c
       0.13193554 -0.0025901601 -0.20488921 0.015626803
0003c0 17 72 16 3e b8 a6 d8 38 28 16 ed 3d 12 d2 47 bd
       0.1469196 0.000103307364 0.115764916 -0.048784323
0003d0 9b 87 a1 bd 78 f3 e7 3c c7 e9 87 3c 2b bb 7d 3d
       -0.07887193 0.028314337 0.016590966 0.061946075
0003e0 64 17 d8 3d e4 a2 52 bd 1e 6c 7a bd 75 6f 20 be
       0.105513364 -0.051424876 -0.061138265 -0.15667517
0003f0 19 d2 48 3b 76 60 a7 bd 01 a1 9f 3d ef 66 4b bd
       0.0030642806 -0.08172695 0.07794381 -0.049658712

fc3.bias f4 [32]
000000 49 38 a7 bc cb b2 d9 bd 90 e5 ab 3c 49 c3 38 bb
       -0.020412581 -0.10629805 0.020983487 -0.002819257
000010 0a 22 b2 bd bf 6d cd 3c 95 48 b9 bd 78 05 50 bc
       -0.08697899 0.025076745 -0.09047047 -0.012696616
000020 b0 45 15 3e f7 9f 8c bb d2 af 20 bc ae ef e7 3d
       0.14577365 -0.0042915302 -0.009807544 0.11325012
000030 d9 d9 07 3e 5b 46 bb 3d 00 20 d4 bb bc 52 96 bd
       0.13266696 0.091442786 -0.0064735413 -0.07339999
000040 dd 91 e3 3d c1 1d aa 3c 39 7f a6 3d 8c 13 5e 3d
       0.111118056 0.02076614 0.081297345 0.05421786
000050 1a 32 a9 3d 4b 93 93 bd 80 8d 36 bb bd 69 3e bd
       0.08261509 -0.07205828 -0.0027855337 -0.04648756
000060 8c e1 cc bd 7e 03 99 3d 38 32 eb 3d 17 ff 7e bd
       -0.10003957 0.07471369 0.11484188 -0.06225499
000070 dc ab e0 bc ce 4d 93 bd 65 59 87 3c 23 82 ef 3d
       -0.027425699 -0.071925744 0.016522119 0.116947435

fc4.weight f4 [1, 32]
000000 26 d1 57 be cc 45 35 be 6e 38 f0 3d af 2b 4f 3e
       -0.21075878 -0.17702407 0.11729513 0.20231508
000010 02 b3 bb 3d a9 36 58 be 61 92 82 bd 28 42 e6 3d
       0.091650024 -0.21114601 -0.06375576 0.11243087
000020 89 93 24 3e 0b 88 5f be 9f f4 57 be 5c 25 8f 3d
       0.16071905 -0.2182924 -0.2108941 0.069895476
000030 fa 14 e1 3d ff cb 50 3d ac 0d 6d 3d d9 33 39 3e
       0.10990329 0.050975796 0.057874367 0.18086185
000040 33 11 21 bd 5d 10 45 3d 40 28 36 be 10 c0 95 bc
       -0.039323043 0.04811131 -0.17788792 -0.01828006
000050 6f cd 2b bd c5 80 ab be 00 91 9a ba 87 2e 70 3e
       -0.041943964 -0.3349668 -0.0011792481 0.23455249
000060 34 c8 1e 3d 6f 07 a5 3d 0b 53 b9 bd 8a 2a 26 3e
       0.038765147 0.080580585 -0.09049042 0.16227165
000070 2f a7 62 3d 03 b3 e2 bd a7 31 e2 3d 59 99 25 be
       0.05533522 -0.110693 0.11044627 -0.16171779
