process/predict/models/datu/mlp_model.pth (torch, 12124 bytes, 5 tensors)

fc1.weight f4 [64, 3]
00000000: a8fa aabe 6449 df3e 607c 8bbe 6afb ba3e
00000010: 9c65 80be 87a8 51be 6a7c eb3e 8d47 c93d
00000020: 6051 bd3e 24b3 37be f038 11bf 867a 393e
00000030: e1aa c7be 6303 8abe 4e1f 6dbe c009 e83c
00000040: 0e7b 8c3e 34b3 51be 7ece b5be 93f9 0fbf
00000050: bc36 c8be f00d 8bbe a530 9bbb a82e b0be
00000060: 1f6c e7be 5eb5 dcbe 1dc3 c93e 8bbd ab3e
00000070: 2d2c 013f cdb2 05bd 34e3 123d 4701 e1be
00000080: 4a3c 43be 3ccf 0b3f 7425 e2be 9096 48bd
00000090: beb7 fd3e bc0e 453e 3968 e13e 907c ab3e
000000a0: 034b f43d ab7a 07be 68ce 1bbe c808 e33e
000000b0: e067 fdbd 600d 50be c596 9abe 94a8 81be
000000c0: 800a 01bf 8d9f d7bd deb7 043f ea7d 583d
000000d0: f542 19be 6f51 ac3e 6973 9f3d 08a5 4b3e
000000e0: e584 f93e 50c3 cd3d 706a e43e 4036 043e
000000f0: 1c09 44be 5ae1 9c3e 2456 24be 2da4 c0be
00000100: 5968 4d3e bc2d 31be a065 5e3e 94f8 cabe
00000110: ae43 db3e aa90 0abf adc7 6dbe 3edd 433e
00000120: 56a8 38be b60b b73e de9d 7fbe 881c ef3e
00000130: 5c7f efbe e0b3 92bd b13f e6be 0c77 9f3e
00000140: f0f8 1a3d 4577 f2be 062e 64be c029 79be
00000150: 8838 4d3e d55e 9dbe c8ef 1cbe 2373 07be
00000160: 2760 f7be 1711 bfbe ea48 ea3e 6716 a53d
00000170: d57a 44bd 3b79 ad3e d84d 58be 2b63 203e
00000180: 7b03 7d3e 848e 0fbf dde8 853e c007 fa3e
00000190: 94fd 093e 101d 8cbd be5d e93e 4565 fcbd
000001a0: a821 f6bd 0051 413c 6d37 e5be 0676 5abe
000001b0: b6af 80be c770 33bd 89eb 983e f97c 49be
000001c0: c997 3dbe 9355 983e ad39 873e 11ef 773c
000001d0: ad64 483e 8354 c8be 056f 00bf f829 e53e
000001e0: 6863 bc3e 7ae1 cbbe bf6f b73e c0b6 013f
000001f0: ab57 02bf 0508 97be 86d2 1d3e 68db e8be
00000200: abeb 893e 7a7c cc3e 439c 973e bacd 5e3d
00000210: f03d 863d a8c5 0c3f 402c 1e3c b2c3 2fbe
00000220: c100 01bf 21e2 e83d b9ed e9be c937 b5be
00000230: aa35 043f acc1 20be f014 cabe cee0 993e
00000240: 13f1 9f3e db94 f23d 7dc0 c8be b096 2a3e
00000250: f8d1 07bf 45b8 21bd e53f e1be 0c2e 723e
00000260: e4cb d2be 93c6 b5bc 2456 d33d a282 85be
00000270: 1f0d 963e ee63 79be 5624 9a3d e176 fabe
00000280: 088e 693e eecc be3e 3843 913e c3f5 ef3e
00000290: 93f4 0a3d 7ed6 063f acf1 2b3e 8449 84be
000002a0: 5b08 d63d 8593 47be 9bbe 673e a0ba cabc
000002b0: d40e b93e 04d8 d4bd 44b5 d23e 2c65 c03e
000002c0: 8f47 eabd 86da d0be aa36 50be cdaf 16be
000002d0: 12ec 00bf 80f6 61bd 748e 233e ed72 dcbd
000002e0: 34f8 093d 7061 70be 16cd fdbe 440d afbe
000002f0: f4fd d4be 46d5 eabe 19c3 0b3f 431c 0a3f
-0.3339436 0.4361068 -0.27243328 0.3651994 -0.25077522 -0.20474444 0.45993358 0.098281
0.36976147 -0.1793943 -0.56727505 0.18113145 -0.38997558 -0.2695571 -0.23156473 0.028324962
0.27437633 -0.20478517 -0.35509104 -0.56240195 -0.3910426 -0.2715907 -0.0047360235 -0.34410596
-0.45199677 -0.43107122 0.39406672 0.33543047 0.5045803 -0.03264122 0.03586121 -0.43946287
-0.19065967 0.5461309 -0.441692 -0.048971713 0.49554247 0.19243902 0.44024828 0.3349347
0.1192837 -0.13230388 -0.15215456 0.44342637 -0.12373328 -0.20317602 -0.30193153 -0.25323927
-0.50406647 -0.10528479 0.5184306 0.052854456 -0.14966948 0.3365588 0.077856846 0.19887173
0.48734203 0.100470185 0.44612455 0.1291132 -0.191441 0.3064068 -0.16048485 -0.37625256
0.20059337 -0.17302603 0.21718454 -0.39642775 0.42825073 -0.5412699 -0.23220702 0.19127366
-0.18032965 0.35751122 -0.24962565 0.46701455 -0.46776855 -0.07163215 -0.44970468 0.31145513
0.03783506 -0.4735662 -0.22283182 -0.24332333 0.20041096 -0.30736414 -0.15325844 -0.13227515
-0.48315546 -0.37317726 0.45758754 0.080609135 -0.047968704 0.33881554 -0.21123445 0.1566283
0.24708359 -0.56076837 0.26154223 0.48834038 0.13475639 -0.06841481 0.45579332 -0.12324003
-0.12018138 0.011799097 -0.4476885 -0.21334085 -0.25134057 -0.043808725 0.298672 -0.1967658
-0.18514933 0.29752788 0.2641119 0.0151326815 0.19569655 -0.39126977 -0.501694 0.44758582
0.3679459 -0.39820462 0.35827443 0.5066948 -0.5091502 -0.29498306 0.1541234 -0.45479894
0.26937613 0.39938718 0.29611406 0.054395415 0.065547824 0.549891 0.009654105 -0.17164496
-0.50391775 0.11371256 -0.4568918 -0.35394123 0.51644385 -0.1569888 -0.394691 0.30054325
0.31238613 0.11844798 -0.39209357 0.16659045 -0.5305476 -0.039482374 -0.4399406 0.23650378
-0.4117118 -0.022189414 0.103191644 -0.26076227 0.29306886 -0.24354526 0.07526462 -0.48918822
0.22808087 0.37265724 0.28371596 0.4686719 0.03392465 0.5267104 0.16791409 -0.25837338
0.104508124 -0.19489868 0.22631304 -0.024747193 0.36144125 -0.10392764 0.4115392 0.37577188
-0.1143943 -0.4079172 -0.20333353 -0.147155 -0.50360215 -0.05516672 0.1597231 -0.10764108
0.03368397 -0.2347467 -0.4957053 -0.34189808 -0.416 -0.4586584 0.5459457 0.53949374

fc1.bias f4 [64]
00000000: 69c5 8fbe c7bf cc3e 81b2 823e 87c8 0f3e
00000010: f10c 823e 9468 6cbe e47e 133f d361 db3e
00000020: 1c33 813e 0bfe be3e c72f 333e f1af f03e
00000030: ea32 6fbd 49cf 41be be0f c0be bd6b 08bf
00000040: de26 92be 1e2e d1bc 4424 a83d 22f9 dfbe
00000050: 8c53 8ebe 89fd c03e 65c4 90bd 0e51 9f3e
00000060: 9272 e6be 2aaf e7be 0c42 d8be 896d 9b3e
00000070: f60b acbe 1a7e b13e b7fc 293e 9e14 a33d
00000080: 4dd8 083f 4843 ffbe c8aa f7bd 80dc 43bd
00000090: 4a0e b43e c004 1b3e 0f48 c13e de33 ce3d
000000a0: 6020 a2be 1c9a 02bf 3cbb ea3e f270 703e
000000b0: f41c 0fbe b06b 0d3f 06a1 e83d 46a3 0dbf
000000c0: ae68 d43e 7e80 02bd 224c eabe 002b cb3d
000000d0: 86ef 92bd dab7 ffbe 50c1 913e 33f3 eebe
000000e0: 8bf9 93bd 8034 a0be 5c8f 073f 9448 023f
000000f0: 007e 253b 4dd5 0e3f 2009 7bbe b32a dd3d
-0.280803 0.39990065 0.25526813 0.14041339 0.25400499 -0.23086768 0.57615495 0.4284807
0.25234306 0.37303194 0.17498694 0.47009233 -0.058398165 -0.1892673 -0.3751201 -0.53289396
-0.28545278 -0.025534686 0.08210042 -0.4374476 -0.27798116 0.37693432 -0.07068709 0.31116527
-0.45009285 -0.45250827 -0.4223789 0.30357006 -0.33602875 0.3466652 0.1660031 0.07962917
0.5345505 -0.4985602 -0.12093121 -0.047817707 0.35167152 0.1513853 0.3775029 0.10068487
-0.31665325 -0.510164 0.45845973 0.23480585 -0.13975888 0.55242443 0.11358838 -0.5532726
0.41486114 -0.03186082 -0.4576121 0.09920311 -0.07174592 -0.49944955 0.28467798 -0.4666992
-0.07225331 -0.31290054 0.52953124 0.50891995 0.0025252104 0.5579422 -0.245152 0.1079916

fc3.weight f4 [32, 64]
00000000: b0bc 1b3c 14c7 72bd 46f5 ed3c 4cdd e63d
00000010: bf61 58bc 60a0 82bc 65e3 ee3d 03c5 fcbd
00000020: 6d89 d5bd dc6c 15bd 98ea 36bc 35b9 c7bd
00000030: cb8f 54bd cc09 83bd 8e3c f1bd 648e e8bd
00000040: 2b1d f6bd 7d36 13bd 527d 4a3d 781d b7bd
00000050: 982a b9bc 5171 bd3d 9db2 873d 7df9 fdbd
00000060: 2056 de3b 823b adbd 44bb 643d 1a80 c53d
00000070: 30c8 a53c 7863 9ebd 565a eb3d cb30 09bd
00000080: e39b 993d 5ca9 a93d bf4c e73d e0a1 d9bd
00000090: 989b a73c 481a 81bd b315 733d 5034 42bc
000000a0: 5e7f 113d 1298 f93d 883c 04bd 819c 84bc
000000b0: 5851 adbc 2f53 dabd 5015 3c3c 5822 30bd
000000c0: f4f1 713d f003 d53b 761f bc3d 95db d3bd
000000d0: 013d e13c eaac 863d f44f bc3d 4003 193d
000000e0: cc92 913b dcc9 403d 2c18 00be 9dcb febd
000000f0: 3ab5 833d f0d8 1ebb 8c72 08bd 3931 803d
00000100: 1ce5 823d 0078 543d b27f efbd 7808 b8bd
00000110: c458 6e3d fe0e 8abd fa28 c1bd 6296 b83d
00000120: a02a 053d 3449 4b3d c687 afbd d071 b7bd
00000130: 928a 9bbd 0e99 85bd 4299 853d 6e7e c53d
00000140: a83d 99bc 809a 5f3c 30e7 4a3c 3061 7e3c
00000150: d49c 763d 40a0 5a3b 40af ed3c b283 d0bd
00000160: 7c3c 16bd 5c35 babd e206 9e3d de21 ff3d
00000170: aa8c bf3d 54e6 20bd 4c72 5ebd 00c8 49bd
00000180: 0010 e83c c857 cd3d 9257 82bd 20de 103c
00000190: 0ae5 f33d 7e9b 913d 007f 2c3b f690 9dbd
000001a0: 30be 00bd c063 f13b 30ff 403c e0bd 89bd
000001b0: 407a a9bc da2c d13d 00f8 fe3b c42d 50bd
000001c0: 62c1 ebbd 30e8 353c 20e2 9a3d b017 d6bc
000001d0: 16e1 f13d 6832 243d 1efc e6bd fa85 c13d
000001e0: 5840 c23d 20dc c93d 1a47 9abd 0055 9d3c
000001f0: eeb8 db3d 9ccf ae3d b66c cc3d 70bd 20bd
00000200: 1842 343d 83ab cbbd 57d5 993d db85 cc3d
00000210: 5f11 f8bd 4060 0f3c 33db d9bd f5d5 dabd
00000220: 59b7 9cbb 15a1 82bd 1aab 19bd 5071 9dbd
00000230: d16a bdbd 1725 b93d 5c8f 8dbd d48c 06bd
00000240: 3900 673d 3b35 9fbc 20c2 e2bc e6ac c93d
00000250: b803 70bd 0791 373d 6164 b33d be6a 823c
00000260: ec5e 043d 0005 f8bc 6acc a43d d832 9cbd
00000270: 76ff d5bd 4438 343c e420 113d 1a2e 013e
00000280: 64e5 07bd b8b8 03bd 2a4b 453d 4009 68bd
00000290: 012b 883c 7f7e f63d 0927 3c3d 288f cbb9
000002a0: 95d5 32bd 9c66 7dbd 64c7 80bb 7da3 f13d
000002b0: e0df 41bd 1828 eebc 7b9f 233d ec39 843d
000002c0: 5d18 4c3d efb3 003e 40e3 523c f3d8 5e3c
000002d0: e2ac 043e 0014 223d f3a1 68bc 6057 dd3d
000002e0: a5dc d13d e077 8d3c aa39 9bbd 0051 d53d
000002f0: 129f dbbd 74da 0cbd 58ff 9bbd 0fd1 c63d
00000300: 32ae c33d 2dcd c03d cceb 0dbd f252 a4bc
00000310: 4d66 ee3c 7887 5bbd 819f b43d 700d c5bb
00000320: e5fe 593d 6d1f c83d 69bd 84bb ff87 333d
00000330: 3962 4e3c ee35 3abd 000b e4bd f087 513d
00000340: 5072 c7bd 6cab 30bd 5698 923d a849 e33d
00000350: 2eba 83bd 4441 a93d c4ba da3d 7112 0b3d
00000360: 666b fdbd 00db 2c3d 18ee ebbc 366a 833c
00000370: 20bf cc3b 1378 2f3d da34 863c 6557 c03d
00000380: aa44 ce3d ac54 363d 8337 753d b8b9 903c
00000390: 9741 88bd 09bc 0b3d d674 dcbd bca6 8cbd
000003a0: b977 68bc 08f8 633d 00e5 16bd a062 bf3d
000003b0: c049 4e3c 2e5e a7bd c00d b2bc 80bf 183d
000003c0: ec42 81bb 8af5 b43d 780e 1cbd 3a60 9a3d
000003d0: 610d 2d3d dccf 7ebd bfaa ecbc deff ef3d
000003e0: fe77 3d3d 6859 f5bc 9eeb a03d cfa7 8ebd
000003f0: 5ec5 fa3d 8673 a63d 20d1 b6bd d2cf f83d
0.009505436 -0.059271887 0.02904762 0.11272678 -0.013206898 -0.015945613 0.11664466 -0.123422645
-0.104266025 -0.03648077 -0.01116433 -0.09752122 -0.051894944 -0.06398353 -0.11779128 -0.11355284
-0.12017282 -0.035940636 0.04943592 -0.089411676 -0.022603318 0.09250129 0.06625865 -0.12401102
0.0067851692 -0.08458616 0.055842653 0.09643574 0.020237058 -0.07733816 0.114918396 -0.0334938
0.07500436 0.08284256 0.11293935 -0.10626578 0.020459935 -0.06303841 0.059346866 -0.011853293
0.035521857 0.12187208 -0.03228429 -0.016187908 -0.021156952 -0.10660397 0.011479691 -0.043001503
0.059068635 0.0065007135 0.09185688 -0.10344616 0.02749491 0.065759495 0.09194937 0.037356615
0.0044425484 0.047067508 -0.12509221 -0.1244118 0.064310506 -0.0024238192 -0.033312365 0.062593885
0.063913554 0.051872253 -0.11694278 -0.0898599 0.058190122 -0.06741141 -0.09431644 0.09013058
0.032511353 0.04963036 -0.085708186 -0.08957255 -0.075947896 -0.065233335 0.06523372 0.09643255
-0.018706158 0.0136476755 0.012384221 0.015526101 0.060208157 0.0033359677 0.02901423 -0.10181369
-0.036678776 -0.09092209 0.077161565 0.124576315 0.093530014 -0.039282158 -0.05430822 -0.049263
0.028327942 0.100265086 -0.06364359 0.008842021 0.1190892 0.07109736 0.0026320815 -0.07693665
-0.031431377 0.0073666275 0.011779591 -0.06725669 -0.020688176 0.10213633 0.0077810287 -0.050824896
-0.11511494 0.011102721 0.07562661 -0.026134342 0.1181051 0.040087134 -0.11278556 0.09449382
0.09484929 0.09856439 -0.07533093 0.01920557 0.10728632 0.08535692 0.099816725 -0.03924316
0.044008344 -0.09944823 0.075113945 0.099864684 -0.12112688 0.008750975 -0.10637512 -0.1068534
-0.004782599 -0.0637838 -0.03751669 -0.07687628 -0.09248889 0.090402775 -0.06912109 -0.032849148
0.056396697 -0.019434562 -0.027680457 0.09847431 -0.058597296 0.044816043 0.0875938 0.01592004
0.032317087 -0.030275822 0.080468014 -0.07626885 -0.10449116 0.010999743 0.035431758 0.12615243
-0.03317775 -0.032158583 0.048167385 -0.056649446 0.016622068 0.12035846 0.045935664 -0.00038825837
-0.04366072 -0.061865434 -0.003930019 0.11798761 -0.047332644 -0.029071853 0.039947014 0.0645636
0.049827922 0.12568639 0.012871563 0.013601529 0.12956575 0.039569855 -0.014198768 0.10807681
0.10247163 0.017269075 -0.07579358 0.1041584 -0.107237 -0.03438802 -0.07617062 0.097078435
0.095547095 0.09414134 -0.0346487 -0.020059083 0.029101515 -0.05359599 0.088194855 -0.0060135648
0.053221602 0.09771619 -0.0040508998 0.043830868 0.01259666 -0.045461588 -0.111349106 0.05115503
-0.097386 -0.04313223 0.07157962 0.11098033 -0.06431995 0.082644016 0.10680154 0.033953134
-0.12374 0.042201042 -0.028800055 0.016041856 0.00624837 0.04283912 0.016382623 0.09391669
0.100716904 0.044514343 0.059867393 0.017666683 -0.06653135 0.03411487 -0.10764472 -0.068677396
-0.0141887 0.055656463 -0.036839485 0.09344983 0.012590826 -0.0817226 -0.021735072 0.037292004
-0.0039447453 0.08835895 -0.038099736 0.07537885 0.042249087 -0.06220995 -0.028890012 0.11718725
0.04625701 -0.029949859 0.078574404 -0.06965601 0.12244676 0.08127503 -0.08926606 0.121490136

fc3.bias f4 [32]
00000000: c927 813d 80a7 573d b654 f33d 4402 3b3d
00000010: 5ddd f63d d5a9 c0ba 463d 7ebd 868c d0bd
00000020: 9284 0e3c 9449 c33c fb7f 27bb 2ed0 233d
00000030: 1e6e d43d 9207 e4ba f0dd 17bd df61 a2bc
00000040: 7010 543c 46a5 883d a92b 8abd b69a 24bd
00000050: 61df 79bd c507 903d 3c77 743d 4b78 7e3d
00000060: aca7 83bc 390a 233d 4414 583d 6028 c53c
00000070: 2287 00be 477e 933c 9cc0 68bd b65b a8bd
0.063064165 0.052649975 0.11881392 0.045656458 0.120539404 -0.0014699051 -0.062070154 -0.10183053
0.008698599 0.023838796 -0.002555846 0.039993457 0.10372566 -0.0017397276 -0.03707689 -0.01982206
0.012943372 0.066721484 -0.06746609 -0.040186606 -0.061004046 0.07032732 0.059684023 0.06212644
-0.016071163 0.03980467 0.0527537 0.024067104 -0.12551549 0.01800455 -0.05682431 -0.082206175

fc4.weight f4 [1, 32]
00000000: 394e 31be ec6c 48bd f5d4 193e 8106 fcbb
00000010: 3776 0e3e 86fc 77bd 07fd b63d bea8 aa3d
00000020: 6730 1d3e ca15 17be d9e3 26be 9569 1f3e
00000030: c679 09be c39b 233e b01a 18bd 2539 7dbc
00000040: 518e 94bd 8763 623d bcf7 0dbe e0c3 8b3d
00000050: 89ee ae3c 9ecc 20bd 94c5 693d 9df5 943c
00000060: b6f2 0ebe 2ed5 a33d 3fb4 0ebe 0383 1ebe
00000070: af39 11be 6635 07be 5b95 e9bd b211 c13d
-0.17314996 -0.048932 0.15022643 -0.007691205 0.13912283 -0.06054356 0.0893498 0.08332966
0.15350495 -0.14754406 -0.16297854 0.1556762 -0.13425359 0.15977387 -0.037134826 -0.015455519
-0.07253707 0.055270698 -0.13864034 0.068244696 0.021353977 -0.03925764 0.05707319 0.018183524
-0.13959774 0.07999645 -0.13935946 -0.15479665 -0.14182161 -0.13203964 -0.114054404 0.09427203
