process/predict/models/mayu/mlp_model.pth (torch, 12124 bytes, 5 tensors)

fc1.weight f4 [64, 3]
-0.39450377 0.40895596 0.19193777 0.46737033 -0.21208242 0.29400262 0.40629035 -0.30605888
0.18468657 -0.11919118 0.22816765 0.010948826 -0.3050123 -0.1716197 0.039440546 -0.20680356
0.536689 0.35607737 0.08208031 -0.07372143 0.49739918 0.51843166 0.34047464 0.62173915
0.31237328 0.32773277 0.38550878 -0.503115 -0.39076293 -0.30258793 0.12212228 -0.41318494
-0.16950496 -0.13510963 -0.21247488 -0.078143865 0.46391875 0.37347585 -0.22085413 -0.43737745
-0.23206684 -0.54949623 -0.5448464 -0.3401566 -0.48011026 0.38806733 0.48515773 -0.19518511
-0.4564495 0.21078499 -0.1840396 -0.29548007 -0.05911585 0.48372272 0.31951612 0.120253615
0.29443654 0.3358301 0.3540726 0.08182011 -0.5526577 -0.54753035 -0.23172599 -0.2873229
0.19709128 -0.44791216 0.15717638 -0.411913 0.5066644 0.28235257 0.44984594 -0.014029199
-0.3575344 0.18877919 0.54204166 -0.3678169 0.33196202 -0.5678433 0.26873723 0.25153935
-0.56145835 -0.46930197 -0.53365093 -0.4188341 0.08792472 -0.50565505 -0.45423836 0.19255158
0.48014718 -0.49556205 0.40632808 -0.40099198 -0.23650558 0.0017434373 0.49488646 0.42420584
0.56040394 -0.14479867 -0.075848006 0.26667368 0.17308713 0.1601768 -0.0018568409 0.24555992
0.3389315 0.3528318 0.5388896 -0.118164584 -0.048785567 -0.0015228987 -0.39497763 -0.033205092
-0.20751134 -0.47175753 -0.3241072 -0.40161064 0.33600315 -0.24427287 -0.55382335 -0.526035
0.1051439 -0.3049538 0.5765815 0.23908404 -0.05772676 0.27804875 -0.19266067 0.5622435
-0.022808935 -0.4058875 0.3009821 -0.25352982 0.3047007 0.017553767 0.52651006 0.1430796
0.23121142 -0.26043975 -0.023881992 -0.17394395 -0.4183992 -0.19899805 0.4287517 -0.557099
0.019835658 -0.24938157 -0.25406742 0.4165212 0.33618948 0.30320165 -0.024777114 -0.14679465
0.14920706 -0.22861083 0.3585962 0.2517046 0.012465349 -0.4244983 0.46493608 0.6094
-0.083376326 0.36006477 0.4163371 -0.540343 0.3452149 -0.4667644 -0.29440746 -0.3681739
-0.23529889 0.07826952 0.24611603 -0.24912867 0.4152493 -0.19686753 -0.08192915 -0.22689447
0.034236193 0.36388448 0.43994883 -0.36798006 0.37716112 -0.4032387 0.3788288 -0.14069434
0.23134203 0.018565226 0.13494486 0.23877038 0.46077302 0.20736033 -0.39728555 0.63858855
00000000: 66fc c9be ad62 d13e 568b 443e 2a4b ef3e
00000010: 222c 59be 8387 963e 4a05 d03e c0b3 9cbe
00000020: 7a1e 3d3e 811a f4bd c8a4 693e b462 333c
00000030: 922a 9cbe 13bd 2fbe 698c 213d 50c4 53be
00000040: 7364 093f c64f b63e b919 a83d 43fb 96bd
00000050: 1bab fe3e f0b7 043f b152 ae3e 4c2a 1f3f
00000060: 64ef 9f3e 97cc a73e 6861 c53e 25cc 00bf
00000070: 1412 c8be ceec 9abe 3f1b fa3d fa8c d3be
00000080: b592 2dbe 2e5a 0abe 0493 59be e409 a0bd
00000090: c286 ed3e 3a38 bf3e 9627 62be f0ef dfbe
000000a0: eea2 6dbe c9ab 0cbf 0e7b 0bbf 0229 aebe
000000b0: 03d1 f5be c3b0 c63e 9866 f83e 9bde 47be
000000c0: c0b3 e9be 05d8 573e e074 3cbe 2a49 97be
000000d0: 7623 72bd 81aa f73e 9e97 a33e 8747 f63d
000000e0: 63c0 963e ecf1 ab3e 0149 b53e 4d91 a73d
000000f0: fa7a 0dbf f32a 0cbf 9449 6dbe fd1b 93be
00000100: 4cd2 493e be54 e5be d8f2 203e 43e6 d2be
00000110: c2b4 013f 8490 903e 3552 e63e bada 65bc
00000120: c00e b7be 554f 413e 3ec3 0a3f 7f52 bcbe
00000130: edf6 a93e 2e5e 11bf ed97 893e c4c9 803e
00000140: bcbb 0fbf 5948 f0be 599d 08bf 6c71 d6be
00000150: e011 b43d 9c72 01bf ee91 e8be 3e2c 453e
00000160: dad5 f53e 4fba fdbe 3c0a d03e d24e cdbe
00000170: 852e 72be 0c84 e43a c261 fd3e 8231 d93e
00000180: a276 0f3f 1a46 14be 3356 9bbd 7489 883e
00000190: c13d 313e 6305 243e 3e61 f3ba 0f74 7b3e
000001a0: 6e88 ad3e 5fa6 b43e abf4 093f 4600 f2bd
000001b0: 60d3 47bd 009c c7ba 823a cabe 1002 08bd
000001c0: da7d 54be 348a f1be 61f1 a5be e99f cdbe
000001d0: 9b08 ac3e ab22 7abe 5ec7 0dbf 3baa 06bf
000001e0: af55 d73d e822 9cbe d89a 133f 72d2 743e
000001f0: e572 6cbd 685c 8e3e d748 45be 31ef 0f3f
00000200: ced9 babc 7dd0 cfbe 531a 9a3e a9ce 81be
00000210: bb01 9c3e ebcc 8f3c 5dc9 063f 7583 123e
00000220: b0c2 6c3e 5c58 85be 2ba4 c3bc 5d1e 32be
00000230: 6c38 d6be 25c6 4bbe 5885 db3e 0a9e 0ebf
00000240: 647e a23c e25d 7fbe 2015 82be 4442 d53e
00000250: 0721 ac3e 3f3d 9b3e 60f9 cabc 5651 16be
00000260: bcc9 183e f518 6abe ec99 b73e 6ddf 803e
00000270: 773b 4c3c d757 d9be 1a0c ee3e a301 1c3f
00000280: 35c1 aabd 695a b83e 232a d53e eb53 0abf
00000290: 02c0 b03e befb eebe 93bc 96be 4a81 bcbe
000002a0: 31f2 70be c54b a03d d705 7c3e 961b 7fbe
000002b0: 8e9b d43e a497 49be 78ca a7bd 0657 68be
000002c0: 403b 0c3d 114f ba3e f940 e13e e267 bcbe
000002d0: 431b c13e 4e75 cebe d9f5 c13e 2d12 10be
000002e0: ede4 6c3e 1a16 983c fc2e 0a3e 3980 743e
000002f0: 71ea eb3e 4456 543e 0369 cbbe 8a7a 233f

fc1.bias f4 [64]
0.35494968 0.014614314 0.056975372 0.37543344 0.49009523 0.23236048 0.15891433 0.3542208
-0.25753552 -0.19367927 -0.09030112 -0.13421643 0.21576422 -0.26281738 -0.28403085 0.022339726
0.3109923 0.32425675 -0.30117482 0.3623802 0.23991694 0.023527516 0.3274838 0.41621283
-0.25355875 -0.1118451 0.45716333 -0.087236404 -0.4476652 -0.095715515 0.042703558 -0.42724454
0.21971817 -0.16968429 0.06792436 -0.351003 -0.43380672 -0.40251923 0.41716078 0.2939318
-0.35930347 -0.017323287 -0.37897533 0.1817779 -0.1764896 -0.32138446 0.4542645 -0.078350544
0.38960144 -0.021143254 -0.53810394 0.123582765 0.15234235 -0.2987844 -0.3185299 -0.5453725
0.050709397 0.25917435 -0.012136638 -0.44216895 0.5256133 -0.13756177 0.47420886 -0.30140993
00000000: f7bb b53e e070 6f3c 025f 693d d038 c03e
00000010: c3ed fa3e e8ef 6d3e 70ba 223e 6e5c b53e
00000020: b2db 83be dc53 46be cbef b8bd 0870 09be
00000030: 4cf1 5c3e 0090 86be 7e6c 91be cd01 b73c
00000040: 623a 9f3e fb04 a63e 9633 9abe e689 b93e
00000050: c9ac 753e c7bc c03c f5ab a73e d919 d53e
00000060: 74d2 81be 0b0f e5bd 5011 ea3e 00a9 b2bd
00000070: 6034 e5be 7f06 c4bd ede9 2e3d ccbf dabe
00000080: cdfd 603e b8c1 2dbe ed1b 8b3d aab6 b3be
00000090: ea1b debe 0017 cebe 1996 d53e 3b7e 963e
000000a0: a0f6 b7be 91e9 8dbc 0e09 c2be fc23 3a3e
000000b0: b1b9 34be 818c a4be 5b95 e83e 4076 a0bd
000000c0: d779 c73e 9e34 adbc 2ec1 09bf f618 fd3d
000000d0: a2ff 1b3e 45fa 98be 5a16 a3be 889d 0bbf
000000e0: a8b4 4f3d 80b2 843e c0d8 46bc f863 e2be
000000f0: 988e 063f fedc 0cbe 81cb f23e 6752 9abe

fc3.weight f4 [32, 64]
-0.01632768 0.022668233 0.041286897 0.08748754 0.11196217 0.04542502 0.079684235 0.021139346
-0.09636774 0.099848375 -0.056128558 0.018004581 -0.054885436 -0.012851179 -0.015484557 -0.13054697
-0.062470384 -0.08686638 0.01763018 0.11116901 -0.033810005 0.08132292 0.08323852 -0.08235813
-0.0046012443 0.07621682 -0.12598455 -0.009072423 -0.08787942 0.13261402 -0.21458519 0.0225423
-0.063588664 0.051401474 -0.034214355 -0.11924316 0.061173886 -0.111082405 0.045047585 -0.144349
0.13681231 0.009377112 -0.11784972 -0.118241645 -0.020379977 -0.065214515 0.008851714 -0.0014469221
-0.04889232 0.050290875 0.018066555 -0.0029523377 0.03437486 0.08788994 0.016513852 0.07211484
0.051813543 -0.09467702 0.050905198 -0.12853257 0.073059246 -0.03293472 0.13284749 0.014193074
0.080523714 -0.37063545 -0.11266952 0.020385036 -0.010397845 -0.012948622 -0.069740735 -0.072033145
0.069883324 0.014409244 -0.049890727 0.11448732 -0.08800607 -0.102273956 -0.05521305 0.009397792
0.015481879 -0.033177517 -0.17725645 0.11907468 0.10021839 0.24207528 0.08772148 -0.018742587
-0.23342788 0.23645519 0.0133596165 0.02458261 -0.025354698 0.010327789 -0.035141304 0.015060578
0.10988031 0.018398512 -0.07754539 0.08146427 -0.010851294 0.061484084 0.04127346 0.06868968
0.123214275 -0.06789 -0.14047869 0.07555664 -0.10989951 -0.0627634 0.17025177 0.021900088
-0.00033054952 0.032120287 0.050011635 0.0018496353 -0.052075814 -0.44634703 -0.008640721 0.05685383
-0.15669239 -0.065688536 0.026636228 0.08955991 -0.06063237 -0.011905519 -0.066967346 -0.047449633
0.119292215 0.017638998 -0.035388444 -0.036104806 -0.068751335 0.12559517 0.12574472 -0.097135104
0.042197566 0.032235235 -0.059828527 0.060005113 -0.11953663 0.12015428 -0.048863962 0.08083641
-0.014589629 0.05454067 0.026575683 0.09452452 -0.08927075 -0.08551088 0.056607973 -0.042024285
0.11748808 -0.06877175 -0.10232884 0.056650624 -0.07361527 0.01325633 0.15964581 0.04235628
-0.17592672 -0.060595587 0.11393757 0.058514763 0.06422925 0.039915457 0.024027323 -0.06390031
0.0024176699 0.1413697 0.04068816 -0.09257164 0.15776032 -0.04882883 0.10647312 -0.0007229614
0.061304234 0.029708304 0.07357991 0.02274088 -0.019258818 0.086440906 -0.11638443 0.05839677
0.1435608 -0.031865496 0.043237418 -0.052066337 -0.055528935 0.120296456 0.11674272 -0.037482876
-0.07282047 0.11757197 -0.15335928 -0.088428944 -0.07585649 0.008913872 0.1108996 0.061201595
0.14656319 -0.07027878 0.11161135 -0.10623504 0.057310432 0.07979463 0.017545715 -0.080403574
-0.11292225 0.17231941 0.08660182 -0.060452826 0.057811856 -0.057011724 -0.02295026 0.08407283
0.13532726 -0.21775672 0.0034041044 0.05347033 0.109874934 -0.0547561 -0.11096548 0.089775175
-0.16407774 0.09274497 0.15724167 -0.07068482 -0.11243987 0.0038121343 -0.085574426 0.11349672
-0.04783095 0.061295234 0.14631471 0.091692194 0.1507194 -0.10813538 -0.11949634 -0.10228428
-0.1590886 0.14187177 -0.083752036 0.1252603 0.002280717 0.028360443 0.018447094 0.10554363
0.078462504 -0.10425405 0.019015133 -0.07400947 -0.08946067 0.09772486 -0.0822779 -0.0626865
00000000: a0c1 85bc bbb2 b93c 731c 293d ab2c b33d
00000010: 6c4c e53d 960f 3a3d 7d31 a33d 6c2c ad3c
00000020: 735c c5bd 4e7d cc3d 0fe7 65bd 587e 933c
00000030: 8dcf 60bd c08d 52bc f0b2 7dbc 1bae 05be
00000040: f2e0 7fbd 00e7 b1bd 2b6d 903c 94ac e33d
00000050: 5c7c 0abd a28c a63d f578 aa3d 61ab a8bd
00000060: 09c6 96bb 9017 9c3d 1802 01be 80a4 14bc
00000070: 20fa b3bd f8cb 073e 38bc 5bbe a1aa b83c
00000080: c63a 82bd 5a8a 523d 5a24 0cbd c235 f4bd
00000090: 7891 7a3d 2c7f e3bd d183 383d 39d0 13be
000000a0: 8718 0c3e 75a2 193c 325b f1bd ad28 f2bd
000000b0: e9f3 a6bc 308f 85bd c806 113c a6a6 bdba
000000c0: 5043 48bd cefd 4d3d 5000 943c 027c 41bb
000000d0: a7cc 0c3d a4ff b33d 0f48 873c f2b0 933d
000000e0: 703a 543d 07e6 c1bd f881 503d 0b9e 03be
000000f0: 16a0 953d 8fe6 06bd 2c09 083e 118a 683c
00000100: 9ee9 a43d eec3 bdbe 47bf e6bd 85fe a63c
00000110: b95b 2abc 7526 54bc 3bd4 8ebd 1d86 93bd
00000120: fd1e 8f3d c014 6c3c 385a 4cbd 5478 ea3d
00000130: 873c b4bd 0275 d1bd 1427 62bd 32f9 193c
00000140: b5a7 7d3c 26e5 07bd b782 35be 6ddd f33d
00000150: 4d3f cd3d 95e2 773e 52a7 b33d 0e8a 99bc
00000160: b807 6fbe 4f21 723e 4be2 5a3c 7861 c93c
00000170: a8b4 cfbc e335 293c 54f0 0fbd a4c0 763c
00000180: ee08 e13d 7ab8 963c 1ed0 9ebd bdd6 a63d
00000190: a0c9 31bc bcd6 7b3d 5c0e 293d 2dad 8c3d
000001a0: c457 fc3d ea09 8bbd a5d9 0fbe 71bd 9a3d
000001b0: ff12 e1bd 198a 80bd 7b56 2e3e d067 b33c
000001c0: 9b4d adb9 9090 033d 00d9 4c3d 766f f23a
000001d0: 734d 55bd 9987 e4be d091 0dbc 90df 683d
000001e0: f873 20be b687 86bd 3834 da3c 306b b73d
000001f0: a659 78bd 5e0f 43bc 2d26 89bd 8c5a 42bd
00000200: 7a4f f43d a97f 903c 79f3 10bd a2e2 13bd
00000210: 80cd 8cbd 059c 003e 39c3 003e c5ee c6bd
00000220: 5bd7 2c3d 1809 043d c20e 75bd ecc7 753d
00000230: 9fcf f4bd 7213 f63d 9425 48bd 8f8d a53d
00000240: 5709 6fbc 0a66 5f3d 3fb5 d93c 1296 c13d
00000250: 95d3 b6bd 5420 afbd c3dd 673d a821 2cbd
00000260: 979d f03d 34d8 8cbd c891 d1bd 7c0a 683d
00000270: 9ac3 96bd 1431 593c 317a 233e c77d 2d3d
00000280: 2226 34be 1433 78bd 1a58 e93d 2dad 6f3d
00000290: a08a 833d 647e 233d f3d4 c43c 2ade 82bd
000002a0: c571 1e3b 38c3 103e a1a8 263d 3396 bdbd
000002b0: ec8b 213e bd00 48bd 940e da3d 1e85 3dba
000002c0: 261a 7b3d d45e f33c 10b1 963d 154b ba3c
000002d0: abc4 9dbc ee07 b13d f65a eebd 7431 6f3d
000002e0: 9a01 133e 6585 02bd b819 313d 8343 55bd
000002f0: 4f72 63bd fd5d f63d cf16 ef3d a587 19bd
00000300: e622 95bd 93c9 f03d 370a 1dbe 3c1a b5bd
00000310: a65a 9bbd 7d0b 123c 541f e33d 86ae 7a3d
00000320: a914 163e 52ee 8fbd 7e94 e43d c291 d9bd
00000330: 58be 6a3d 5e6b a33d 08bc 8f3c a1aa a4bd
00000340: c843 e7bd 8074 303e 4c5c b13d 629d 77bd
00000350: 20cc 6c3d 2085 69bd 2f02 bcbc 602e ac3d
00000360: 3b93 0a3e 9efb 5ebe 6517 5f3b b403 5b3d
00000370: 1c06 e13d ef47 60bd df41 e3bd 0cdc b73d
00000380: ff03 28be 13f1 bd3d f603 213e 34c3 90bd
00000390: e046 e6bd 00d5 793b a541 afbd f870 e83d
000003a0: 63ea 43bd b610 7b3d 86d3 153e 1ec9 bb3d
000003b0: 3056 1a3e 1576 ddbd 7fba f4bd 6c7a d1bd
000003c0: 1fe8 22be d546 113e 3086 abbd 3c44 003e
000003d0: 1578 153b 2954 e83c 5c1e 973c 4227 d83d
000003e0: f3b0 a03d 2683 d5bd a0c5 9b3c 4792 97bd
000003f0: 2837 b7bd f923 c83d 5181 a8bd c861 80bd

fc3.bias f4 [32]
-0.067628294 0.04018079 -0.010791354 0.045405287 0.12379618 0.057323385 0.083114795 -0.11365713
0.12165369 0.03606498 0.0870489 -0.098115504 -0.09242746 0.12019072 0.07594876 0.0041059027
-0.08245037 -0.04363802 0.017589005 -0.048282444 -0.063121185 0.08617206 -0.05951126 -0.0034178793
-0.081441924 -0.005299906 -0.049929988 0.027577313 0.14084901 0.10024089 -0.017393373 -0.08347003
00000000: b480 8abd 9d94 243d 38ce 30bc e5fa 393d
00000010: da88 fd3d edcb 6a3d 1738 aa3d 12c5 e8bd
00000020: 9225 f93d dfb8 133d b246 b23d c8f0 c8bd
00000030: 9c4a bdbd 8d26 f63d 068b 9b3d cf8a 863b
00000040: bddb a8bd c8bd 32bd d116 903c d0c3 45bd
00000050: ae45 81bd fa7a b03d 14c2 73bd 80fe 5fbb
00000060: 06cb a6bd d5aa adbb 6383 4cbd d1e9 e13c
00000070: b93a 103e 194b cd3d 8c7c 8ebc 56f2 aabd

fc4.weight f4 [1, 32]
-0.14047001 -0.26674226 0.20905174 0.07495937 -0.06974839 0.26264963 0.13255051 0.17253555
0.12465359 0.20611104 -0.08639002 0.08954101 0.09787594 -0.06618273 -0.10606752 -0.07064718
-0.16923828 -0.16217804 0.11944422 -0.08793677 0.089125946 0.19331865 -0.17405501 0.13373344
0.10798028 0.13437033 -0.06609523 0.05463682 -0.17552394 -0.056226224 0.044855885 -0.14906609
00000000: 5fd7 0fbe 7192 88be a911 563e 4c84 993d
00000010: 3ed8 8ebd 037a 863e 52bb 073e 29ad 303e
00000020: 624a ff3d c60e 533e 40ed b0bd 4761 b73d
00000030: 2e73 c83d d08a 87bd ee39 d9bd 78af 90bd
00000040: cd4c 2dbe 0012 26be 2c9f f43d 3118 b4bd
00000050: aa87 b63d 53f5 453e 7a3b 32be 6bf1 083e
00000060: c424 dd3d 6098 093e f05c 87bd dcca 5f3d
00000070: 8cbc 33be 784d 66bd ceba 373d c8a4 18be
