process/predict/models/tangjing/mlp_model.pth (torch, 12124 bytes, 5 tensors)

fc1.weight f4 [64, 3]
00000000: dd09 103d e71e 173f 6202 183f 6ed7 e53e
00000010: 8468 6c3e 0488 d63e 8a13 30be 0547 febd
00000020: 792d 0d3f 4d01 a5be 1c94 e6be 7c0b 143e
00000030: e7a4 5dbe 0f5d 633c 0882 1fbe 1f4c c7be
00000040: 28c6 1c3d 13d0 18bf bd7e e5be 9696 ecbe
00000050: d3eb 0cbf a4eb cbbe 571d 3b3e 4a65 9f3e
00000060: dd43 fd3b fa14 3dbd 734c edbe 4024 07be
00000070: 2819 14be 970c 123f a76e 5cbd 4b9c 0dbf
00000080: 422e 943b 5943 79be f7d2 c03c 4c0a e73e
00000090: 738a 5a3e 59d6 d6be 2dc1 61bd 6054 efbe
000000a0: b84e f0be 3478 c53e 7e45 d63e 8146 213e
000000b0: a595 e0be 66fc c4be 9881 0ebf cae6 ed3e
000000c0: 8a1c acbe 6e25 8ebe 24e4 42be 40d5 383c
000000d0: 68d9 9cbd 0afb 2cbe fd83 c03e 6721 163f
000000e0: bdee 393d 1092 84be 5873 d03e 641b 063f
000000f0: b453 94be 49ea 11bf 1b9a 04bf e1da 023f
00000100: 6f44 bd3e a0a0 00bf b839 8d3e 3073 d4bd
00000110: 061e bebe 6039 88bc 68e7 aabe e0f4 943c
00000120: d6e6 99be 5676 0ebe 5cf3 043f d973 ef3e
00000130: 17ef 2439 2989 d33d 89ec 9ebe b461 b0bd
00000140: 75a3 133f 4a3c 59be 5414 9bbe e0fd 57bd
00000150: 6c89 f93e 51a1 413e 98ff bb3e 6e5c 063f
00000160: a68c e5bd 5aec f83d c418 2cbe 0166 ee3d
00000170: 681e 30bf 7c75 d1be d6e4 c53e 91e4 bc3e
00000180: 8458 873e d609 febe f07e 83bd ac83 f33e
00000190: 295b b3be 9b85 b6be b02a d83e 537c e03d
000001a0: 2d29 1dbf 0540 123f b859 3f3d 0967 dcbd
000001b0: e888 133f 6aff f03d 648f 93be d2bb 9abe
000001c0: 8024 97bb a672 adbe a011 11bd 10ac 0fbe
000001d0: 1c3d fcbe 5c1b 8c3e 5064 a7bd 94eb 1cbe
000001e0: 9d1f f73e a9c1 973e a8ee 6d3e 223b 3fbe
000001f0: 4cf4 813e 4077 dd3d e861 11bf 3066 c4bd
00000200: 50b5 e23d 8785 01bf 62e2 d6be c037 a6be
00000210: f8cb 9d3e 3d57 0e3f 1d28 073f 7616 e3be
00000220: 107c 3b3e 85ed d5be 4094 f53e 5202 24be
00000230: 7098 c03d 2269 fc3e 1ddf 94be 39ef 0fbf
00000240: 27b9 fa3e 701a 883e 8936 d13e c13a 1b3f
00000250: dfe7 b7be c3c6 9dbe 98a7 0f3f 89e7 a8bc
00000260: 6206 e1be 27d1 073f 2985 89bc aaf1 b1be
00000270: 8012 4f3e ee95 bcbe 4f49 173f 8068 52bd
00000280: 83e6 183f 5879 0cbf 1374 e93e b5fa f1be
00000290: 3a5f 413e e015 c6bd 31c4 3abe 3a03 38bf
000002a0: 5fb8 bbbd 960e 0fbf 4737 1f3f 522a 0dbf
000002b0: 5292 32be bf17 fe3e dce8 e73e 66e3 913e
000002c0: f210 5ebe 6370 0dbf 31bf b23e 1331 053f
000002d0: 5857 9bbe 9228 58be 50ff 103d 3565 04bf
000002e0: 4888 c1be fc64 473e 4b56 003d d616 40be
000002f0: 4c1d babe d94f 9abc abca 0a3f 9692 b7bc
0.035165656 0.5903153 0.59378636 0.44890922 0.23086745 0.41900647 -0.17194954 -0.1241589
0.5514751 -0.32227555 -0.45034873 0.14457506 -0.21644937 0.013877167 -0.15576947 -0.38925263
0.038274914 -0.59692496 -0.44823256 -0.46208638 -0.5504734 -0.39828217 0.18272911 0.31131965
0.007729037 -0.046162583 -0.4634739 -0.13197422 -0.14462721 0.5705046 -0.053816464 -0.5531661
0.004522116 -0.24342097 0.023538096 0.45125043 0.21341877 -0.4196041 -0.055115867 -0.4674406
-0.46935058 0.3856827 0.41849893 0.15749551 -0.4386417 -0.38473815 -0.55666494 0.4646514
-0.33615524 -0.27762932 -0.19032341 0.0112813115 -0.076586545 -0.16892639 0.376007 0.5864472
0.045393694 -0.25892687 0.40713 0.52385545 -0.2897011 -0.56998116 -0.51797646 0.5111523
0.36966273 -0.50245094 0.27583098 -0.10373533 -0.3713228 -0.016628921 -0.33379674 0.018183172
-0.30058926 -0.13912329 0.51933837 0.46768072 0.00015729327 0.103288956 -0.31039837 -0.086123854
0.5767129 -0.21214405 -0.30288947 -0.05273235 0.48737657 0.18909194 0.3671844 0.52484787
-0.11208467 0.121544555 -0.16806322 0.116405495 -0.68796396 -0.40909946 0.3865115 0.36893132
0.2643472 -0.4961688 -0.06420696 0.47561395 -0.35030487 -0.35648808 0.42220068 0.10961213
-0.61390954 0.57128936 0.04671642 -0.1076184 0.5763078 0.11767466 -0.28820336 -0.3022142
-0.0046125054 -0.33876532 -0.0354172 -0.1403048 -0.49265373 0.27364624 -0.0817343 -0.15324241
0.48266307 0.29639938 0.23235571 -0.18674901 0.25381696 0.10813761 -0.5679002 -0.09589803
0.11069739 -0.5059437 -0.4196959 -0.3246441 0.30819678 0.55601865 0.52795583 -0.44353074
0.18309045 -0.41782776 0.47964668 -0.1601651 0.09404075 0.4929896 -0.29076472 -0.562244
0.48969385 0.2658267 0.4086192 0.60636526 -0.3591909 -0.30815706 0.561151 -0.020618217
-0.43950182 0.53053516 -0.016787129 -0.34754688 0.20221901 -0.36833137 0.59096235 -0.05136919
0.5972673 -0.54872656 0.4559637 -0.47261587 0.18883982 -0.09672141 -0.18238904 -0.71879923
-0.09166025 -0.5588163 0.6219372 -0.551427 -0.1743863 0.49627492 0.45294845 0.28493804
-0.21686152 -0.55249614 0.34911492 0.52028006 -0.30340075 -0.21109226 0.035399735 -0.5171693
-0.37799287 0.19472116 0.031332295 -0.18758711 -0.36350477 -0.018836902 0.54215497 -0.022408765

fc1.bias f4 [64]
00000000: 6dbb 0abd e768 0f3f 32ed 0b3f 426c 4ebe
00000010: 7555 b03e ef63 f93e edee cdbe 7515 993e
00000020: ddbb 8c3e 46f2 b63e 8f1f 083f a11f 9e3e
00000030: 86fd 813e 90a1 57be 0a7d 0b3d f34d 0c3f
00000040: f6fc 10bf ac60 7dbe f966 c8be e8c7 c3be
00000050: 18e2 abbd 7eb6 033f c3b2 98be 0ffd 98be
00000060: 6bcb 923e b7e3 b4be 3188 9b3d 8b42 9abe
00000070: c40a c73e 65b3 9e3e 02e7 893e f0dc 8ebe
00000080: 0022 6d3d ba1a f6be 98ff 46ba e67c 163e
00000090: e772 613e 5051 59bd 4c90 60be ff8a 8cbe
000000a0: 3b96 bcbe db07 0ebf f81a ff3d 3ce8 a9bd
000000b0: 1254 fabe 07b7 893e b959 b0be 9a46 773d
000000c0: 036e f2be e2c7 0e3f 3b64 42be 6535 e53e
000000d0: ca73 913e 4be0 973e 4871 973c 34cf 213f
000000e0: ca6f e73e 384d f13d fec3 95be 9861 e0bd
000000f0: 212c 87be f0a5 923d 37bd f33e ed08 153f
-0.03387015 0.56019443 0.54658806 -0.20158485 0.344402 0.48709056 -0.40221348 0.29899183
0.27487078 0.35731715 0.53173155 0.30883506 0.25388736 -0.21057725 0.034054793 0.5480644
-0.5663599 -0.24743909 -0.39141062 -0.38238454 -0.08392733 0.51450336 -0.29823884 -0.29880568
0.2867082 -0.35329983 0.07594336 -0.30128893 0.388754 0.30996242 0.26934057 -0.27902937
0.057893753 -0.48067266 -0.0007591187 0.14696082 0.22016488 -0.05305606 -0.21930045 -0.27449796
-0.36833367 -0.55480736 0.12456316 -0.08296248 -0.48892266 0.2689745 -0.34443453 0.060370065
-0.47349557 0.55773747 -0.18983547 0.447673 0.28408653 0.2966331 0.018486634 0.6320679
0.45202476 0.117823064 -0.29251093 -0.109561145 -0.26400855 0.07160556 0.47605297 0.58216745

fc3.weight f4 [32, 64]
00000000: 32f4 e03d 93f5 d63d 0386 c3bd a8f8 bcbd
00000010: 20a3 acbd a7f2 53be 066e ff3d 30e9 b8bd
00000020: 715f 193d 9bd6 a3bd 4a33 e6be 247a 02bd
00000030: 47b3 cc3e 2cdf 01bd e262 b23d ed3c 81bd
00000040: 2070 1b3d d083 eebd bf56 06be 5c5e 803d
00000050: 38e9 e93d 5201 663d c011 58bd 3839 4cbd
00000060: 1266 8f3d 2dfa 27bf 6d3c 28bd 8852 91bc
00000070: aaf1 793d e107 15bd 1283 70bd 0c4c ccbd
00000080: 10f6 73bd fc91 4cbd 228d 20bd d2d5 94bd
00000090: cc78 fdbc 1492 063d e229 8ebd 40b2 42bc
000000a0: 9f0a 39bc ee0c c73d 5a7c eabd 2ceb a53d
000000b0: 3e4b 7fbd 6cc5 233d 8463 bf3d ab4a 5bbd
000000c0: dd9a 703d 5ee2 80bd 9e27 50be 7c82 a73d
000000d0: 2336 c73d 18e5 9b3d b905 c1be 7dc5 733d
000000e0: 2ccf 1dbd 6674 21bd cc0a 153d e3e0 23bb
000000f0: e467 483d ccff 75bd 6829 413d 8e3b 88bd
00000100: b8da e83d a4be c33d 283b 813d 7275 e63d
00000110: fce5 85bd bb88 57bd 8664 b5bd ed70 ef3d
00000120: f6b0 1a3d 9696 aabd 6ffd e0be 01e3 523d
00000130: fa7c 863e c615 ec3d ea20 f3bd 8440 ba3d
00000140: 0ccb 16bd 98c6 aabd 0935 dc3d b1ea f8bb
00000150: 2878 eb3d 2631 4f3c 20cf 4dbc bc90 a33d
00000160: e90a cbbd 2c06 24bf 5f96 2ebd b6f4 cbbd
00000170: 7ecc 973c 7ec3 84bd ace4 febd b0d6 d13d
00000180: ca4c cd3d c80f e63c 621b fc3d 523d ce3d
00000190: d525 bfbd c054 3d3c 242c 6ebd e0ec d9bc
000001a0: db78 c4bb 3875 4e3d 4880 1cbd d82a a03c
000001b0: 871b 5ebd d4a0 623d 9061 4abd 4762 ddbd
000001c0: d2ae 8abc 816b 52bd dcf7 39be 8aae c7bc
000001d0: dcad 913c 7200 efbd a307 c6be 120b 9a3d
000001e0: ddf4 d9bd bf5a c1bd ce2b df3b 959b afbd
000001f0: 90e9 bb3c 5a9e d3bd e1c9 b6bd 845a e93d
00000200: 0427 d8bd 9838 c3bc 8053 2ebc e0b4 8c3d
00000210: 50bd 35bd 1817 e6bd a684 abbd 967f b4bd
00000220: 486b 5c3d c0a9 ff3b c4ce f63d 38b5 ddbd
00000230: cc80 623d 90ff e8bd e89e 5a3d 1c91 1d3d
00000240: 1c0f 6b3d f091 10bc c2ef e93d 8864 283d
00000250: f2fc b4bd 3e28 d1bd 806c 6e3d 001b e6bd
00000260: 442e 643d 4e20 debd 80ab 8abc 10e3 a8bd
00000270: fc48 d33d 2227 dbbd f811 babd ec82 5abd
00000280: 94c3 1bbd 04a2 63bd 3ea3 9dbd 4aab b33d
00000290: bc62 a7bd becd be3d 586d e13d 3a6a afbd
000002a0: 9051 073d 68cd abbd fce2 fcbd e270 fc3d
000002b0: 8647 93bd c00e 68bd ea0c b83d 30cb 3f3d
000002c0: 90a5 483c 1045 cb3c 440b 2bbd 30c7 e73c
000002d0: a674 8f3d 841a 8d3d 68a9 73bd 7832 8ebc
000002e0: 4436 1e3d 2ce2 273d 0074 393d 1004 6dbd
000002f0: 089d 83bd 2838 c9bd e8da 3a3d 443e cabd
00000300: bfea 06bd 5ca4 ca3c 9cd2 af3d 9ca0 2bbd
00000310: 3688 133e d4b1 efbd b8ae 64bd 35c0 3b3d
00000320: c26b fdbd 4661 ef3c 429f debe b0f3 c93d
00000330: 4ed4 8c3e a8c4 f33c b617 e43d 0605 d9bd
00000340: 2c09 15bd b04d 84bd d83a d13d c333 58bc
00000350: e886 803c 82d8 babd d8a5 e9bc 189e 93bc
00000360: b739 8dbd b2b1 20bf 1dfa de3d 70d7 c5bc
00000370: 8b99 0c3d 2364 f1bd 3778 0fbe b7d0 94bc
00000380: fe66 e3bd 2810 dfbc b688 09bd ff8f eebd
00000390: 7d73 eebc a426 573d 9ccd c5bd f821 9c3c
000003a0: 73f1 983d ca5a a83d 2c45 2a3d 8048 ed3c
000003b0: fea8 8f3d 8881 b83d f49c 46bd b161 56be
000003c0: c1a5 f2bd 19f1 47bd 437b 27be c996 883d
000003d0: 4223 403c 6418 acbb 0a34 3abe 9eac c33b
000003e0: b4e1 bd3d 9754 00be 4faa 0ebe 2887 45bd
000003f0: f6d8 de3d 546d 14bd 33b9 b63d 5d96 f73d
0.109840766 0.10496058 -0.09547045 -0.09227115 -0.08429551 -0.20698033 0.12472157 -0.09028852
0.037444536 -0.07999917 -0.44961005 -0.031854764 0.39980528 -0.031706974 0.08710267 -0.06310449
0.037948728 -0.11646235 -0.13119029 0.062679976 0.11421436 0.056153603 -0.052751303 -0.049859256
0.0700189 -0.6561611 -0.04107325 -0.01773955 0.061021484 -0.036384467 -0.05871875 -0.09975442
-0.059560835 -0.04994391 -0.039197095 -0.072673455 -0.03094139 0.032854155 -0.06941582 -0.011883318
-0.011294036 0.09719263 -0.114494994 0.08101496 -0.062327616 0.039983198 0.09345153 -0.053538006
0.05874144 -0.06293176 -0.20327613 0.08179185 0.09727123 0.076120555 -0.3769968 0.05951451
-0.038527653 -0.039417647 0.03638725 -0.002500587 0.048927203 -0.0600584 0.04715863 -0.06651984
0.11369842 0.09557846 0.06310111 0.1125287 -0.06538007 -0.05262063 -0.08857064 0.11691461
0.03776642 -0.08329503 -0.43943354 0.05148602 0.26267225 0.115275905 -0.11871512 0.09094337
-0.036814734 -0.0833866 0.10752303 -0.007596337 0.11497527 0.012645995 -0.0125615895 0.0798659
-0.0991419 -0.6407192 -0.042623874 -0.09958784 0.018530127 -0.064826 -0.124459594 0.102460265
0.10024412 0.028083697 0.1230991 0.1007029 -0.09333388 0.0115558505 -0.058147565 -0.026602209
-0.0059958524 0.050404757 -0.038208276 0.01955168 -0.05422547 0.05532916 -0.04940945 -0.108097605
-0.016929064 -0.051372055 -0.18160957 -0.024375219 0.017783098 -0.11670007 -0.386777 0.07521643
-0.10642407 -0.094411366 0.006810642 -0.08574597 0.02293852 -0.103329375 -0.08925224 0.113942176
-0.10554317 -0.023830697 -0.010640025 0.06870437 -0.044369996 -0.112348735 -0.0837491 -0.088133976
0.05381325 0.007802218 0.12051156 -0.1082558 0.05529861 -0.1137687 0.0533742 0.038468465
0.057387456 -0.008823857 0.11422683 0.0411115 -0.08837308 -0.10212754 0.058208942 -0.112356186
0.055708185 -0.108460054 -0.01692748 -0.08246434 0.10316655 -0.10700823 -0.090854585 -0.053347513
-0.038028315 -0.055574432 -0.076971516 0.08772905 -0.08173129 0.09316586 0.11007184 -0.08565183
0.03303677 -0.083887875 -0.12347981 0.12326218 -0.071913764 -0.05665469 0.08986838 0.046824634
0.012246504 0.024813205 -0.04175879 0.028293222 0.07004671 0.06889823 -0.05948773 -0.01735805
0.03862597 0.04098718 0.04527664 -0.057865202 -0.06426436 -0.09825164 0.04561892 -0.098751575
-0.032938715 0.024736576 0.085850924 -0.041901216 0.14407429 -0.1170384 -0.055830687 0.0458376
-0.12374069 0.029221188 -0.4348088 0.09860933 0.27505726 0.029756859 0.11137335 -0.10596661
-0.0363857 -0.0646013 0.10216302 -0.013195935 0.015689328 -0.09123327 -0.028521463 -0.01801972
-0.06895774 -0.6277114 0.10887549 -0.02415058 0.034326117 -0.11786678 -0.14010702 -0.01816593
-0.111036286 -0.027229384 -0.033577643 -0.11648559 -0.029107803 0.052527085 -0.096583575 0.019059166
0.07467928 0.08220442 0.041569874 0.028965235 0.070146546 0.09009081 -0.048489526 -0.20935704
-0.11848021 -0.048813913 -0.16355614 0.06669385 0.011727156 -0.005251931 -0.18183914 0.0059715053
0.09271565 -0.12532268 -0.13932155 -0.0482246 0.10881226 -0.036237076 0.08922043 0.120892264

fc3.bias f4 [32]
00000000: ee6a 8b3c a27e a23d 1c29 b0bd fbe4 2f3d
00000010: 77df 053e 49a8 94bd 4a51 973d ec5f b5bd
00000020: 346f 223d 4fe2 053e 70eb 063e 577e 2ebd
00000030: 1e4e a3bd 85fb dabd 3e2e f73b b128 13be
00000040: ef7b 3e3b 0009 bf3d 04fc 9b3d b01a 743d
00000050: 72b2 e5bd ca71 303d 0cae 163d 438c 913d
00000060: 0028 24bd b46c 52bc 432d 8f3d a000 f13b
00000070: 4092 dcbb f9df 593d 2e8e d2bd ed93 ef3d
0.017018761 0.079343095 -0.08601591 0.042942982 0.13073526 -0.0725866 0.073885515 -0.08856186
0.039656833 0.13074611 0.1317575 -0.042600956 -0.07973884 -0.10692505 0.0075433543 -0.14370991
0.002906557 0.093278885 0.076164275 0.059595764 -0.11215676 0.043077268 0.036787078 0.07106831
-0.04007721 -0.0128433 0.06991055 0.007354811 -0.0067313015 0.053192113 -0.10281025 0.116981365

fc4.weight f4 [1, 32]
00000000: 7f43 033e 6408 9e3d c54b 0cbe 08ab 203e
00000010: f93e 753d db55 0cbf 575c 063e 3139 52be
00000020: 1a1a b4bd 9290 703e 6e5a 3c3e 2400 8d3e
00000030: e040 91bc c97a 63be c955 eb3d 256b aebe
00000040: c0f4 313e dd93 1d3e b547 3e3e 7aa2 d03d
00000050: af79 2b3e 6a86 303d d4c5 4abd dcb2 0dbe
00000060: 16cf 2abe 1b57 3abe 496c 6e3e 304d 4f3c
00000070: 066c 9c3d aea4 a33e 1c89 293e e350 933e
0.12818716 0.07716444 -0.13700779 0.15690243 0.05987451 -0.54818505 0.13121162 -0.2052963
-0.08794041 0.23492649 0.18393871 0.2753917 -0.01773113 -0.22214808 0.114909716 -0.3406612
0.17378521 0.15388437 0.18582042 0.1018724 0.16745637 0.043096937 -0.04950507 -0.1383776
-0.1668056 -0.1819729 0.23283495 0.01265268 0.07637791 0.31961578 0.1655621 0.2877265
