process/predict/models/fuyang/mlp_model.pth (torch, 12124 bytes, 5 tensors)

fc1.weight f4 [64, 3]
000000 5e 44 86 be d0 83 a4 3e e6 56 b6 3e cf 7a 69 be
       -0.26224035 0.32131815 0.35613173 -0.22800754
000010 0b d2 b6 bc 21 be 1b be df 1f c8 3e 2d ed 87 3e
       -0.022316953 -0.15209247 0.39086816 0.26548138
000020 d0 3b c3 bd 16 11 46 be bd 31 0a bf 58 d4 10 3e
       -0.09532893 -0.19342455 -0.53982145 0.14143503
000030 00 3b 90 bd 44 8e dd be 92 26 f8 be 20 ae 0f 3d
       -0.07042503 -0.43272603 -0.48466927 0.035078168
000040 1f 4e b2 3e d5 24 d4 be e1 12 ad be 60 46 05 bd
       0.34825227 -0.4143435 -0.33803466 -0.032537818
000050 d8 2e bb bd 00 6a 71 3e 70 b8 43 be 62 a3 0d be
       -0.09139794 0.23575592 -0.19113326 -0.13831857
000060 e6 c6 18 3d 5c 76 eb be 3a 39 f1 3d da ca 15 be
       0.03729906 -0.4598874 0.11778493 -0.14628163
000070 cf c9 1a be df 1a 68 bd 1a 71 80 3d f6 65 54 bc
       -0.15116046 -0.05666625 0.062715724 -0.0129637625
000080 7b 2a ca 3e 91 d0 20 3d 75 23 c0 be 4b 36 b7 bb
       0.39485535 0.039261404 -0.37527052 -0.005591189
000090 97 74 09 3f aa 55 59 be 74 95 3f 3d af 12 92 be
       0.53693527 -0.21224084 0.04677339 -0.2852988
0000a0 03 87 cb 3e 67 5e f8 3e ff f5 0f 3f 3b 65 25 bd
       0.39751443 0.48509523 0.56234735 -0.040379744
0000b0 ab b8 b5 be 7c a0 00 3e 00 6c c9 3e d2 32 a8 be
       -0.35492453 0.1256122 0.3934021 -0.32851273
0000c0 cc 4c 44 3e d6 6e 9d be 80 74 4b be 4c 5c 29 3e
       0.1916992 -0.30748624 -0.1986866 0.16539115
0000d0 73 1b a1 3e 21 82 b0 3d a0 67 2b 3e b0 f9 dd be
       0.31466255 0.0861857 0.16738749 -0.4335456
0000e0 68 d9 9d 3e dc 60 ae be 60 68 98 be 8c 12 f9 bd
       0.3082993 -0.34058273 -0.29767132 -0.12161741
0000f0 10 bf dc be c0 1c 76 3c 46 77 10 be 17 f8 c0 bd
       -0.4311452 0.015021503 -0.14107999 -0.094223194
000100 c3 75 09 be af 7a dc be 96 b5 ce bd fa 64 31 bd
       -0.13423829 -0.4306235 -0.100932285 -0.04330919
000110 a8 bc 0d 3f 1e 75 ef be 26 fc 9e bd f4 6c a8 3d
       0.5536599 -0.4676904 -0.07762937 0.08223906
000120 9f ba a8 be 5f 15 c6 3e 87 f9 7b be 50 6e 03 3e
       -0.3295488 0.3868818 -0.24606906 0.1283505
000130 49 5b db 3e f6 ae 48 3e 5b 98 28 3e 1d 28 ce 3c
       0.42843083 0.19597992 0.16464369 0.025165612
000140 26 94 8d 3e 0f cc 9b bb 0d 31 e5 3e a2 a1 e4 3e
       0.2765209 -0.0047545503 0.44763985 0.44654566
000150 94 40 de 3d cc 7e d3 3e 44 0d be 3e cc bd 36 bc
       0.10852161 0.41307676 0.37119496 -0.01115365
000160 9f c6 ad be e4 17 e4 3e 42 09 a7 be ab eb 8e bc
       -0.33940598 0.44549477 -0.3262425 -0.01744636
000170 e9 8a 28 3d 44 d4 6c 3d 87 92 16 be 43 b9 f3 be
       0.0411481 0.05781962 -0.14704333 -0.4760228
000180 7d ac 12 3e 0b 73 ba 3e f2 c8 ef be 8d 2a 03 3d
       0.14323612 0.36415896 -0.46832997 0.032023
000190 59 c9 8f 3e 81 8c f7 be a2 01 d7 be 60 fb 09 bf
       0.28083304 -0.48349383 -0.41993433 -0.5389919
0001a0 3e 96 00 bf 36 c7 df be fe 40 59 3d c3 1a a2 3e
       -0.5022925 -0.43706673 0.053040497 0.31661043
0001b0 c7 6f de be e6 ad 93 3e 51 54 c6 be 56 2e 31 be
       -0.43444654 0.2884361 -0.38736203 -0.17302832
0001c0 e4 6a 52 3e 82 a6 73 be 40 d8 02 3e c0 dd e2 3d
       0.20548588 -0.23793986 0.12777805 0.11077452
0001d0 76 c3 a9 be a0 2f 09 3f 1e f2 04 bf f6 7a 31 bd
       -0.33156937 0.53588295 -0.5193194 -0.043330155
0001e0 50 ad 11 bd 80 5b ce bc 28 a9 8a bd 72 46 27 3e
       -0.035565674 -0.025190115 -0.06770545 0.16335467
0001f0 33 b8 3a 3e 7f db 35 bd 90 bf b1 be 9c 7f 1a 3e
       0.18234329 -0.04439878 -0.34716463 0.15087742
000200 3e 37 f9 be ab 41 7f be 30 93 9a be c8 50 f9 3e
       -0.4867496 -0.24927394 -0.3019042 0.48694444
000210 12 4b 0a 3f 2c 11 0d 3f 46 a8 d0 3e 54 98 7b be
       0.540208 0.5510433 0.40753382 -0.24569827
000220 40 1f d7 be 50 8c a2 be 00 99 89 3e 85 da 52 3e
       -0.4201603 -0.31747675 0.26874542 0.20591171
000230 f8 bd a8 3e c3 86 4e 3e 9a 1e 95 bd 48 34 d2 3e
       0.32957435 0.20168595 -0.072812274 0.41055512
000240 62 7d 87 be 88 94 89 3e 04 52 4f 3e 37 94 02 3f
       -0.26462847 0.26871133 0.2024613 0.5100741
000250 5a 9d 95 bb 8c ae 05 3e 0c ca 0b be 44 09 00 bf
       -0.004565877 0.13054866 -0.13651294 -0.5001414
000260 76 6b b0 be 24 f0 74 3e cd d0 de be e5 09 fc be
       -0.34456986 0.23919731 -0.43518677 -0.492263
000270 de fe c4 be 40 a9 b1 3e 4a 61 6a be 1d 2c d8 3e
       -0.38475698 0.3469944 -0.22888675 0.42221156
000280 84 4b 8f 3e 14 ed 29 be 95 61 b5 be df da 94 bd
       0.279873 -0.16594344 -0.35426012 -0.07268309
000290 2f 3e e0 3d a1 a1 f5 3e 32 ab 03 3f 8e 81 6d 3b
       0.109493606 0.47974876 0.514331 0.003624055
0002a0 01 69 1a be e8 1e b4 be 1d 57 c9 3e 97 cf 55 be
       -0.15079118 -0.3517983 0.39324275 -0.2087997
0002b0 18 24 7f be 34 28 0b 3f 85 0a 05 bf e7 e3 60 3d
       -0.24916112 0.5435822 -0.51969177 0.054904845
0002c0 f1 00 00 3f ef a4 f3 3e 6f 19 b4 3e 55 8f c0 3e
       0.50001436 0.47586772 0.35175654 0.37609354
0002d0 dd d1 c9 3e 24 d2 c2 bd 6e 5f fa be 79 3e ab 3e
       0.39417925 -0.095127374 -0.48900932 0.334461
0002e0 0c 54 c7 be 71 1c 89 bd f9 7d 44 3e 84 36 07 bf
       -0.3893131 -0.06694878 0.1918868 -0.5281756
0002f0 c4 c2 98 bd dd 24 67 3e f1 fc 88 3d 1c 70 c9 3e
       -0.074590236 0.22572656 0.0668887 0.39343345

fc1.bias f4 [64]
000000 1f 7b 05 bf d6 a2 d6 3e 9a 09 d5 bd 30 2b fe bd
       -0.5214099 0.4192111 -0.10402222 -0.12410581
000010 5a d5 f1 be 5b 76 f3 3e c8 fd e3 bd 9a f5 f3 be
       -0.47233087 0.47551236 -0.11132389 -0.47648317
000020 96 be c9 3b 68 a4 96 3e ee 4a 84 bc 4d 50 9d 3e
       0.006156753 0.29422307 -0.01614901 0.30725327
000030 df 58 a0 be 17 7f 2d 3e 1f aa 6d be 4d 7a 98 be
       -0.31317803 0.16943012 -0.23209427 -0.29780808
000040 60 cb 4b be f5 cb e0 3e bb 80 11 bf 6d a7 15 3f
       -0.199018 0.43905607 -0.5683705 0.58458596
000050 24 a7 44 be b3 6b d2 3e bd 16 ca 3e 88 37 49 3e
       -0.19204384 0.41097793 0.39470473 0.1965009
000060 68 4e 4c 3e bb be 05 3f 7e 02 d1 3e 15 74 96 3c
       0.19951785 0.52244157 0.40822214 0.0183659
000070 05 7c 83 3e 11 ad 6f 3e f5 96 12 3e 72 7f f8 3e
       0.25680557 0.23405863 0.14315398 0.48534733
000080 86 6a bb bd 30 3c 1b 3e 27 87 ae be f2 bd 3a bd
       -0.09151177 0.15159678 -0.34087488 -0.045591302
000090 9f 8f ed be d0 82 72 be 07 d7 0d bf f8 91 32 3d
       -0.46398637 -0.23682714 -0.5540623 0.043596238
0000a0 c1 5e 05 bf bb 58 0b 3f b9 aa 03 bf 2b c2 f9 bd
       -0.5209771 0.54432267 -0.5143238 -0.12195238
0000b0 10 eb a7 be d5 09 05 bf 74 c6 ca be bf c3 22 be
       -0.32796526 -0.5196813 -0.39604533 -0.15894984
0000c0 c6 4b dd be 29 4d a7 3e cc f8 5f be d9 09 6f 3e
       -0.43221873 0.32676056 -0.21872252 0.233436
0000d0 14 0b f4 be d2 5a eb bd 4f 2a 4e 3e 86 f8 24 3d
       -0.47664702 -0.11491932 0.20133327 0.040276073
0000e0 ef 09 66 3e f3 ca b1 be 0c 30 8c 3e 4d c0 02 bf
       0.22464727 -0.3472515 0.27380407 -0.5107468
0000f0 8e 72 75 3c 18 f0 19 3e c5 0b 05 3f 92 76 e5 be
       0.014980925 0.15032995 0.51971084 -0.44817024

fc3.weight f4 [32, 64]
000000 58 9d 84 3c 44 c2 c2 bd 60 0b 42 3b 40 09 a7 3d
       0.016188309 -0.095097095 0.002960883 0.08156061
000010 80 5a 96 3a ad c8 a8 bd 50 83 64 3c d8 55 cd bd
       0.0011471063 -0.08241401 0.013947323 -0.10026139
000020 55 2c ed bd 33 81 ad bd b2 4c 63 3d 20 a0 00 be
       -0.11580721 -0.084719084 0.055493064 -0.12561083
000030 c9 3b e3 bd 17 16 f8 bc 7e 5a 4e 3d 0c 3d 25 bd
       -0.110953875 -0.03028397 0.05037927 -0.040341422
000040 f6 8b 88 bd 91 a9 d2 3d 46 75 8f 3d de 44 10 3d
       -0.066673204 0.102862485 0.0700479 0.035221927
000050 76 10 b4 3d bb 10 46 3d a8 dd f7 3d 93 49 9a 3d
       0.08792202 0.0483558 0.121028244 0.075335644
000060 9b 29 61 bc c2 3b 65 bd 24 52 fb bc 0e 4f 9d 3c
       -0.01374283 -0.055965193 -0.030678816 0.019202735
000070 2d 78 b8 bc eb 78 6f 3a cc 27 b0 3b c7 5d a5 bd
       -0.022518242 0.00091351446 0.005375838 -0.08074527
000080 28 8c 5f 3d 48 a5 93 3d 00 16 04 3b f4 9d 6c bc
       0.054577023 0.07209259 0.0020154715 -0.014441956
000090 f0 41 81 bc 92 48 d6 bd 40 5e 2f 3c df 2b f8 bd
       -0.015778512 -0.104630604 0.010703623 -0.12117743
0000a0 20 f5 03 bc 97 49 b8 3d 36 88 cd 3d b7 f4 c8 3c
       -0.008054048 0.08998411 0.10035746 0.024530752
0000b0 90 05 a4 bd 18 2d 2d 3d 10 95 a6 3d ac 22 18 bd
       -0.080088735 0.042279333 0.081339 -0.03714244
0000c0 20 0b 6b bd 9e 91 89 bd 58 31 29 3d 4f 91 be 3d
       -0.057383657 -0.067172274 0.041306823 0.09305059
0000d0 70 3b c0 3d 90 55 9d bd 32 24 af bd a1 80 18 bd
       0.09386337 -0.076823354 -0.085518256 -0.037232045
0000e0 de f4 95 3d 4f 71 55 3b 32 bf e0 bd 31 33 1b bd
       0.07322095 0.0032568758 -0.109739676 -0.037890617
0000f0 4b 92 83 bd eb 48 60 3c 3d 91 ed 3d 53 08 64 3d
       -0.064243875 0.01368926 0.11599968 0.055672
000100 f8 bf 9f 3c 75 73 2f bd db ef 95 bc 00 e3 0e bd
       0.019500718 -0.042834718 -0.018302849 -0.034884453
000110 80 cc 2c 3d e4 1f 61 bb 26 0b cc 3d 40 48 83 bd
       0.042187214 -0.0034351284 0.09963064 -0.06410265
000120 72 67 7e 3d d8 e8 40 3d 79 ac d0 3b 27 bd 25 bc
       0.062110372 0.047097057 0.0063682166 -0.010115898
000130 e2 14 62 3a 3d 1d 85 bd c6 cd 85 bd 78 5c 37 bd
       0.00086243276 -0.064997174 -0.06533389 -0.04476592
000140 18 ec aa 3d 33 16 df 3c 0c 63 a0 bd 2c 9f 9c 3d
       0.083458126 0.027232265 -0.07831392 0.07647547
000150 8c 94 26 3d 56 26 41 bd 41 72 03 3e d3 a9 af 3b
       0.04066901 -0.0471557 0.12836553 0.005360821
000160 b8 91 e4 3c dd ac 96 3d d8 da 8e 3d a8 e8 b2 bd
       0.027901515 0.0735719 0.06975335 -0.08735782
000170 92 2a 63 bd ed 35 1e bd 7a 46 e4 3d 50 25 dc bd
       -0.05546052 -0.038625646 0.11146255 -0.10749304
000180 a0 5a 9a 3c 00 fc 25 b9 a8 8b fc 3d e3 7b ab 3d
       0.018842041 -0.00015829504 0.12331325 0.08373239
000190 00 4a c6 3d 24 1d 16 3d f0 7c bc bc 46 b6 cc bd
       0.09682083 0.036648884 -0.023008794 -0.099957034
0001a0 cc 18 9a bd 6c e2 c6 bd 00 22 9f ba fa 81 f1 bc
       -0.07524261 -0.09711155 -0.001214087 -0.029480923
0001b0 2b 34 ac 3b e0 f9 30 bc 19 3a 78 3d 28 32 c2 3d
       0.0052552423 -0.010801762 0.06060228 0.09482223
0001c0 8c 7a ef 3d 06 c8 8f 3d 0c da ff 3d 9a db cb 3c
       0.11693296 0.07020573 0.12492761 0.024884988
0001d0 70 d1 f8 bc 2b 60 5d bd 7b f4 90 bd 37 b8 96 bd
       -0.030373305 -0.05404679 -0.07077881 -0.07359355
0001e0 c0 4e 09 3d 68 3e 15 bd b6 62 bd 3c a8 72 f7 3d
       0.033522367 -0.03643647 0.023118358 0.12082416
0001f0 70 60 d6 3c 46 28 c0 3c 3d ba 76 bd 44 59 9b 3c
       0.026169032 0.023456704 -0.060236204 0.018963464
000200 68 38 b2 3d a9 06 53 3d 73 5b b9 bd 30 e4 0d bc
       0.08702165 0.051520023 -0.09050646 -0.008660361
000210 90 8b 84 bd af 47 51 3d 80 83 e2 bb e4 8f 6d 3d
       -0.06471932 0.051093753 -0.0069126487 0.057998553
000220 94 8d f7 bc ca 2c b1 3d 29 d2 3d 3d ee 89 f8 bd
       -0.030218877 0.08651121 0.046343002 -0.12135683
000230 d9 67 9f 3d 6f f8 31 3d f4 a9 ba 3d 04 33 4e 3d
       0.07783479 0.043449815 0.09114447 0.05034162
000240 b4 cc 3a 3d 1f bf de bb 34 3f 0c 3d b7 62 8c 3d
       0.045605376 -0.0067976858 0.034239963 0.06854766
000250 62 db fc bd 99 43 e2 3c 1b 81 85 3d 31 2f 92 bd
       -0.123465315 0.027620124 0.065187655 -0.07137907
000260 db 69 a2 3c f8 23 42 3c 4b aa 05 be eb b8 90 bc
       0.019825866 0.011849396 -0.13053243 -0.0176663
000270 6c b9 68 3d c5 c2 7d 3d e6 43 ec 3d 6d 5a bc 3d
       0.056817457 0.061953325 0.11536388 0.09196935
000280 6d db e2 bc c8 47 1a bc e0 6c 49 3d ac 4a 3d bd
       -0.027692521 -0.009416528 0.049176097 -0.04621379
000290 bc 44 2f bd 80 7a e4 3b 50 a4 1b bd c9 e0 73 3c
       -0.04279016 0.006972611 -0.037998497 0.014885136
0002a0 c0 15 5e bc 5c 2f c6 bd 84 2d 90 3d 8b 84 b8 bd
       -0.01355499 -0.09677002 0.070399314 -0.090096556
0002b0 e2 07 a7 3d 80 6a 9f bb 1a a5 5a 3d a7 27 f9 3c
       0.081558004 -0.0048649907 0.05338011 0.030414416
0002c0 20 7a f3 3d 6d 58 b2 3d 48 3a 08 bd 21 0d 84 3d
       0.11888528 0.08708272 -0.033258706 0.06447817
0002d0 ee 5d ca 3d c0 2b ad 3d c7 9e 96 bd 6f 05 6c bd
       0.09881197 0.0845561 -0.07354503 -0.05762237
0002e0 6e dd 43 3d fd 61 31 bb d8 11 3c 3b fb a0 28 3d
       0.047818594 -0.0027066462 0.002869716 0.041169148
0002f0 5f 31 eb 3d 10 75 da 3d a4 8c a0 3d b6 a0 25 3d
       0.11484026 0.10666859 0.07839325 0.04043647
000300 6c c4 2f bd f4 c0 a4 3d e3 b9 04 3d d0 1b 6a 3d
       -0.042911932 0.080446154 0.032403838 0.05715543
000310 f0 ae 0d bc cc c7 62 3d 94 c6 61 3d 86 99 b4 bd
       -0.008647665 0.055366322 0.05512102 -0.08818345
000320 4f 30 d7 3c fd 51 26 3d b3 9e f1 bd d2 52 22 3d
       0.026268153 0.040605534 -0.117978476 0.039629765
000330 27 29 2e 3d 4f b0 a4 3a a1 77 38 3d 30 41 e6 bd
       0.042519715 0.0012564751 0.045035962 -0.11242902
000340 04 1b 29 3d 3c 54 4f 3c 22 ec b2 bd 37 ae cb 3d
       0.04128553 0.01265436 -0.08736445 0.09945338
000350 2c cc 5c 3d 5d 20 14 bc 08 ca a8 3d b4 49 b3 bd
       0.05390565 -0.009040919 0.082416594 -0.08754292
000360 94 e1 87 bd fb 74 29 3d 7d 62 08 bd 64 92 a3 3d
       -0.066348225 0.041371327 -0.03329705 0.07986906
000370 93 d3 90 3d 59 0b d9 3d 15 54 d8 3d f2 8b cc 3d
       0.070716046 0.105978675 0.105629124 0.0998763
000380 d3 d9 7b bd ad 47 92 bd e4 3c 28 bd bf a7 80 bd
       -0.06148703 -0.07142577 -0.041073695 -0.06281995
000390 d2 36 e0 3d c0 0f 95 3d ee 1a d1 3d 07 6c 3d bd
       0.10947956 0.07278395 0.102102146 -0.0462456
0003a0 56 51 d9 bd 75 12 bc 3d a0 0d a9 bd de 03 19 3d
       -0.10611217 0.09183208 -0.08254552 0.037357204
0003b0 cb 11 96 3d 56 56 fd 3d 9a c1 8a 3d 7a 08 7c bd
       0.073276125 0.12369983 0.06775208 -0.06153152
0003c0 e0 67 dd bc ee 94 b9 bd d0 46 cd 3d 53 f0 9e 3b
       -0.02702707 -0.09061609 0.10023272 0.004850426
0003d0 d6 8d 9a bd 37 a1 a4 bd 21 17 02 3c 00 d8 da 3d
       -0.07546584 -0.08038562 0.007940085 0.1068573
0003e0 bc df 2f bd 5e f7 a2 3c be 01 af bc c1 ea 7f bd
       -0.04293798 0.019893344 -0.021363135 -0.06247974
0003f0 01 50 bc bd 43 5e 33 3a cb 3e 28 3d 4f 94 12 3c
       -0.09194947 0.0006842354 0.04107551 0.008946492

fc3.bias f4 [32]
000000 8a f9 bd 3b b2 8e 15 bd e9 54 f5 bd f9 d8 ad bc
       0.0057975696 -0.036513038 -0.11979086 -0.021221625
000010 1d 2f 07 3e 3e 22 84 3d 08 4c d1 bd b9 b5 6b 3d
       0.13201566 0.06451844 -0.1021958 0.05754635
000020 68 be 7a bd 2b 73 57 3d 8f 88 d8 3d 78 fb ec bd
       -0.06121674 0.052600067 0.105729215 -0.11571401
000030 2e 6b 02 be 29 78 6a 3d 0e 17 c7 bd 69 c5 d1 3d
       -0.12736198 0.0572435 -0.09721194 0.10242731
000040 5e 9d ba 3d df 2d 93 3d c0 cd 7e bd 7a 8b e8 bd
       0.09112047 0.071864836 -0.062207937 -0.11354728
000050 97 83 a1 bc de 5b e4 3c 5a 1f a2 3d 39 98 96 bc
       -0.019716067 0.027875837 0.07916136 -0.018383132
000060 01 2f 3c bd 0a f9 e4 bd 86 ea aa 3d 14 39 10 bd
       -0.045943264 -0.11180313 0.08345513 -0.035210684
000070 b1 db 76 3d f1 9f a2 bc 22 75 e9 3d 48 ec ad bd
       0.060268108 -0.019851657 0.113992944 -0.08492333

fc4.weight f4 [1, 32]
000000 9e 61 86 3d d5 8f 45 3e 21 6a 8f 3d a3 85 b9 3d
       0.06561588 0.19293149 0.07002664 0.09058692
000010 38 46 89 bd a0 38 d6 bd 66 94 0c be 32 1c 3a be
       -0.06702846 -0.10460019 -0.13728485 -0.18174818
000020 26 2e d0 3d 46 fa 7b 3d 8c ab 14 bd 60 51 b5 3c
       0.10165052 0.061517976 -0.036296412 0.02213353
000030 ff a3 2c 3c 64 c4 12 3e df 77 c9 bd ac 9b 8f 3d
       0.010537147 0.1433273 -0.09837317 0.07012114
000040 22 6a f7 3d 17 c5 c5 bd cc 93 3a 3d 26 cd 87 bd
       0.1208079 -0.096567325 0.045551106 -0.06630926
000050 30 54 02 3d 44 c8 a4 3d 60 c5 e7 3d 30 f8 18 3e
       0.03181857 0.0804601 0.11316943 0.14938426
000060 34 c8 8c 3c 04 8f 05 3e ff 59 a7 bd a5 76 23 3e
       0.017185308 0.13042837 -0.08171462 0.15963228
000070 37 0c 0b be a5 29 e9 bc 5c e7 46 3d 60 8f b9 3d
       -0.13578878 -0.02846224 0.048560485 0.0906055
